model.onnx (onnx, 449641 bytes, 48 tensors)

conv2.weight f4 [10, 256, 1, 1]
000000 a0 b3 8a 3e 6b 34 8d 3d d1 82 34 3d 7d f2 84 3d
       0.27090168 0.068947636 0.04407007 0.064915635
000010 a1 c2 45 3e 44 33 5f be 51 29 eb 3d bd e3 f5 bd
       0.19312526 -0.217969 0.1148249 -0.12006328
000020 b4 f1 05 bd 82 ed dc 3d f1 ba 1b 3e 2a cc 80 be
       -0.03270121 0.107874885 0.15208031 -0.25155765
000030 1b d3 fd bd 78 ae e8 3d 3e 75 99 be 80 d0 5e bc
       -0.12393781 0.11361402 -0.2997226 -0.013599515
000040 bb 19 2b be ed 61 2a 3e 55 d1 19 bd ae c1 87 3e
       -0.16709034 0.16638918 -0.03755315 0.26514953
000050 88 29 98 bc bb d5 8c be ab 50 7e be 6f ed da 3b
       -0.018574491 -0.27506813 -0.2483546 0.0066811363
000060 de 56 bc 3d 1d fe 7c 3d 57 92 51 3e e4 ad 39 be
       0.09196256 0.06176578 0.2046598 -0.1813274
000070 d3 bf 8c bd 0c 1c b4 bd 99 12 12 be 75 5d 2d be
       -0.06872525 -0.08794412 -0.14264907 -0.16930182
000080 21 fb 22 3d 61 1b f3 3d 31 1b 5a 3d 69 91 22 be
       0.039790276 0.118704565 0.053248588 -0.15875782
000090 1e a2 9c be 84 bf 1f be 3b 03 49 bd 71 5a cd bd
       -0.30592436 -0.15600401 -0.049075346 -0.10027016
0000a0 67 23 fb 3d 62 89 21 be 41 88 30 be 16 3c 2f 3e
       0.12262612 -0.15775064 -0.17239477 0.17112765
0000b0 c7 6a 85 3e bd 7d 05 bd 0b 27 68 3e 4a 91 3f be
       0.26058027 -0.032590616 0.22671144 -0.18707767
0000c0 7a e5 68 be fd 3d 97 be 1c 55 29 3e 28 de c8 bd
       -0.22743788 -0.2953948 0.16536373 -0.09807998
0000d0 2b 03 20 3e ef b7 20 be 00 a9 53 bd 1f 52 7e bd
       0.15626208 -0.15695165 -0.051674843 -0.062090036
0000e0 c9 47 35 be 30 09 87 bc 0a 81 15 3d 56 28 f2 bd
       -0.17703165 -0.016483873 0.036500014 -0.118241
0000f0 b5 12 22 3e 60 1e a8 bd 53 5f b0 bd 44 0d 53 be
       0.15827449 -0.082089186 -0.08611932 -0.20610529
000100 18 2a a8 bc 0c c9 62 3d 1b d2 cf 3d a9 10 69 be
       -0.020527884 0.055367514 0.10147496 -0.22760262
000110 e9 cd 10 be ab b9 45 be e7 7c 89 bc fd bd 31 3e
       -0.14141048 -0.19309108 -0.01678319 0.17357631
000120 9b 04 90 be be 9d 15 3a ef fe ab bd 98 c7 08 be
       -0.28128514 0.00057074043 -0.08398234 -0.13357389
000130 e1 f3 20 be ea 6a ce bd 7f a8 f1 3a 07 00 30 3e
       -0.15718032 -0.10078986 0.0018437057 0.1718751
000140 b9 69 4a 3e 7b ca 6d be 2e 09 33 bd 5d dd 33 be
       0.19766892 -0.23221771 -0.043709926 -0.17564912
000150 5b a0 d8 bb f4 3d 7a bd 45 af 46 3e 1c 8c 35 3e
       -0.0066109127 -0.06109424 0.19402798 0.17729229
000160 f9 b1 18 3e aa 16 ae bd 1c c8 32 bc fd d8 48 be
       0.14911641 -0.085004166 -0.010911968 -0.19614024
000170 f1 83 19 3e 21 5c 63 be e2 ba b0 bd 54 21 5c be
       0.14991738 -0.22203113 -0.08629395 -0.21497089
000180 99 f5 ee bd c9 88 55 be 04 83 20 be 43 0e 86 3d
       -0.11667938 -0.2085296 -0.15674978 0.06545689
000190 ff a1 a9 bd 16 34 d9 bd b6 49 11 be 07 d1 05 3d
       -0.082828514 -0.10605638 -0.14188275 0.032670047
0001a0 a5 b4 ed 3d 42 85 55 3e 1a ed 63 3e 40 e7 88 3e
       0.11606721 0.20851615 0.22258416 0.2673893
0001b0 70 e9 a5 be c7 55 08 be 78 60 25 be eb b8 a7 3d
       -0.3240466 -0.13313971 -0.16150081 0.08189567
0001c0 d1 14 0c be 0d 86 e9 3c 4b d3 26 be 89 a2 0b be
       -0.13679816 0.028506303 -0.1629154 -0.13636221
0001d0 68 04 94 bd 7d 8c 73 be 34 ea dc bd 88 c6 c6 3d
       -0.07227403 -0.23784061 -0.10786858 0.097058356
0001e0 11 60 31 3e 4d 79 59 3e 80 ba 5b bd 39 93 86 bd
       0.17321803 0.21237679 -0.053644657 -0.06571049
0001f0 de c7 c4 3d aa 75 91 be 8f b6 36 3e 14 7e fe 3d
       0.09608434 -0.28410083 0.17843078 0.12426391
000200 ed d5 74 bc c9 86 d8 3d 3b 10 2b be cb ca 7d bd
       -0.014943582 0.10572583 -0.1670541 -0.061960977
000210 ef 0f 05 3e 7e 74 a5 be 90 bd 67 be a2 06 2b be
       0.1299436 -0.3231544 -0.22630906 -0.16701749
000220 32 4a fc bd bb 70 35 be c8 e2 0d be 7a 7c bf bc
       -0.12318839 -0.17718785 -0.13856041 -0.023374785
000230 f7 97 56 3e ff 0e e3 3d d6 10 30 be 8c 93 84 3e
       0.20956407 0.11086845 -0.17193922 0.2589382
000240 ce 91 ef bd 3f e5 cd 3d b1 b6 85 bd 27 ad 18 bd
       -0.11697732 0.10053491 -0.06528986 -0.037274506
000250 70 4f 9b be 91 e9 b7 bd 9a 8f 28 3d 1a e6 82 be
       -0.30334044 -0.08980096 0.041152574 -0.2556618
000260 e0 c0 e5 bd 45 da 36 be 3c ab 1b be ab da 83 bd
       -0.112184286 -0.178567 -0.1520204 -0.06438192
000270 46 03 6b 3e fd ed 93 bd a7 85 9e be bf ef 88 be
       0.22950467 -0.07223127 -0.30961344 -0.26745412
000280 3f c3 72 3e 47 e9 6c bd e1 0f fd 3d 8c 01 5c be
       0.23707293 -0.057839658 0.12356544 -0.21484965
000290 39 4e 9b 3d ac fd 2e 3d 84 cc 00 be 60 bf c7 bd
       0.07583279 0.04272239 -0.12578017 -0.09753299
0002a0 e5 79 20 be f3 df e2 bd 3f 6e 4a be 15 65 11 be
       -0.15671499 -0.11077871 -0.19768618 -0.14198716
0002b0 a1 5e bd bd eb 30 89 be 37 2f 97 be ca ce 4b be
       -0.09246565 -0.26795134 -0.2952821 -0.19903103
0002c0 4f a2 4d be 39 a4 71 be 49 dd 7d 3e 27 fc 6e be
       -0.20081447 -0.23597802 0.24791445 -0.23338376
0002d0 46 69 6c bc 64 6b 77 bd 18 0b ef 3d 39 91 21 3e
       -0.014429396 -0.06040515 0.11672038 0.15778054
0002e0 05 cd 33 bd 96 8b 1f be 6f 14 1e be 66 62 80 3d
       -0.043896694 -0.15580592 -0.15437482 0.06268768
0002f0 1f d8 7a 3e f3 e7 69 3e 75 3e c0 3d 41 88 8e be
       0.24496506 0.22842388 0.09386913 -0.27838328
000300 c7 51 eb bd bd 1c 4e bd 20 4a 77 be d5 53 b3 3d
       -0.11490207 -0.050320376 -0.2414937 0.08756224
000310 96 4f 3c be 41 e8 84 3e f7 29 0e bd 06 34 5b be
       -0.18389735 0.25958446 -0.03470799 -0.21406564
000320 59 3f ca 3d 27 3e 06 be bd 37 21 be ef ba ec bd
       0.09875364 -0.13109647 -0.15743919 -0.11559092
000330 b3 cd b1 ba 76 db 89 be a4 96 60 be 33 b5 e2 3b
       -0.0013565331 -0.26925248 -0.21932465 0.0069185733
000340 27 4c 39 be d5 9e 2d bc bd b1 ea 3d 97 c8 86 bb
       -0.18095456 -0.010596951 0.11459682 -0.0041132676
000350 67 70 3e be 3f 8e b6 be 99 ef d4 bd da 94 42 be
       -0.18597566 -0.356554 -0.10397262 -0.19002095
000360 87 b8 35 3e 7b 25 0e be 70 43 86 bd 8e 57 8f be
       0.17746173 -0.13881485 -0.065558314 -0.27996486
000370 0a 99 2c bd 5a ab 6a 3e 99 31 9d bb be d5 09 bd
       -0.042138137 0.22916928 -0.0047971723 -0.033651106
000380 cf 9a 27 3d 93 5b b4 bd 88 e7 c5 bc cc 7f 58 be
       0.04091912 -0.08806529 -0.024158254 -0.211425
000390 60 52 c1 bd e0 5d 57 be 1a 6a 65 be 9e 51 17 be
       -0.0943954 -0.21031904 -0.22403756 -0.14777228
0003a0 a4 78 71 be dc ac 33 bd a7 09 75 be 3d fe b7 3d
       -0.23581177 -0.043866023 -0.23929463 0.08984039
0003b0 02 05 68 be a6 b3 06 bd 35 3e 8c be d4 47 cd bb
       -0.2265816 -0.03288617 -0.2739121 -0.006264666
0003c0 dc da 81 be 2e ae e9 bd ba 73 ed 3d 75 db c3 bd
       -0.2536229 -0.11410175 0.11594339 -0.095633425
0003d0 90 47 55 bd 12 ec 72 3e cc fb ed 3c d2 e9 86 be
       -0.0520702 0.23722866 0.02905073 -0.26350266
0003e0 84 ac 18 3e fd 70 e3 bd 08 7a 0e be be 5e 32 3e
       0.1490956 -0.11105535 -0.13913739 0.17418954
0003f0 98 aa 98 bc 23 8f 44 be 22 ad 1f 3d c1 e8 cc 3b
       -0.018636033 -0.19195227 0.03898347 0.0062533324

conv2.bias f4 [10]
000000 35 32 60 3b a1 8e 39 3d 74 a6 53 bd ed e3 06 3c
       0.0034209613 0.045302037 -0.051672414 0.008233053
000010 e7 0e db b9 cb 29 8e bc d5 08 82 bd d5 c1 c4 bb
       -0.00041782038 -0.017353913 -0.06349341 -0.006004552
000020 e8 91 a8 3d e6 c5 81 3c
       0.082309544 0.015841436

238 f4 [32, 1, 1, 1]
000000 ab 37 59 40 83 82 5a 40 cb e2 5f 40 06 ed 60 c0
       3.3940227 3.4142158 3.4982173 -3.5144668
000010 ca cb 63 c0 fb b9 5f c0 c4 6c 5e 40 60 33 61 c0
       -3.5593133 -3.4957263 3.4753885 -3.5187607
000020 f8 e8 56 40 72 b6 53 40 6d 2d 63 c0 76 6d 5d 40
       3.3579693 3.3080106 -3.5496476 3.459806
000030 07 47 4a c0 f9 51 60 40 1c 63 5b c0 64 7a 5b 40
       -3.1605852 3.5050032 -3.4279242 3.4293451
000040 60 d4 5d 40 47 64 5f c0 85 e5 54 c0 4e 89 61 c0
       3.4660873 -3.4904954 -3.3265088 -3.5240054
000050 32 00 52 c0 3a 76 67 c0 1c 7e 5e c0 d9 c7 59 c0
       -3.281262 -3.616591 -3.476447 -3.4028227
000060 cb 78 56 c0 fe ed 5a c0 79 7e 61 c0 60 ce 5c c0
       -3.3511226 -3.420776 -3.5233443 -3.4500961
000070 e8 d1 5b c0 e5 ef 59 40 5d 72 5a c0 3b 73 61 c0
       -3.4346867 3.405267 -3.4132302 -3.522658

239 f4 [32]
000000 81 a3 cb be e9 9d d0 be 51 8e cb be dc de d4 3e
       -0.3977318 -0.40745476 -0.39757016 0.41576278
000010 f7 a6 c4 3e 40 ba c4 3e 46 32 bf be 65 bc d7 3e
       0.38408634 0.38423347 -0.37343043 0.4213592
000020 e4 72 be be 6d d9 be be c1 84 c4 3e f9 2f b4 be
       -0.3719703 -0.37275258 0.38382533 -0.3519285
000030 e2 ef 97 3e a1 b2 bd be 0d 67 d0 3e b3 b6 c8 be
       0.29675204 -0.37050346 0.40703622 -0.39201888
000040 bf ea cf be 45 1c c6 3e 8c b1 b8 3e 86 b9 cc 3e
       -0.40608785 0.38693443 0.36072958 0.39985293
000050 6a 61 9e 3e cf 5c d2 3e 13 60 d3 3e 2b 40 b4 3e
       0.30933696 0.41086432 0.41284236 0.35205206
000060 b4 87 b9 3e ef 46 ce 3e 76 f5 c7 3e 82 d3 ba 3e
       0.36236346 0.40288493 0.3905446 0.36489493
000070 52 6b c0 3e d6 a6 d4 be 94 a7 ca 3e 8a ef d8 3e
       0.3758188 -0.41533536 0.39580977 0.42370254

241 f4 [32, 32, 1, 1]
000000 38 76 b7 3e 24 48 ae be c6 93 c8 bd 26 27 45 be
       0.3583238 -0.34039414 -0.097938105 -0.19253215
000010 f0 09 78 be 24 3f d2 3d 92 c2 26 be f6 51 3d be
       -0.24222541 0.10265949 -0.1628516 -0.18488297
000020 64 3b bf 3d 24 f3 5d bd 26 2d 64 be 91 68 64 3e
       0.093375 -0.054186955 -0.22282848 0.22305514
000030 f0 ff 65 be c6 06 be 3e b9 67 c9 be 10 0b f3 bc
       -0.22460914 0.37114543 -0.39336947 -0.029668361
000040 29 cd cb 3e dc b1 dc be cc b7 fd 3d 80 94 b5 be
       0.39804962 -0.43104446 0.12388572 -0.3546486
000050 17 06 81 3e 4e d3 9a 3e f9 ca 93 be 76 3f 50 be
       0.2519996 0.30239338 -0.28865793 -0.20336708
000060 11 31 ca be 23 b4 87 3e 33 98 72 3e fd f1 df be
       -0.3949056 0.2650462 0.23690872 -0.4373931
000070 3a 63 b4 3d 4a ce 7e bd b4 aa ee 3d 88 97 dd be
       0.088079885 -0.06220845 0.11653653 -0.43279672
000080 7b f0 13 bc d1 ce 55 3e 88 b3 36 3d b7 54 cf bc
       -0.009029503 0.20879675 0.044604808 -0.02530895
000090 ef c3 75 bd 18 86 a0 bc c2 c4 09 3e 8f ca 2b be
       -0.06000131 -0.01959519 0.13453963 -0.16776489
0000a0 8a c4 8f 3d cc 2a 34 3e 0b b1 92 3d f3 93 30 bc
       0.07019909 0.1759445 0.071626745 -0.010777461
0000b0 8e 24 34 bc 76 1b 39 3e 8c fc 9d 3b b4 6d 15 3e
       -0.010995043 0.18076882 0.0048213657 0.1459263
0000c0 4f 62 39 3e 8f 09 4a be 0e 86 6c 3d c3 6a d6 3d
       0.18103908 -0.19730209 0.057745032 0.10469582
0000d0 c5 3c 0a 3d 5e 13 14 be 99 c8 ec 3d 31 84 49 be
       0.03374936 -0.14460513 0.115616985 -0.19679333
0000e0 51 4f 97 3d 70 b1 44 bd 0b dd 21 bd ab e9 9d 3c
       0.07388175 -0.04802078 -0.039517444 0.01927646
0000f0 f9 7e 1d be b8 a4 45 bd 18 f1 c3 bd 8c 9b 8e bd
       -0.15380467 -0.04825279 -0.09567469 -0.06963262
000100 9d 86 be 3c 43 49 46 be 89 9d 0a be 90 d7 97 be
       0.023257548 -0.19363885 -0.13536657 -0.2965665
000110 b0 21 67 3e 6e a9 9e be 9d 3a 1e bd 95 9a bd bc
       0.22571445 -0.3098864 -0.038630117 -0.023145
000120 88 63 a3 3e 00 d4 ac 3e 50 e8 86 3b 85 04 58 3e
       0.31911874 0.33755493 0.0041170493 0.21095474
000130 ac a2 87 3e 71 28 a4 3e 6b 3b 91 bd e4 38 7c 3e
       0.26491296 0.32062104 -0.07091411 0.24631077
000140 98 e2 1f be e3 d3 c3 be a1 47 ca be 15 de c7 3c
       -0.15613782 -0.38247594 -0.39507774 0.02439789
000150 3d f2 1d bd 34 ad af be 3d ff 45 3e 6e d3 03 be
       -0.038561095 -0.3431183 0.19335647 -0.12873623
000160 91 c3 82 3d e7 6f 8f be 18 50 62 3e 6a 4b 4c 3e
       0.063849576 -0.28015062 0.22100866 0.19950643
000170 e8 7f 8f be 92 f3 04 3e 82 89 59 3e 54 2c e3 bd
       -0.28027272 0.1298354 0.21243861 -0.11092439
000180 11 d6 51 be f1 fe 56 3e 89 a7 97 3e 75 bf 8b 3e
       -0.20491816 0.2099569 0.29620007 0.27294508
000190 11 1a 91 3e c7 2a 7f be 4d fc ae 3e 59 ef 29 be
       0.283402 -0.24918662 0.34176865 -0.1659521
0001a0 78 d2 89 3e eb 43 b7 3d fa c2 a9 3b 40 d3 ed bd
       0.26918387 0.08948501 0.0051807137 -0.11612558
0001b0 7d ba 47 be b9 c4 ba 3e 50 58 18 3e 2d 92 c2 bd
       -0.19504733 0.36478212 0.14877439 -0.09500537
0001c0 9d 02 9d 3e 3b 53 f3 bd 01 67 c4 3d 2e 70 86 bc
       0.30666056 -0.11881109 0.09589959 -0.016410913
0001d0 46 ff fb bc 9a 7c 74 be cd 43 93 3e 0d 1d f1 bd
       -0.030761372 -0.23875657 0.28762665 -0.11773119
0001e0 38 0e 83 be f5 a5 34 be 2f 79 71 be 62 6c 42 3e
       -0.25596786 -0.17641433 -0.23581384 0.18986657
0001f0 11 3f 68 3e 8a bb 52 be a5 83 3c bd ac e7 3e be
       0.22680308 -0.20579353 -0.046023984 -0.18643063
000200 8e 4b 62 3e d0 61 02 3e 6e 1e 99 3e 21 b5 05 3e
       0.22099134 0.12732625 0.29906029 0.13057376
000210 15 80 35 be 16 54 fe bd 14 ad e5 3d 82 ba 33 bd
       -0.1772464 -0.12418382 0.11214653 -0.04387904
000220 96 9a 97 bc 12 f4 de bd 3e d9 98 be 16 a7 0b be
       -0.01850633 -0.108863965 -0.29853243 -0.13637957
000230 ca 91 2c 3e 42 76 25 be fd 37 48 3e 64 55 80 3d
       0.16852489 -0.16158393 0.19552608 0.06266287
000240 ce 08 ac 3e 92 0e 28 be 48 46 fd 3d b6 99 b0 be
       0.33600467 -0.16411808 0.12366921 -0.34492272
000250 bf 4f c8 ba 79 a8 82 be e0 de 89 be e9 2d df bc
       -0.0015282555 -0.2551916 -0.26927853 -0.027243571
000260 10 c6 1d be cb 38 c7 3b 6c 4c 53 3e bf 11 e8 bd
       -0.15407586 0.0060797683 0.20634621 -0.1133151
000270 7a fd 25 be 22 6d 1c 3e 93 aa 00 3e 8d 84 12 be
       -0.16209975 0.15276006 0.12565069 -0.14308377
000280 27 fa aa 3e f0 c7 c0 3d 22 51 d6 3d 99 91 a5 3e
       0.33393976 0.09413135 0.104646936 0.32337645
000290 61 a8 91 be 99 91 64 3e 15 5e b1 3d a4 9f 01 3e
       -0.28448775 0.22321166 0.08660523 0.12658554
0002a0 45 da 84 bb 82 77 7d 3e cf f4 c8 3e 64 8e 28 3d
       -0.00405434 0.2475262 0.39249274 0.04115142
0002b0 4b 54 e4 3d 1d 77 aa 3e 29 12 e6 3c f5 f2 f3 bd
       0.1114889 0.33294 0.028084831 -0.11911575
0002c0 76 ab cf 3d ce 5e 87 3d 93 7e 77 bd 67 8b c2 3e
       0.101401255 0.066098794 -0.060423445 0.3799698
0002d0 94 ad 5e be ae 56 98 bc 69 28 6e be a3 43 b9 bd
       -0.21745902 -0.01859602 -0.23257603 -0.09046104
0002e0 13 28 6c be 40 85 87 3e 08 1e 4e 3e 1c 2d bb bd
       -0.23062162 0.2646885 0.20128644 -0.09139463
0002f0 c5 fe fb bd 5a e1 c2 3d cb 78 3e be 38 1c f0 bd
       -0.12304453 0.09515639 -0.18600766 -0.11724132
000300 2b e4 ee bd d6 ba e1 bd fe 33 98 3d 2e f1 60 be
       -0.11664613 -0.11021964 0.07431792 -0.21967003
000310 52 ec 33 be 33 93 af be 30 bd 9b bd 33 3a 3c be
       -0.17570618 -0.34291992 -0.07604444 -0.18381576
000320 c4 a6 14 bc 81 06 7a 3e 4a 32 35 be 22 50 8b 3e
       -0.009072963 0.24416544 -0.17694965 0.27209574
000330 bb 7c 95 bc a6 0f 06 3e a0 18 f1 bd 9f 04 8f 3b
       -0.018247953 0.13091907 -0.11772275 0.0043645645
000340 fc be 69 3e 0c 48 47 bb 9a 02 d1 3d 96 ba 36 be
       0.22826761 -0.0030407934 0.10205574 -0.17844614
000350 ea bd e1 3d f2 f8 86 be 90 8b b3 bc 61 ea 80 be
       0.11022551 -0.26361805 -0.021917135 -0.25178817
000360 d6 f5 d9 3d 3b a7 a2 3d 34 f6 55 3d f6 a8 29 3d
       0.106425926 0.07942053 0.05223675 0.0414209
000370 fe 94 2d be fd fe 8c 3d 9c 93 c4 3b ea 2c 28 be
       -0.16951367 0.06884573 0.0059990417 -0.16423383
000380 5e 0b fe 3d d2 fe 34 3e c9 bb 19 3e 5f 6c c6 3d
       0.12404512 0.17675331 0.1501304 0.09688639
000390 ae 5c ae 3c 9d 9f 77 3e 54 88 02 3e 45 de 7d 3e
       0.021284427 0.24181981 0.12747318 0.2479182
0003a0 ab de 04 3b 5c 44 8c 3e 49 ba 4f bd bf 79 87 bd
       0.0020274322 0.27395904 -0.050714765 -0.06615018
0003b0 15 2e b0 bd 07 dd 47 3e f5 2c 81 bd 91 16 23 3e
       -0.086025394 0.19517909 -0.06307403 0.15926577
0003c0 00 5a 1c be 98 cc d1 bd f9 e7 96 3e 42 39 97 bd
       -0.15268707 -0.10244101 0.29473856 -0.07383968
0003d0 4c 1e d7 bc c1 2c 63 bd 4e 71 d2 3b 95 c5 17 3d
       -0.026259564 -0.055462603 0.0064221984 0.037053663
0003e0 12 f7 10 be 06 10 13 be f3 f2 7a 3d cb ca 7d 3d
       -0.1415675 -0.14361581 0.06126685 0.061960977
0003f0 36 d3 18 be 88 10 ad 3e ba 82 8d 3d b4 6c 2a 3e
       -0.1492432 0.33801675 0.069097 0.1664303

242 f4 [32]
000000 f9 a9 2c 3f 95 45 4e bd 3c fa ee 3d 92 ef 8a be
       0.6744686 -0.050359327 0.11668822 -0.27135903
000010 dc 5e 71 3e 79 cb 24 bf 28 f8 00 3f 43 7e 1c bf
       0.23571342 -0.64372975 0.50378656 -0.6113016
000020 94 69 16 bf 03 b7 32 3f 6b c7 a1 3f 23 3c 1a 3e
       -0.5875485 0.69810504 1.2638983 0.15062003
000030 21 67 e1 3c 4a 05 20 be 5f d5 cd bf 3a 83 59 3e
       0.027514996 -0.15627018 -1.6080741 0.21241465
000040 d5 f2 9b 3e 5e 44 64 3f 56 0d 3d bf a3 29 01 3f
       0.30458704 0.8916682 -0.73848474 0.5045416
000050 a6 d4 33 c0 74 ca 96 3e 85 ea 2e 3f 40 ce 5a be
       -2.809854 0.29451334 0.683266 -0.2136774
000060 88 65 64 3f 5d 17 c7 bd 33 7e 1b bf 3d 38 92 3f
       0.89217424 -0.09721253 -0.6073944 1.1423413
000070 28 e8 34 bf 9e 92 94 be 02 cb 5e 3f 25 f2 83 be
       -0.7066674 -0.2901811 0.87028515 -0.2577068

244 f4 [32, 1, 3, 3]
000000 08 ef 0a bf 0b 07 0e 3f c5 a3 3b 3e 39 d8 96 bd
       -0.5427098 0.55479497 0.18324192 -0.0736546
000010 a2 cc 2b 3e d9 a0 c2 3d 2b 4d ee 3e ce 23 65 3d
       0.1677728 0.095033355 0.4654325 0.05594235
000020 08 dc e1 3e 28 b4 12 3f 99 d7 e3 be 28 13 8a 3e
       0.44113183 0.57306147 -0.44500425 0.2696774
000030 81 21 12 bf f6 f6 3e bf fc 97 45 bf 8a 86 1c 3d
       -0.5708237 -0.7459558 -0.77185035 0.038214244
000040 08 f4 08 3f 63 6a 90 3e 6a 84 4d be 87 d7 ae be
       0.5349736 0.28206167 -0.20070043 -0.3414881
000050 17 aa 89 bc 30 e1 00 be 00 63 3c 3c 85 46 e6 be
       -0.016804738 -0.12585902 0.011498213 -0.44975677
000060 1e e5 8e 3d a4 f7 ad be 93 ca ea 3d 7d 64 10 bf
       0.069772944 -0.33977997 0.11464419 -0.5640333
000070 41 7d ec bd 02 0d 88 be ce 7f e1 3d 3d 80 71 3e
       -0.11547328 -0.26572424 0.11010705 0.23584075
000080 5c 7c 81 be 08 4b f4 3e 9b 17 be 3e 10 ff 05 3f
       -0.2529019 0.47713494 0.37127385 0.5234232
000090 c9 4c 74 bd e3 45 b1 3e c6 87 4e 3e f0 f7 14 3f
       -0.05964354 0.34623632 0.20168981 0.5819082
0000a0 7f 16 9d bf 75 d3 07 be 49 2c 80 3f 93 1f 84 3e
       -1.227249 -0.13264258 1.0013515 0.2580534
0000b0 90 32 a7 3e 82 0b 68 3d 31 2a 95 3e 62 43 3d 3f
       0.32655764 0.0566516 0.29133752 0.73930943
0000c0 0c 18 2f 3f fd 7b d1 3d fc 4f 9f be 9b 07 17 bf
       0.6839607 0.10228727 -0.3111571 -0.5899598
0000d0 b9 ac 7c 3e 1b b3 49 bf 59 5f cb 3e 79 a8 f6 3d
       0.24675263 -0.7878892 0.39721182 0.12043852
0000e0 18 73 4f bf cb 33 9a be 17 50 b4 3f 8c 28 81 bf
       -0.81034994 -0.3011764 1.4086941 -1.0090499
0000f0 6d 9f 4e bf 66 8b 7c 3f d6 f7 f1 3e c8 96 17 bf
       -0.80712014 0.98650205 0.47259396 -0.5921445
000100 fe 0d 83 be f7 c9 a2 be ea a6 1a be 3c d8 07 be
       -0.25596613 -0.31794712 -0.15102735 -0.1326608
000110 ec 5d 24 3f b8 b0 fd 3a a2 99 15 bb 7f 95 18 3f
       0.64205813 0.0019355034 -0.0022827168 0.5960311
000120 58 4c 3d 3d fe 41 a2 be ef 3d af be ed bf 63 3d
       0.046215385 -0.31690973 -0.3422694 0.055602957
000130 48 cb 34 be e7 75 59 be de c2 a6 be fa 7b 9c 3e
       -0.1765567 -0.21236382 -0.32570547 0.30563337
000140 2a 63 af be 1b 21 c4 3d 77 85 9a 3f 83 fb 17 bf
       -0.34255344 0.09576627 1.207198 -0.5936815
000150 e7 c6 c2 be ca 6f 97 3b 4e 23 18 bf 7b 5f 23 3f
       -0.38042375 0.0046214806 -0.5942887 0.63817567
000160 06 54 d1 3e 8e 35 cc 3e b9 8c bd be d4 61 1d bf
       0.40884417 0.3988461 -0.37021425 -0.614774
000170 4e f4 83 be 13 ae 92 3d d4 38 9e be 4a 9b 4b be
       -0.25772327 0.07162108 -0.3090273 -0.19883457
000180 63 2c b1 3d 24 4f 17 3f 76 52 af 39 b8 88 fa 3f
       0.08651044 0.59105134 0.0003344004 1.9572973
000190 08 43 8b bf f6 6a 6f be 80 72 e5 bf 62 e5 a2 3f
       -1.0879831 -0.23380646 -1.7925568 1.2726252
0001a0 c1 80 98 bf b4 7c c3 bf 58 56 09 c0 50 41 bf bf
       -1.1914293 -1.5272431 -2.145895 -1.4941807
0001b0 aa f3 17 40 35 18 19 40 21 1f 2c bd 29 b6 11 40
       2.374247 2.3921025 -0.042021874 2.2767432
0001c0 7a 23 68 3f 10 c8 40 c0 25 36 c2 be 74 d7 2c 3f
       0.9067913 -3.0122108 -0.37931934 0.67516255
0001d0 ce ec cb 3f 8c c3 04 40 68 31 97 bf 32 3b 2d bf
       1.5931642 2.0744352 -1.1811953 -0.6766845
0001e0 e2 1b 0d be c2 40 34 40 5d 09 f4 3e b5 78 2f 3e
       -0.13780168 2.8164525 0.47663394 0.1713589
0001f0 12 ef 58 40 4f 3e 68 bf 15 df 55 3f 97 3d f2 bc
       3.3895917 -0.90720075 0.8354352 -0.029570384
000200 e9 95 a4 3f 34 4c 47 3e 56 d8 8f 3f bc 62 af 3f
       1.2858249 0.19462663 1.1237895 1.3702006
000210 58 84 60 bf 01 d8 99 3f 20 48 b9 3f 7b a4 81 bf
       -0.8770194 1.2019044 1.4475136 -1.012832
000220 1d 8c c8 bf 6e e2 08 c0 68 d1 f0 bf b7 8f 09 c0
       -1.5667759 -2.1388202 -1.8813906 -2.1493967
000230 96 26 62 3f 76 42 68 3f f2 f1 30 40 f5 f4 a1 3f
       0.8834013 0.9072641 2.7647672 1.265288
000240 1d 72 4a 3f a0 a3 74 bf 65 a7 94 be 9b ff dd be
       0.79080373 -0.9556217 -0.29033962 -0.43359074
000250 dc d9 f3 3e 73 60 cb bd 8d 2c 18 3e bf ef 1c bf
       0.4762715 -0.099305056 0.14860745 -0.61303324
000260 fb f7 2a be 30 a2 f1 3d 94 08 85 3e 21 76 ad 3e
       -0.1669616 0.11798513 0.25983107 0.33879188
000270 70 b0 22 3f 1b c0 7b bd 59 cb 3d bf b0 e2 d6 3c
       0.6355047 -0.061462503 -0.7413841 0.02623114
000280 30 cb 10 3f 0c 69 83 bf 73 d1 10 bf 78 ca 0f bf
       0.5656004 -1.0266433 -0.56569594 -0.5616832
000290 67 e3 1d bf 77 f9 c0 3f cf 3c 5d c0 c8 c7 ca bf
       -0.61675113 1.5076131 -3.4568365 -1.5842218
0002a0 cd 36 1a c0 81 7f 01 40 ec 89 7c bf 3c 6f 38 3e
       -2.4095948 2.0234072 -0.9864795 0.18011183
0002b0 e9 ac db be c9 08 25 bf 0b f4 11 3f a4 5f 97 3e
       -0.42905357 -0.6446653 0.57013005 0.29565156
0002c0 29 fe 1d bf 3a 6c a5 3e 24 b5 da 3e 59 73 aa bd
       -0.6171594 0.32309133 0.42716324 -0.08322782
0002d0 99 17 45 3e 01 74 a7 3e 00 90 43 3e af 0e dc 3d
       0.19247283 0.3270569 0.190979 0.10744988
0002e0 9b 5b 9d 3e b2 8b 0e 3f 59 09 df 3e 81 d3 3d 3e
       0.30733952 0.5568191 0.4356182 0.18537714
0002f0 d7 f1 4a be 4b e9 6c 3f 5b e3 08 40 ae e9 bc 3f
       -0.19818817 0.92543477 2.1388767 1.4758813
000300 d9 20 03 bf 10 5c b4 3f ac 96 5c 3f 6a 34 6b 3f
       -0.51221997 1.4090595 0.8616741 0.9187685
000310 bf e7 a1 3f 34 31 1d bf 53 af 3b 3f 9e d4 ca 3e
       1.2648848 -0.61403203 0.733144 0.3961534
000320 db 53 6b 3f c0 95 85 bf b7 19 23 3f 27 0b 8a bf
       0.9192483 -1.0436325 0.6371111 -1.0784653
000330 7a da a1 bd 75 85 47 3e 9c 2f cf bc b7 e2 23 bf
       -0.07902999 0.19484504 -0.025291257 -0.64017814
000340 43 64 26 3e 77 c8 75 bf af 32 42 3f 19 ad f3 be
       0.16249184 -0.9600901 0.7585859 -0.47593
000350 33 52 2c 3f b6 fe 9c 3e 2d 1f 3a bf ae ac 79 3f
       0.67312926 0.3066308 -0.7270382 0.97529113
000360 66 ea 80 3f e3 62 16 bf 2c cc fd bd fa c7 42 bf
       1.0071533 -0.5874464 -0.12392458 -0.7608639
000370 30 41 84 3f f0 98 17 3f 9e 5f fa 3d 47 76 9d be
       1.0332394 0.5921774 0.12225269 -0.307543
000380 46 c0 20 3e 0d 47 cb be d3 6a 6b 3e e8 f7 c7 3e
       0.15698346 -0.39702645 0.22989969 0.39056325
000390 6b e4 a8 be 22 98 b2 be db 4d 72 3e 9b ff 87 be
       -0.3298677 -0.34881693 0.23662512 -0.265622
0003a0 4c 86 ee be 8b 46 ea 3e 13 db 42 40 c4 04 ef bd
       -0.46586835 0.45756945 3.0446212 -0.11670831
0003b0 c9 57 27 3f 16 88 37 40 33 87 20 40 8b 6d 27 c0
       0.65368325 2.867681 2.508252 -2.616061
0003c0 97 86 88 c0 90 df 7b c0 9d 50 4e 3f 30 28 59 bf
       -4.2664294 -3.9355202 0.80591756 -0.84826946
0003d0 ea 67 32 be 6f e7 94 bf e6 ba b4 3e 79 89 19 bf
       -0.17422453 -1.1633128 0.35298842 -0.5997539
0003e0 7c 5a fd 3e 57 15 cb 3e 10 97 1a bd 0f c5 0e 3f
       0.49483097 0.39664719 -0.03774172 0.5576944
0003f0 06 20 81 be c5 52 17 3f e2 4b 20 3d 79 22 07 bd
       -0.25219744 0.5911067 0.039134867 -0.03299186

245 f4 [32]
000000 64 5f e4 be 30 e2 d0 3e 02 44 05 3f 72 79 03 be
       -0.44604027 0.40797567 0.52056897 -0.12839296
000010 8a 51 d9 be c4 66 8f 3d 48 91 3b be 10 f5 a2 3d
       -0.42445022 0.07002023 -0.18317139 0.07956898
000020 12 7c d3 3e 88 71 e9 be 00 e2 bd 3e 01 a0 11 40
       0.41305596 -0.4559443 0.37086487 2.2753909
000030 c3 66 0b c0 87 b8 0b c0 02 ba 13 c0 d8 36 9a 3f
       -2.178147 -2.1831377 -2.308228 1.2047987
000040 05 48 b8 3e 10 a2 d6 bb fc 4d 17 40 73 f9 dd 3c
       0.35992447 -0.006550081 2.3641348 0.027096486
000050 ce 04 c2 be 67 92 24 c0 ba 96 15 be ee 6f ac bc
       -0.3789429 -2.5714357 -0.14608279 -0.021049466
000060 ff 9e d7 be 26 86 29 3e 53 8e 9a 3e 87 1e c2 3e
       -0.42113492 0.1655508 0.3018671 0.37913916
000070 1a 41 ac be 9c 66 bb bf 76 37 64 be 30 24 03 c0
       -0.3364342 -1.4640689 -0.22286782 -2.0490837

247 f4 [16, 32, 1, 1]
000000 74 bf 6e be 42 ca 97 3e f5 21 ec 3d 62 c2 33 be
       -0.23315221 0.29646498 0.11529914 -0.1755462
000010 9d 6d 96 3c 61 2c 81 3d 5b aa ea bd dd e3 00 be
       0.018362815 0.06307293 -0.11458274 -0.12586923
000020 95 a1 a9 bc ec 45 23 be 01 ca 95 3e 13 eb 59 3e
       -0.020706931 -0.15944642 0.2925568 0.2128108
000030 a2 16 5f be ab 11 a0 3e 50 75 c4 3d 78 fc 2d 3e
       -0.21785977 0.3126348 0.09592688 0.1699084
000040 fd b9 28 3e f7 ff 33 be d6 aa 9d bd d2 6a 84 be
       0.16477199 -0.17578112 -0.076986 -0.25862747
000050 12 9f bb 3e b1 c9 94 3e ad 91 84 be 02 d9 aa be
       0.366448 0.29060128 -0.25892392 -0.3336869
000060 f2 9d 38 be 61 11 e9 be 81 76 37 3e ba b8 be 3e
       -0.18029001 -0.45521072 0.179163 0.3725031
000070 6b 74 b7 3c d9 51 6d be bd 3a fc bb 28 85 de 3e
       0.02239438 -0.23175754 -0.007697432 0.43460965
000080 ab 17 3e 3e 04 57 36 be dd ac 5b bf da 41 06 be
       0.18563716 -0.17806631 -0.85810643 -0.13111058
000090 bd c9 61 be eb db 15 3f c1 2e 1a bf f7 ca 20 3e
       -0.22049613 0.58538693 -0.6022759 0.15702425
0000a0 d5 b4 a1 be 77 de 82 be dc 56 fa bd bb f2 b4 3e
       -0.31583276 -0.25560352 -0.12223598 0.3534144
0000b0 ec 48 4e 3e f1 45 b0 3e 2c 4f 92 3e 80 b0 71 3e
       0.20145005 0.3442836 0.28576028 0.23602486
0000c0 74 bc f3 3c 6d a5 49 bd a4 3e 7b 3d 99 a4 51 be
       0.029752947 -0.049230028 0.061339036 -0.20472945
0000d0 9a 01 e6 bd 8a 96 4a 3e d4 dd 54 3e 11 12 e1 bc
       -0.11230774 0.19783989 0.20787746 -0.027474435
0000e0 58 93 61 be 38 f8 2a be c7 01 81 be aa e0 e1 bd
       -0.22028863 -0.1669625 -0.25196669 -0.110291794
0000f0 70 60 9b 3e 94 5e d8 3d 4b ec 8f be 56 94 67 be
       0.30347013 0.10564914 -0.28109965 -0.2261518
000100 9f bb c3 3e 62 bf 69 3e df 4b cd bc 0d 5b 36 3e
       0.3822908 0.22826913 -0.025060592 0.1780817
000110 27 37 78 3e 24 2d df be 5d db 57 3c 92 ce 40 3e
       0.24239789 -0.43589127 0.013174859 0.188288
000120 85 85 a2 3d 2f 39 da 3e 53 4b 27 be 54 f9 ed 3d
       0.07935623 0.42621753 -0.16337328 0.11619821
000130 a9 92 46 3e 17 ff 81 be 23 07 c4 3e 17 80 7b be
       0.19391884 -0.2538993 0.38286695 -0.24560581
000140 64 45 1e be cd 9f a2 be 4d 12 da bc 29 9d 7a bd
       -0.15456158 -0.31762543 -0.026620055 -0.061185036
000150 b6 77 53 be ae bc 11 3d 4a 2a a1 be 80 8d e6 bd
       -0.20651135 0.03558033 -0.31477576 -0.11257458
000160 de 42 63 be e3 ac 43 be 07 c7 d9 3d 90 bd 6d bd
       -0.22193477 -0.1910892 0.106336646 -0.05804211
000170 aa 85 0d be cf eb 19 3e 30 6a d8 be 62 f3 3a be
       -0.1382052 0.1503136 -0.42268515 -0.18256906
000180 5c cb d1 bd 1f 47 46 3e 1a 57 b7 be 01 a7 ad be
       -0.10243866 0.19363068 -0.3580864 -0.33916476
000190 64 c0 8f be aa 18 1a 3e 81 8f 3f bd 5d 76 6d 3e
       -0.2807647 0.15048471 -0.046767715 0.23189683
0001a0 f9 eb 84 3e 9b 18 99 3e 16 73 95 bc f7 f2 a9 be
       0.25961283 0.29901585 -0.018243354 -0.3319318
0001b0 80 af bd 3e 7c f3 80 3d dd 6a 50 3d a2 1f 17 3e
       0.37047958 0.06296441 0.050883163 0.1475816
0001c0 a5 14 8b 3e 86 19 cb 3e 5f 46 83 be 21 90 71 be
       0.27164188 0.3966791 -0.25639626 -0.23590137
0001d0 a4 ac 67 3e 8e b4 0b 3e 5a 22 93 be 02 37 3c be
       0.22624451 0.13643095 -0.28737146 -0.18380359
0001e0 ed f9 65 be f2 96 04 be 71 89 96 be 04 ec f1 3d
       -0.2245862 -0.12948206 -0.29401734 0.118125945
0001f0 31 31 96 3e b3 0b 61 3e 37 fc 19 3e 75 8e 05 3f
       0.29334405 0.21977119 0.15037619 0.521705
000200 e1 04 78 3e e1 1e 25 be 3e 05 2c 3d fd 4d 62 bd
       0.24220611 -0.1612506 0.041997187 -0.055250157
000210 09 98 5a 3e 01 79 bd 3c ea 91 45 3d 10 5a 2c 3d
       0.2134706 0.023128988 0.048234858 0.042078078
000220 c6 f5 ae 3d 8e ba 2c be 5d d1 47 3e 0f 31 b0 3e
       0.08542971 -0.1686804 0.1951346 0.3441243
000230 d3 c1 88 be 0d 69 80 bd f3 7b b2 bd 28 b9 83 3c
       -0.26710376 -0.06270037 -0.08715048 0.0160795
000240 b5 c3 7e 3e c1 1e 89 b8 de e3 51 bd 0a 90 67 3c
       0.24879344 -6.5383974e-05 -0.0512427 0.014133463
000250 2b ba a9 3e 0c 18 99 bd 36 85 3e be 49 88 4d 3d
       0.33149847 -0.0747529 -0.18605503 0.0501788
000260 30 ea a3 3e ff 30 fa 3d 71 3c 8e 3e 81 10 41 3e
       0.32014608 0.122163765 0.27780488 0.18853952
000270 c4 e6 3d be 16 e0 94 3d fd d9 09 be d3 1d 5d be
       -0.18545061 0.072693035 -0.13462062 -0.21593408
000280 ab f2 67 bd b5 16 cd 3e 38 d3 74 3e 26 11 0f 3e
       -0.05662791 0.40056387 0.23908699 0.13971385
000290 f3 a2 89 be 0d 22 00 be 93 29 b2 be d3 8d 0b 3e
       -0.26882133 -0.1251299 -0.34797344 0.1362832
0002a0 20 e3 8f bd 3b e2 0d 3e 9c ea 03 3e df 77 28 be
       -0.070257425 0.13855831 0.12882465 -0.16451977
0002b0 4b 28 4d be 46 b8 25 be 0b 5f 83 be 60 98 11 3e
       -0.20034902 -0.16183576 -0.2565845 0.14218283
0002c0 ae 7e 56 be c5 2a 4d bb ba c0 36 be 29 ee 96 be
       -0.20946762 -0.003130601 -0.17846957 -0.29478577
0002d0 8b 8c 15 be df 83 14 3d b6 de 6b 3d 84 41 a7 bd
       -0.14604394 0.036258575 0.05758544 -0.08166793
0002e0 5d ab 2d 3e 50 5d e6 bd 53 9f 11 be 73 69 1f 3e
       0.16959901 -0.11248267 -0.14220934 0.1556757
0002f0 33 4b 1d be 85 8e 96 bd d6 d1 37 be b3 71 ad 3e
       -0.15360717 -0.07351402 -0.1795114 0.33875808
000300 fd f1 ab 3e 09 50 71 bd 1e 46 d8 bc 1a ce 9d bb
       0.3358306 -0.058914218 -0.026400622 -0.004815829
000310 f4 a8 da be ee b8 11 be ad f2 08 3e ba 11 f1 bd
       -0.42707026 -0.14230701 0.13373823 -0.11770959
000320 32 81 93 be fb 18 38 be a8 56 0c bf 9f 1a c9 be
       -0.28809506 -0.1797828 -0.54819727 -0.39278123
000330 10 1e f8 3e 85 d1 9e 3e 4a c3 27 be 31 f9 29 3e
       0.48460436 0.31019226 -0.1638309 0.16598965
000340 a9 9e 1f bd 7f 0a 96 be 7e 2e d6 3c 44 1f fb 3d
       -0.03896967 -0.29304883 0.026145216 0.12261823
000350 d4 c3 e6 3e 85 af b4 3c 61 61 57 3e f6 9c 9e 3d
       0.4507128 0.02205635 0.21033241 0.07744782
000360 e9 a5 c4 bd 11 98 61 3e b2 08 9d be 32 5f 9c be
       -0.09601957 0.22030665 -0.30670696 -0.30541378
000370 c7 31 a1 3e 1f 78 c5 bc 2b c7 f4 bc ab a2 7c be
       0.3148329 -0.02410513 -0.029880127 -0.24671428
000380 72 2b d1 3d 2b bc ed 3e 37 9f 24 be 9d 67 21 3f
       0.10213365 0.46432623 -0.1607636 0.63048726
000390 96 83 35 bd 53 ae ba 3e 37 42 95 be fe 05 f7 3e
       -0.044314943 0.36461124 -0.2915208 0.4824676
0003a0 8c 82 93 be 83 5c 82 be db 7c 35 3e f1 6b ff 3d
       -0.28810537 -0.25461206 0.1772341 0.1247176
0003b0 0b 88 cc 3c 9a aa 83 be e1 df 37 be 46 da bf be
       0.024967214 -0.25716096 -0.17956497 -0.37471217
0003c0 33 c4 a4 bd 90 ab ab bd 97 dd dd bd 24 97 e4 3d
       -0.080452345 -0.08382332 -0.108332805 0.1116164
0003d0 8c 8b f1 3d 89 af e3 3e 66 1e ae 3e 52 e5 fc bd
       0.117941946 0.4446986 0.34007567 -0.12348427
0003e0 a9 e6 92 be 52 24 80 3e 79 2b 65 3e c7 8d f7 3e
       -0.28691605 0.2502771 0.22379865 0.48350355
0003f0 53 da 43 be fe af 10 bd 08 f3 63 3d d9 3e f7 bd
       -0.19126253 -0.03532409 0.055651695 -0.12072534

248 f4 [16]
000000 9a 59 dd be 72 f8 82 3e 0c 1c 4a 3e c7 13 dc be
       -0.43232423 0.25580174 0.19737262 -0.4298384
000010 55 e3 b2 be 50 4f a7 3e c7 9f 8a 3e 12 1c 09 bf
       -0.34939066 0.32677698 0.27075025 -0.53558457
000020 3a 30 4e 3d 58 76 77 3f 4e 3d 70 bf 26 b2 55 3e
       0.05033896 0.96664953 -0.93843544 0.2086874
000030 cd e7 9d 3d db df 6d bf 6c b5 67 3f 49 08 4c be
       0.07710228 -0.929197 0.905112 -0.19925036

250 f4 [96, 16, 1, 1]
000000 b6 20 d3 3d c9 9e f4 be b6 01 00 3e 93 28 38 3e
       0.103089735 -0.47777393 0.12500653 0.17984228
000010 f8 fb c8 3d e4 cf ae 3d 97 3a 13 3e 42 dd 58 3e
       0.09813684 0.08535746 0.14377819 0.21178153
000020 a7 c9 ea bd a4 7c ef 3d f8 4a 9d 3e f9 7c 91 3a
       -0.114642434 0.11693695 0.3072126 0.0011099867
000030 be f3 81 bd 00 b2 86 3e 61 1f d7 be a6 18 39 3e
       -0.06345318 0.26307678 -0.42016128 0.18075809
000040 16 f1 30 bd 04 d9 a5 be cc 41 bd 3e eb fd 04 be
       -0.043198667 -0.32392132 0.36964262 -0.12987487
000050 18 27 0c 3e f9 8a 90 be c3 d2 0f be 20 69 f5 3c
       0.13686788 -0.28231028 -0.14045243 0.029957354
000060 be 79 01 3c a4 76 c4 bd d7 9e d5 bd 8b 6e 33 be
       0.007902561 -0.095929414 -0.10430687 -0.17522638
000070 f0 39 56 be 70 cb 29 3d 18 38 4c be 70 18 77 bd
       -0.20920539 0.04145378 -0.19943273 -0.06032604
000080 c8 3d c4 bd f9 46 83 be 18 ed d9 bc a0 98 b5 bd
       -0.09582096 -0.25640085 -0.026602313 -0.088670015
000090 11 db 6a be 7a 4b 4e be d8 7d 45 be b9 c8 b2 be
       -0.2293513 -0.2014598 -0.19286287 -0.34918764
0000a0 09 a5 7e be 28 bc 6d be 62 19 ea 3c 80 29 77 3e
       -0.24867643 -0.23216307 0.028576557 0.24136925
0000b0 77 0f 59 3e 3c 01 46 3d 73 06 3c be 81 b7 f8 3d
       0.21197306 0.04834102 -0.18361835 0.121443756
0000c0 b5 1f 6f be 1f 56 ef 3e a4 89 64 3e cd 62 4e ba
       -0.23351939 0.46745393 0.2231813 -0.0007872999
0000d0 fa df ce 3e 69 04 88 3e 6b d0 cf be 43 1f 94 be
       0.40405256 0.26565865 -0.40588698 -0.289301
0000e0 45 6d ba 3d c9 76 69 be 81 97 a1 be f9 f0 72 be
       0.09102873 -0.22799219 -0.315609 -0.23724736
0000f0 06 e0 df be 98 8f 02 3f 61 31 c6 3e 08 f7 bc 3e
       -0.43725604 0.51000357 0.38709548 0.3690722
000100 d2 0f 93 bd e8 f4 95 be 52 0f a1 3d 98 d7 50 be
       -0.07180752 -0.2928841 0.0786425 -0.20394742
000110 89 6c 93 3e 85 34 6d 3d 01 fe 86 be de b4 8b bd
       0.28793743 0.057911415 -0.26365665 -0.06821607
000120 38 4d 41 be 4c f5 9e 3e 20 06 a9 3d de 42 07 3e
       -0.18877113 0.31046522 0.082531214 0.13209102
000130 51 9f c9 3d 61 d9 f2 3d 39 27 0b 3d 02 30 57 be
       0.0984484 0.11857868 0.033972953 -0.21014407
000140 52 01 81 bd 1b d1 44 be cb 8d 7c be 1a 15 50 be
       -0.0629908 -0.19220392 -0.24663465 -0.2032055
000150 ff bb 03 3e 91 61 a0 3c 72 cb 40 be 27 04 70 3e
       0.12864684 0.019577773 -0.18827608 0.23439084
000160 07 69 d1 3e ce e0 92 be af 8d 4f 3d 74 d3 d4 bd
       0.40900442 -0.28687137 0.05067223 -0.10391894
000170 d5 a9 2c bd 03 a9 88 3d 7b bf 3f be a5 d7 82 be
       -0.042154152 0.066728614 -0.18725388 -0.2555515
000180 15 c8 43 be 8e 0a 2b be 39 70 91 bc fa 1a af 3d
       -0.19119294 -0.16703245 -0.017753707 0.08550067
000190 97 98 72 3e 0d c4 3b be 75 4a 80 3c e9 1a 37 3e
       0.23691021 -0.18336506 0.015660504 0.17881359
0001a0 16 99 54 3e 47 ce 4b be bd be 63 3e 8b fa 5a 3e
       0.20761523 -0.19902907 0.2224073 0.21384637
0001b0 be 1f bd 3d d4 8c 41 be fb c5 08 3d 37 e3 fe bd
       0.0923457 -0.18901378 0.033391934 -0.124456815
0001c0 c1 4e a1 3c 9d a6 fe 3d 30 af 6f be 72 fa 90 3e
       0.019690873 0.12434123 -0.23406672 0.28316075
0001d0 9d 44 d0 3d 99 5b 16 3e d7 21 8b bb 94 ae b8 3d
       0.10169337 0.14683379 -0.0042459774 0.09017673
0001e0 43 67 33 3e 8f 94 59 3d cf 47 41 3e 9a 96 f8 bd
       0.1751986 0.053120192 0.18875049 -0.121381
0001f0 44 fc c5 3d 73 9b 54 be bd 2f 9a 3e 7f dd e9 3d
       0.096672565 -0.20762424 0.30114546 0.114192
000200 2e 61 52 3e cb e8 2a be 69 0f 91 be 21 04 55 3e
       0.20544884 -0.16690366 -0.2833207 0.20802356
000210 0e 0f 77 3e 63 c6 05 be be 03 8d 3e 16 82 ab be
       0.24126837 -0.1306396 0.27541918 -0.33497685
000220 08 5e 36 be a2 1d 97 3d 5c 93 40 bd ea 7b 72 3e
       -0.17809308 0.07378699 -0.047015533 0.23680082
000230 96 b2 27 be 95 4a 8b be a4 57 1a 3d d1 b4 4d 3e
       -0.16376719 -0.2720534 0.037681237 0.20088507
000240 46 fc fc 3d 60 a4 8d be 02 5c b6 3d 5b 10 cd bb
       0.12352805 -0.2766447 0.08904268 -0.0062580532
000250 6c f0 7a be 7b f5 08 3e ea e4 48 3e 8c 8f bc be
       -0.24505776 0.13374893 0.19618574 -0.36828268
000260 c3 dd 50 be 6b e5 98 3e 2c 3a 94 bd ad 1d 4f be
       -0.20397095 0.29862532 -0.07237658 -0.20226164
000270 b3 40 be 3e 35 45 94 3e 3a 52 57 be 0a 3d e6 3e
       0.37158737 0.2895905 -0.2102746 0.44968444
000280 9b 57 87 bd 5f ab 0d bd 50 42 50 be f6 60 9d 3c
       -0.06608506 -0.03458726 -0.20337796 0.019211274
000290 17 b8 1d be 38 77 9f be aa 95 9b 3e ce ce 85 bc
       -0.15402256 -0.31145644 0.30387622 -0.016333964
0002a0 3a f5 12 3e 8d 66 19 3e 9e db 31 be a5 32 0b be
       0.14351359 0.14980526 -0.17368934 -0.13593538
0002b0 1c 9e 90 3e 8e 70 ab be 1b c9 30 be d2 b5 9b 3e
       0.28245628 -0.3348431 -0.17264216 0.30412155
0002c0 7f 9d 6e be 32 c1 f8 bd 6b 55 d5 3e 4e c7 1c be
       -0.23302267 -0.12146224 0.4166673 -0.15310404
0002d0 46 e8 48 bc 5e 27 26 be df b5 6a be 58 95 1d be
       -0.01226241 -0.16225955 -0.22920941 -0.15389001
0002e0 0b 86 f3 be cc 75 83 3e 66 9f c9 be f8 0b a9 be
       -0.47563204 0.2567581 -0.39379424 -0.33016944
0002f0 fa 4d 69 3e 35 9e e5 bc 0b 7b 54 3e 50 58 26 be
       0.22783652 -0.02802954 0.20750062 -0.16244626
000300 00 4b e6 bd 33 29 87 3e 01 48 48 bb 1c 2b 87 be
       -0.11244774 0.2639862 -0.0030560496 -0.26400077
000310 c5 54 9e 3e 77 5b 8e 3d e3 75 18 be 5a 3e a1 3e
       0.3092405 0.06951039 -0.1488872 0.31492883
000320 60 2b 3c 3e bd 09 cb bd 89 e1 02 3e c1 9d cf 3d
       0.18375921 -0.09913967 0.12781347 0.10137511
000330 22 dc 73 3e 84 4c 15 bd 47 ee 65 3e 46 cb 8f 3e
       0.23814443 -0.036449924 0.22454177 0.28084773
000340 0a ee ac 3e f6 17 3f 3e a0 e1 17 3f 72 71 98 3e
       0.3377536 0.18661484 0.5932865 0.29774052
000350 e5 a4 09 bf df f3 f4 bd 1c 7d a2 3e 53 55 93 3d
       -0.53767234 -0.11960577 0.31736076 0.07194009
000360 f9 eb 2b 3c a5 a7 d7 bd 85 f3 c0 3e ac 8f 9f 3c
       0.010493272 -0.105300225 0.3768579 0.019477688
000370 ca 60 89 bd 70 8e 4a be db 6a 43 3e 62 8b e2 3c
       -0.06707914 -0.19780898 0.19083731 0.027654354
000380 53 50 c8 bd 33 20 a6 3e 9e d2 25 3d 2b 88 d5 3d
       -0.09780946 0.3244644 0.040484063 0.104263626
000390 83 04 8d be 40 9d ac bc ff 14 59 3d 8c 46 12 be
       -0.27542505 -0.021071076 0.05299854 -0.14284724
0003a0 00 4a 03 be e0 88 47 bd 2b b4 b3 3e 98 43 9d be
       -0.12821198 -0.04871452 0.35098395 -0.30715632
0003b0 12 b2 f6 bc ef 67 a1 3e 64 f2 33 3e 34 72 8a 3e
       -0.030114207 0.31524608 0.17572933 0.27040255
0003c0 66 17 91 be 25 0c ea bd 71 5c c6 3d 65 c0 a3 be
       -0.28338164 -0.11428098 0.096856005 -0.31982723
0003d0 80 fc 4b 3e 2f 63 65 bd de a8 11 be 52 db d5 bc
       0.1992054 -0.056002792 -0.14224574 -0.026105557
0003e0 6d 17 19 3e 20 f3 ab bd c7 65 0b bc dc e6 bc bb
       0.14950342 -0.08395982 -0.008508152 -0.0057648253
0003f0 9f 04 ab 3d 20 22 20 be aa c3 05 be f4 5e 85 be
       0.08350491 -0.15638018 -0.13062921 -0.26049006

251 f4 [96]
000000 00 4d ab bc 28 e4 3f 3a 17 86 27 bc 04 99 b0 bd
       -0.02091074 0.00073200697 -0.010224841 -0.086229354
000010 1d dc c5 3d e2 a2 73 3d 99 79 9c 3d 80 c9 13 3e
       0.09661124 0.05948151 0.076403804 0.14432335
000020 68 e9 db bd 03 83 a1 3d 77 51 03 3d 45 cb 54 be
       -0.10737878 0.078863166 0.032060113 -0.20780666
000030 d4 17 29 3c e0 df 88 3b d7 d7 2e bc 56 77 1f 3d
       0.0103206225 0.0041770786 -0.010671577 0.038932167
000040 33 f8 1b 3d 54 84 a8 3c a4 ce 7a 3d 2f 3f 0b bd
       0.038078498 0.020570911 0.061232224 -0.033995803
000050 92 64 26 3d a4 0b 51 3d 2e fe b6 3d 20 43 03 bd
       0.040623255 0.051036492 0.089352 -0.032046437
000060 f8 d8 28 3d c4 ae c6 3a a4 5e c6 bc f6 e7 b3 3d
       0.041222543 0.0015158285 -0.02421505 0.087844774
000070 3b da a4 bd 4c 04 63 bc e0 f1 01 3e f0 38 0e bc
       -0.08049437 -0.013856005 0.12689924 -0.008680567
000080 d9 06 92 3d c2 19 f8 3d 26 78 f2 bd ac 2c c4 3d
       0.07130212 0.12114288 -0.11839323 0.09578833
000090 49 5f be bd 21 d7 2f 3c b8 c5 ac bc da b8 c7 3c
       -0.09295518 0.010732443 -0.021090373 0.024380136
0000a0 32 24 f3 3c 56 ae 57 bd 4a 22 6c 3e 4a e6 37 3e
       0.029680345 -0.052656494 0.23059955 0.17958942
0000b0 52 ce 76 bc 6b ea 2a bd 9e 2e da 3d 4a 10 50 3b
       -0.015063839 -0.041727465 0.10653423 0.003174799
0000c0 e7 83 3f bc e0 65 e6 3c 0e dd b2 3d 9f 32 e4 bc
       -0.011689163 0.02812475 0.08733569 -0.02785617
0000d0 00 a5 8f ba f0 a0 c4 3d e1 06 4f bc b5 29 d4 3d
       -0.0010959208 0.09601009 -0.012635917 0.103595175
0000e0 f6 d0 3c bb 63 5d 68 bd fa 44 06 bd 4a 59 76 3d
       -0.0028811074 -0.056729686 -0.032780625 0.060143746
0000f0 5c ed 97 bd 83 a5 10 3d e3 f7 5c 3c 07 b0 08 3e
       -0.074183196 0.035314094 0.013486835 0.13348399
000100 0b 93 f7 3d a0 74 66 3b c0 d2 65 3d 46 85 53 3d
       0.12088593 0.0035164729 0.05610919 0.05164077
000110 1d 66 a4 3d c8 4d 2b 3d b3 31 17 3d 1c 3a a8 3d
       0.08027289 0.041822225 0.03691263 0.082142085
000120 c1 31 39 bc a7 96 77 bc a0 84 04 bd d6 d5 6e 3d
       -0.011303366 -0.015111602 -0.032353044 0.0583094
000130 d8 e0 6a 3d 8b ef 20 3d d0 f0 b8 3d e0 2f 12 3d
       0.057343334 0.039290946 0.09030306 0.03569019
000140 01 a2 46 3c 5c 00 4f 3d 79 71 d6 3d 75 71 e6 3d
       0.012123586 0.050537452 0.10470862 0.11252109
000150 76 0e 9e 3d 20 cc 23 bd 6e 6b a8 3c 5a 1a 06 3e
       0.07717602 -0.03998959 0.020559039 0.1309599
000160 d8 e4 e7 3d c3 c8 92 bd a6 89 91 bc 22 17 59 3d
       0.11322945 -0.071671985 -0.017765831 0.053000577
000170 c6 70 ef bd ee 39 b9 bc 52 51 9f bc 30 e5 01 bd
       -0.11691432 -0.02261063 -0.019447956 -0.03171271

253 f4 [96, 1, 3, 3]
000000 70 5c ef 3c f5 0f ed be fe c8 ee 3e cb d1 44 3f
       0.029218882 -0.46301237 0.4663772 0.7688262
000010 70 90 e1 be 1a f7 48 bf 0c a1 4c bf 6b 5e c6 be
       -0.4405551 -0.7850205 -0.7993324 -0.3874391
000020 90 dc 94 3e b9 2d a9 be c7 8e e2 be d2 29 d4 3e
       0.29074526 -0.33042696 -0.44249555 0.41438156
000030 32 33 f5 be 1e 97 e8 bd 51 d4 bb be b9 e1 b7 be
       -0.4789062 -0.11356948 -0.36685422 -0.359144
000040 d9 83 1e be d3 f4 71 3d 81 a4 80 3d cd f3 4f be
       -0.15479983 0.059071373 0.06281377 -0.20307846
000050 db 7b cf 3e 82 c0 d0 3e 91 00 a8 3e 00 bd 86 3e
       0.40524182 0.40771872 0.32812932 0.2631607
000060 96 4c cd 3e 6d e2 6d 3e fc dd 0b be c0 53 56 bf
       0.40097493 0.23230906 -0.13658899 -0.8372154
000070 df e4 48 bf f1 c1 81 3f 7c b5 27 3f 18 63 e2 3c
       -0.7847423 1.0137311 0.655113 0.027635142
000080 29 ec 55 bf 6f c5 9c 3f d6 79 87 3e 40 24 53 bf
       -0.83563477 1.2247752 0.2646014 -0.8247719
000090 d6 98 cb bd 35 a4 f0 3e f7 75 03 3f a7 32 bd be
       -0.099412605 0.4700028 0.51351875 -0.36952707
0000a0 35 9d 1d 3f 15 5a ee 3c 9f 45 22 bf 28 78 00 bf
       0.61568004 0.029095689 -0.63387483 -0.50183344
0000b0 63 e7 0f 3f ad 91 43 3d a9 1f 70 be d9 9f 23 be
       0.56212443 0.04774635 -0.23449577 -0.15978946
0000c0 1f 68 ce bd 30 7b 06 be b0 67 e8 be c3 4a c9 be
       -0.10078453 -0.1313293 -0.45391607 -0.3931485
0000d0 43 cb 82 be 00 d4 ca 3a 5f 48 e1 be 42 8a 07 3e
       -0.255457 0.0015474558 -0.44000527 0.13236335
0000e0 53 55 53 3e 86 b5 50 3a b3 76 b4 be b1 6d c0 be
       0.20638017 0.00079616194 -0.3524681 -0.37583688
0000f0 89 b0 b6 be 3c 77 6e be 68 3f f5 bd 06 25 a3 3e
       -0.3568156 -0.23287672 -0.119749844 0.31864184
000100 a8 a7 7d 3d 64 d9 f2 3e 38 df 5a 3d 2d f9 16 3f
       0.061927468 0.4743148 0.053435534 0.5897396
000110 ee 6e 64 be a9 02 82 bf ec 20 26 bf dd 11 45 bf
       -0.22307941 -1.0157062 -0.64893985 -0.7698038
000120 c2 43 94 3f 96 ba c9 3e 77 59 41 bf e2 fd 52 3f
       1.1583178 0.39400166 -0.7552714 0.82418644
000130 48 7a 5a 3e 0e fd d9 bd f5 7d 64 bf e6 b5 2e 3f
       0.21335709 -0.106439695 -0.89254695 0.68246305
000140 65 ad 8c 3e 75 a7 c2 3d 92 dd 0b be 15 7d 14 bf
       0.2747604 0.09504596 -0.13658741 -0.5800336
000150 8e c7 be be fe b1 55 3e 98 71 70 3c d4 69 2a bf
       -0.37261623 0.2086868 0.01467552 -0.6656773
000160 f3 ca 0a bf dd fc 3a 3f 41 f4 ed 3e 19 61 44 3f
       -0.54215926 0.7304209 0.46475413 0.7671066
000170 9f 0c 04 bf d2 8d 38 3c ba 7b f7 3e cd b1 eb 3e
       -0.5158176 0.011264281 0.48336583 0.4603409
000180 2f b1 4c bf 6c d6 08 be b2 fa cf 3e e4 bf 8b bc
       -0.7995786 -0.13363045 0.40620953 -0.017059274
000190 ab af 44 be 1a 36 8d 3d f6 8d c9 3e 88 34 09 3f
       -0.19207637 0.06895085 0.3936612 0.5359578
0001a0 b0 8a 6d 3e 76 45 0b 3f e5 f9 a6 3e b6 83 8e 3e
       0.23197436 0.54402864 0.3261253 0.27834862
0001b0 46 b9 de 3e d5 a2 d6 3e 6c fd cd be 74 c0 05 3e
       0.43500727 0.41921106 -0.40232408 0.13061696
0001c0 47 32 33 3e b4 e8 bc bd 37 f3 2c 3f 2c b1 92 bc
       0.17499648 -0.09224072 0.67558616 -0.017906748
0001d0 74 3d ce be cc 65 31 3f 6b 9d 7d bf 66 ae 7c bd
       -0.4028126 0.69295955 -0.99068326 -0.061689757
0001e0 79 57 a2 3f 17 4e e7 be 93 f4 04 be 1c ce b4 bf
       1.2682945 -0.45176765 -0.12983923 -1.41254
0001f0 6f cb 7b bf 0f fc 75 bf f1 dd 91 3e 06 df 38 3f
       -0.9835729 -0.96087736 0.2848964 0.72215307
000200 bf 12 89 3e 78 55 39 3d c6 23 4e 3e 08 e7 ed be
       0.26772115 0.045247525 0.20130834 -0.46465325
000210 c8 13 23 3f e9 5c 17 bf 46 76 0b bf 56 b9 a7 3e
       0.6370206 -0.59126145 -0.54477346 0.32758588
000220 10 77 c8 be 80 a2 8f 3e 35 7b 9b be a2 b7 e8 3e
       -0.39153337 0.28053665 -0.30367437 0.454526
000230 af 61 b2 be 41 34 08 3f a3 df c0 3c b1 59 2b 3f
       -0.34840152 0.53204733 0.023544138 0.66933733
000240 05 36 0b 3f 7b e5 89 3f b5 2b f6 be ee 43 2f 3f
       0.543793 1.0773157 -0.4808022 0.6846303
000250 14 34 27 bd 0f b3 04 bf f0 bf f1 3d 3c 1e b2 bf
       -0.04082115 -0.5183572 0.11804187 -1.3915477
000260 ed dc c0 bf ff 92 af 3e 13 aa c2 3b 98 93 1a 3f
       -1.5067421 0.34291837 0.0059406846 0.6038146
000270 23 c5 c4 3d e2 50 74 be 18 09 4a 3e e4 00 ce 3c
       0.09607913 -0.2385898 0.19730031 0.025146909
000280 96 a9 e8 3e 2f 0c f7 3e 96 e7 b5 be c5 72 49 3f
       0.45441884 0.48251483 -0.3552825 0.7869075
000290 e3 00 95 3e c2 cf 77 bf 9b 2f 96 bf 5d cd a1 be
       0.2910224 -0.9680139 -1.1733278 -0.31601992
0002a0 66 01 a6 3e c7 92 93 3e ee 52 fd be 99 bc b3 bd
       0.32422942 0.2882292 -0.49477333 -0.087762065
0002b0 c8 91 28 bf ed 43 00 bf a5 bf a7 be 11 af df be
       -0.65847445 -0.50103647 -0.327634 -0.43688253
0002c0 92 a2 99 bc b1 35 16 bf a1 80 db 3e a7 bb 82 3e
       -0.018754277 -0.58675677 0.42871574 0.25533792
0002d0 18 80 39 3f 90 49 d6 3e 2e fa 17 bf 6e d6 2a bf
       0.7246108 0.41853 -0.5936612 -0.66733444
0002e0 6a b3 d4 be 4d 05 e3 3e ef 15 c6 bd 95 74 df bc
       -0.41543132 0.44339982 -0.09672152 -0.02727727
0002f0 27 1e 07 bf a6 c9 13 3f 13 24 1a 3e b1 7b 27 bf
       -0.52780384 0.57729566 0.15052824 -0.65423113
000300 7a 30 7e bf 4b f2 b1 bf 39 e4 fd bd c2 f0 ef 3e
       -0.9929272 -1.3902067 -0.12397046 0.4686337
000310 17 0a 83 3f d0 84 ea 3d 41 56 33 3e 72 b0 36 3f
       1.0237454 0.11451113 0.17513372 0.71362984
000320 c0 24 b3 be 73 5a a0 3e 2b 84 64 3f 05 f7 62 bf
       -0.34988976 0.31319007 0.8926417 -0.8865817
000330 b4 cd f6 bd 19 9b bb bb dc ca 0d bf 81 34 cb 3e
       -0.120509535 -0.005725276 -0.55387664 0.39688495
000340 c2 da cd be d0 22 17 3e 87 ea 01 bd ad ee fe be
       -0.4020596 0.14759374 -0.031717803 -0.4979147
000350 12 43 de 3c e8 63 7b 3e 18 b2 38 bf 42 92 71 bc
       0.027131591 0.2454983 -0.7214675 -0.014744343
000360 81 02 22 be 28 57 dd be 26 7b 88 be d5 5e 72 3b
       -0.15821268 -0.43230557 -0.26656455 0.0036982794
000370 ee 0d 46 bf 30 43 08 3f 66 c9 4d 3c 58 4a 10 3f
       -0.77365005 0.5322752 0.012560224 0.5636344
000380 16 1c 0a bf 48 4a ec be f5 c1 70 3e ce 61 f8 be
       -0.53949106 -0.46150422 0.23511489 -0.4851212
000390 5c e3 4b bf e2 68 aa bd 77 6a ea 3e 3b d2 99 3d
       -0.796438 -0.08320786 0.4578435 0.075108014
0003a0 02 c1 d5 be 3b 4d e9 3d ee 1b d9 3e c0 bb a9 3f
       -0.41748816 0.11391684 0.4240412 1.3260422
0003b0 d1 91 a7 3f 89 e1 45 be 8d 46 8d be c9 fa fe be
       1.3091375 -0.19324316 -0.27592888 -0.4980071
0003c0 92 b2 21 bd 16 9b 67 3f 23 ac 8d bf fb 5a bc 3a
       -0.03947694 0.9047102 -1.1068157 0.0014370376
0003d0 3b e8 6a bf 09 d3 3e bf 15 a4 b5 be 78 ac 36 3f
       -0.91760606 -0.74540764 -0.35476747 0.71356916
0003e0 a2 29 e2 3f 01 c3 f4 3b aa 0b 09 3f e7 f8 61 bf
       1.7668955 0.0074695353 0.5353342 -0.8827042
0003f0 53 23 83 3e d8 e3 37 bf 3e ca 2e 3e 3e f0 d4 bc
       0.25612888 -0.71832037 0.17069337 -0.025993463
