model.pth (torch, 468027 bytes, 140 tensors)

pre.0.weight f4 [32, 1, 1, 1]
0	0x3f145afd	0.5795134
1	0x3eaeedee	0.341659
2	0x3ed0094e	0.406321
3	0xbf258e8a	-0.6467062
4	0xbf23e4a3	-0.64020747
5	0xbf814c87	-1.0101479
6	0x3f0f3d5e	0.55953014
7	0xbf421aba	-0.7582203
8	0x3f09b157	0.53786224
9	0x3d34e955	0.044167835
10	0xbf05c9a6	-0.52260816
11	0x3f2db6f9	0.6785732
12	0xbf15c488	-0.5850301
13	0x3ee3c4cc	0.44486082
14	0xbf036a5f	-0.51334184
15	0x3e778f3f	0.24175738
16	0x3eaeb2b5	0.34120718
17	0xbf1d8ac3	-0.6153986
18	0xbf5735dc	-0.8406656
19	0xbefa80c8	-0.48926377
20	0xbf2548b2	-0.6456405
21	0xbf01dd4e	-0.5072831
22	0xbf160d32	-0.58613884
23	0xbddbf007	-0.10739141
24	0xbd77ee10	-0.06052977
25	0xbf6b2e54	-0.91867566
26	0xbe514f0a	-0.20440307
27	0xbe54d76f	-0.20785306
28	0xbf6fe1d6	-0.93703973
29	0x3f72267a	0.9458996
30	0xbe6b2f7e	-0.22967336
31	0xbe5e1b33	-0.21690063

pre.0.bias f4 [32]
0	0x3f4c7eb8	0.7988086
1	0x3ef2f062	0.47449023
2	0x3ef896b4	0.48552477
3	0x3f1b4de9	0.60665756
4	0xbf5cfee8	-0.86326456
5	0xbe8c0f34	-0.2735535
6	0xbf0ea6b0	-0.55723095
7	0xbf0950cf	-0.5363893
8	0x3e2968f5	0.16543944
9	0xbf4a5efd	-0.7905119
10	0x3f854808	1.0412607
11	0xbf6cd518	-0.92512655
12	0xbec95517	-0.3932273
13	0xbf19487e	-0.5987624
14	0x3f43932d	0.7639645
15	0x3f36de32	0.71432793
16	0x3f464941	0.77455527
17	0xbeb9ab3f	-0.36263463
18	0x3f3a4d9c	0.7277467
19	0x3ea8f526	0.32999533
20	0xbeb3afaf	-0.35094973
21	0x3ee67337	0.45009777
22	0x3ed500f9	0.41602305
23	0xbf735e56	-0.9506582
24	0xbf5668dd	-0.8375376
25	0xbdd14873	-0.10218897
26	0xbf1f5f9f	-0.6225528
27	0xbf030f8a	-0.51195586
28	0x3f4725af	0.77791876
29	0xbecda07f	-0.4016151
30	0xbbce0071	-0.0062866737
31	0xbde71bc8	-0.11284596

pre.1.weight f4 [32]
0	0x3f7cf882	0.9881669
1	0x3f7e98af	0.99451727
2	0x3f829799	1.0202514
3	0x3f82dae1	1.0223047
4	0x3f8461ee	1.0342386
5	0x3f821bb2	1.0164702
6	0x3f815b3c	1.0105968
7	0x3f82da4b	1.0222868
8	0x3f79dbf1	0.9760123
9	0x3f7eb794	0.9949887
10	0x3f843f3b	1.0331796
11	0x3f80d1d9	1.006404
12	0x3f6b4373	0.91899794
13	0x3f8282eb	1.0196203
14	0x3f7ed1dd	0.99538976
15	0x3f8003e9	1.0001193
16	0x3f815399	1.0103637
17	0x3f81fd33	1.0155395
18	0x3f776e19	0.9665237
19	0x3f8359c9	1.0261775
20	0x3f740c40	0.9533119
21	0x3f867398	1.0504026
22	0x3f8151f5	1.0103136
23	0x3f7f07f5	0.99621516
24	0x3f7e1c6a	0.99262106
25	0x3f7eb36a	0.99492514
26	0x3f82cefe	1.0219419
27	0x3f80cb6c	1.006208
28	0x3f7f91fc	0.9983213
29	0x3f7da740	0.9908333
30	0x3f7d8c20	0.9904194
31	0x3f83205d	1.0244251

pre.1.bias f4 [32]
0	0xbc212473	-0.00983535
1	0xbc96637d	-0.018357987
2	0x3ae0f8a1	0.0017163941
3	0x3c48dda5	0.012259875
4	0xbca06775	-0.019580582
5	0xbc59f39d	-0.013302711
6	0x3cb70e12	0.022345576
7	0x3caea897	0.021320624
8	0x3c5b6001	0.013389588
9	0xbcbe3aad	-0.023221338
10	0xbcb10c40	-0.021612287
11	0x3d307dc5	0.043088693
12	0xbd7f540b	-0.06233601
13	0x3cfca4a1	0.03084022
14	0x3c8a5eae	0.01689085
15	0xbb5c3af1	-0.0033604468
16	0xbc04dede	-0.008109776
17	0xbc3ccc69	-0.011523345
18	0xbc925c97	-0.017866416
19	0x3ab21921	0.0013587811
20	0xbd8337e4	-0.06407145
21	0x3a5d98dd	0.00084532594
22	0x3c96619c	0.01835709
23	0xbd0c54a7	-0.03426042
24	0xbcb09ffb	-0.02156066
25	0x3c6c6852	0.014429169
26	0xbb3e6d7c	-0.0029056957
27	0xbce0c624	-0.02743823
28	0xbc7113c4	-0.014714185
29	0xbce1bed7	-0.02755682
30	0x3c396c91	0.011317388
31	0x3cd6fb32	0.026242826

pre.1.running_mean f4 [32]
0	0x3f5d7344	0.86504006
1	0x3f036ff3	0.51342696
2	0x3f082abf	0.53190225
3	0x3f084be3	0.53240794
4	0xbf6f9545	-0.9358714
5	0xbec6e00e	-0.38842815
6	0xbefcad96	-0.49351186
7	0xbf1f6204	-0.62258935
8	0x3e689dc9	0.2271644
9	0xbf492d24	-0.78584504
10	0x3f7b4819	0.9815689
11	0xbf58ffb3	-0.84765166
12	0xbeeb5d2a	-0.45969516
13	0xbf0c3e24	-0.5478232
14	0x3f349e35	0.70553905
15	0x3f3de1d3	0.74172705
16	0x3f5050cc	0.81373286
17	0xbedda32b	-0.4328855
18	0x3f21cf47	0.63206905
19	0x3e8ca179	0.27466944
20	0xbed94e13	-0.42442378
21	0x3ec90110	0.39258623
22	0x3eb2f333	0.3495117
23	0xbf767d57	-0.96285003
24	0xbf582f55	-0.8444722
25	0xbe5377d1	-0.20651175
26	0xbf253785	-0.6453784
27	0xbf091c92	-0.5355922
28	0x3f2bdf39	0.67137486
29	0xbe967a07	-0.29389974
30	0xbd03b8fc	-0.032158837
31	0xbe0c9d49	-0.13731875

pre.1.running_var f4 [32]
0	0x3ce920e8	0.028458074
1	0x3c221c29	0.009894409
2	0x3c65ea97	0.014032981
3	0x3d10e883	0.03537799
4	0x3d0db477	0.034595933
5	0x3db0aba6	0.08626489
6	0x3cd8c808	0.02646257
7	0x3d46b6a4	0.048514023
8	0x3cc82132	0.024429891
9	0x392e933c	0.00016648782
10	0x3cbd77ce	0.023128416
11	0x3d1f8b84	0.03895141
12	0x3cecf7e6	0.028926801
13	0x3c891cf4	0.016737439
14	0x3cb5f104	0.022209652
15	0x3ba28f98	0.0049609654
16	0x3c21eada	0.009882653
17	0x3d034475	0.032047708
18	0x3d745523	0.059651505
19	0x3ca6337e	0.020288225
20	0x3d1014b3	0.03517599
21	0x3cb1bf5a	0.021697689
22	0x3ced9ea3	0.029006308
23	0x3a804041	0.0009784774
24	0x39a34b32	0.00031145808
25	0x3d923149	0.07138307
26	0x3b65b304	0.0035049329
27	0x3b702c0c	0.0036647348
28	0x3d97e60d	0.074169256
29	0x3d9b1e27	0.075741105
30	0x3b913601	0.0044314866
31	0x3b820bdb	0.0039686984

stage1.residual.0.weight f4 [32, 32, 1, 1]
0	0x3e185863	0.14877467
1	0xbe10b8e6	-0.14133033
2	0xbd268ecc	-0.040663525
3	0xbda3b6da	-0.079938605
4	0xbdcdf833	-0.10057106
5	0x3d2e9652	0.042623825
6	0xbd8a79ec	-0.06761536
7	0xbd9d35c3	-0.0767627
8	0x3d1ecc2e	0.03876894
9	0xbcb84e2d	-0.022498215
10	0xbdbd79d4	-0.092517525
11	0x3dbdab2b	0.09261163
12	0xbdbefd72	-0.093256846
13	0x3e1dcbe8	0.15409815
14	0xbe273ecc	-0.16332549
15	0xbc49d23b	-0.012318189
16	0x3e293c31	0.16526867
17	0xbe374363	-0.178968
18	0x3d52af79	0.051436875
19	0xbe16c85f	-0.14724873
20	0x3dd647dd	0.104629256
21	0x3e0090da	0.12555256
22	0xbdf573bd	-0.11984966
23	0xbdaced6d	-0.08443723
24	0xbe27e5fe	-0.16396329
25	0x3de15fe2	0.11004616
26	0x3dc972d9	0.098363586
27	0xbe39f661	-0.18160392
28	0x3d15cae0	0.03657043
29	0xbcd396bb	-0.02582871
30	0x3d462fe4	0.048385516
31	0xbe38021b	-0.17969553
32	0xbc18d17a	-0.009327287
33	0x3e5cdbea	0.21568266
34	0x3d3cba02	0.04607583
35	0xbcd62b22	-0.026143614
36	0xbd7dded6	-0.06198009
37	0xbca5d156	-0.02024142
38	0x3e0e4fe3	0.13897662
39	0xbe3174ed	-0.1732976
40	0x3d948251	0.072514184
41	0x3e3a1be1	0.18174697
42	0x3d978781	0.07398892
43	0xbc3666bb	-0.011132891
44	0xbc3a156f	-0.011357649
45	0x3e3f3640	0.18673038
46	0x3ba3325e	0.0049803695
47	0x3e1a5b45	0.15073879
48	0x3e3f7f6f	0.18700956
49	0xbe50b348	-0.2038089
50	0x3d7452ef	0.059649404
51	0x3ddd7d01	0.10814858
52	0x3d0ecbdb	0.03486238
53	0xbe18f584	-0.14937407
54	0x3df497ac	0.119429916
55	0xbe502984	-0.20328337
56	0x3d9c4cc5	0.0763183
57	0xbd4b2e0b	-0.049604457
58	0xbd273398	-0.040820688
59	0x3ca31ede	0.01991218
60	0xbe22b0a7	-0.158877
61	0xbd4c2959	-0.04984412
62	0xbdca675b	-0.09882995
63	0xbd934f87	-0.07192903
64	0x3c3ee5ee	0.011651499
65	0xbdc6ac76	-0.09700863
66	0xbd8ae2e2	-0.06781556
67	0xbe182387	-0.14857303
68	0x3de79552	0.113077775
69	0xbe1ef8ce	-0.15524599
70	0xbc9e89c6	-0.019352805
71	0xbc3df970	-0.011595115
72	0x3e23b546	0.15987119
73	0x3e2d2a77	0.1691073
74	0x3b072bce	0.0020625475
75	0x3dd87097	0.1056835
76	0x3e07e687	0.13271533
77	0x3e247a91	0.1606238
78	0xbd118413	-0.035526346
79	0x3dfcb713	0.12339606
80	0xbda03295	-0.07822148
81	0xbe4435db	-0.19161169
82	0xbe4aacd4	-0.19792491
83	0x3c484213	0.012222785
84	0xbc9e4142	-0.019318227
85	0xbe300518	-0.17189443
86	0x3dc6624b	0.09686717
87	0xbd841561	-0.0644939
88	0x3d0304fc	0.031987175
89	0xbe0fb7aa	-0.14034906
90	0x3de2c151	0.110720284
91	0x3dccb19f	0.09994816
92	0xbe0fc7b3	-0.14041023
93	0x3d853616	0.06504457
94	0x3dd9f657	0.10642689
95	0xbd639dfb	-0.055570584
96	0xbe008a24	-0.12552696
97	0x3e03b345	0.12861355
98	0x3e39cc5c	0.18144363
99	0x3e2b3607	0.16719829
100	0x3e31c538	0.17360389
101	0xbe1c4eda	-0.15264454
102	0x3e5661d9	0.20935763
103	0xbdd031cb	-0.10165747
104	0x3e28da0c	0.16489428
105	0x3d6086ae	0.05481594
106	0x3b4ffb6f	0.003173556
107	0xbd91af53	-0.071135186
108	0xbdf4b221	-0.11948038
109	0x3e64d165	0.22345503
110	0x3dbaa4f0	0.091134906
111	0xbd6e608e	-0.05819755
112	0x3e405c20	0.18785143
113	0xbd950dd0	-0.07278025
114	0x3d709ef0	0.058745325
115	0xbc24b4b8	-0.010052852
116	0xbc9a5dbf	-0.01884353
117	0xbe15c3f9	-0.14625539
118	0x3e346ba0	0.1761918
119	0xbd93b2fd	-0.07211874
120	0xbe208fcb	-0.15679853
121	0xbddd51e2	-0.108066335
122	0xbe13eb6d	-0.14445277
123	0x3dee3241	0.11630679
124	0x3e0e4476	0.13893303
125	0xbe0116b5	-0.12606318
126	0xbce6f4ef	-0.028192965
127	0xbde9e2c2	-0.11420204
128	0x3e0d3a2b	0.1379172
129	0x3da2bd22	0.079462305
130	0x3e3f1e3e	0.1866388
131	0x3da6e3b8	0.08148903
132	0xbde28b00	-0.110616684
133	0xbd9eb8ee	-0.07750116
134	0x3d8f5654	0.06998888
135	0xbce054dd	-0.027384216
136	0xbc3d3a26	-0.011549508
137	0xbd8b2446	-0.06794028
138	0xbe3ec7e2	-0.18630937
139	0xbdae4f60	-0.08511233
140	0x3dd76552	0.10517372
141	0xbdce863d	-0.10084198
142	0x3df9e81b	0.12202474
143	0x3d202e91	0.03910691
144	0x3e56ba57	0.2096952
145	0xbdd1c36a	-0.102423504
146	0x3d9e108c	0.07718
147	0xbe5c6d56	-0.21526083
148	0xba7a05c2	-0.0009537601
149	0xbe231554	-0.15926105
150	0xbe2c15f3	-0.16805248
151	0xbc8b485f	-0.017002283
152	0xbdc4ed9a	-0.096156314
153	0x3b78a994	0.0037942873
154	0x3e03de3a	0.12877741
155	0xbd90d4af	-0.07071816
156	0xbdcf2f04	-0.101163894
157	0x3dc33f12	0.09533514
158	0x3da098e3	0.07841661
159	0xbdb6e0fd	-0.08929632
160	0x3e1cd143	0.15314202
161	0x3d30d0c8	0.04316786
162	0x3d449165	0.04799022
163	0x3e17db5f	0.14829777
164	0xbe059849	-0.13046373
165	0x3dd1a3b5	0.10236303
166	0x3d22adb6	0.039716445
167	0x3d6dc6f9	0.058051083
168	0xbaf3b351	-0.0018592869
169	0x3de879c0	0.11351347
170	0x3e385054	0.17999393
171	0x3c9a98d4	0.018871702
172	0x3d516b7b	0.051127892
173	0x3e1c5913	0.15268354
174	0x3c53046c	0.012879472
175	0xbd5fbefd	-0.0546255
176	0x3d3e78a6	0.046501778
177	0x3cf851a2	0.030312363
178	0xbce2ff70	-0.027709693
179	0x3e326edc	0.17425102
180	0xbdcc3c93	-0.09972491
181	0xbc0bb8f2	-0.008527981
182	0xbdda6f38	-0.106657445
183	0xbd29ebd9	-0.041484687
184	0xbdd89950	-0.10576117
185	0x3df89827	0.12138396
186	0x3dbd0c22	0.0923083
187	0xbd2bacc8	-0.041912824
188	0xbd672037	-0.056427207
189	0x3d32bdb1	0.043637935
190	0xbdaeb298	-0.08530158
191	0xbd5c39a3	-0.053765904
192	0xbdb035db	-0.08604022
193	0xbda68094	-0.08129993
194	0x3d60890a	0.05481819
195	0xbe25ebd5	-0.16203244
196	0xbe04b6e5	-0.12960394
197	0xbe8181d6	-0.2529437
198	0xbd65c06a	-0.056091703
199	0xbe0ad6fb	-0.13558571
200	0xbbdb4bb7	-0.0066923755
201	0x3e386c50	0.18010068
202	0xbe05a756	-0.13052115
203	0x3e4d84f9	0.20070256
204	0xbc5c875d	-0.0134600075
205	0x3dc5c58b	0.09656819
206	0xbdb1d635	-0.08683435
207	0x3b52fc37	0.0032193789
208	0x3e2c6a47	0.16837417
209	0xbb12fe53	-0.002242942
210	0x3d9a2b67	0.075278096
211	0xbe06c8b3	-0.13162498
212	0x3da682d9	0.08130426
213	0xbe471db6	-0.19444928
214	0xbc846f86	-0.01616646
215	0xbe3e2e43	-0.18572335
216	0x3da0c575	0.07850162
217	0x3d6ff3a5	0.058581967
218	0x3d1dd268	0.038530737
219	0x3cfa49d2	0.030552778
220	0xbe000980	-0.12503624
221	0x3d500095	0.050781805
222	0x3b90ff92	0.0044249976
223	0xbdf81929	-0.12114174
224	0x3dacc40c	0.084358305
225	0x3df62d0d	0.120203115
226	0x3dd118b5	0.102097906
227	0x3d86f0a8	0.0658887
228	0x3c6d275f	0.014474719
229	0x3e286632	0.16445234
230	0x3db18a51	0.0866896
231	0x3e2ca561	0.16859962
232	0x3ab4b821	0.0013787785
233	0x3e3ec7c9	0.186309
234	0xbd0d4481	-0.03448916
235	0xbd384371	-0.044986192
236	0xbd6fa060	-0.058502555
237	0x3e07eb5d	0.13273378
238	0xbd2fb1d9	-0.042894218
239	0x3dddd1e8	0.10831052
240	0xbdd4a848	-0.103836596
241	0xbd8ead25	-0.069666184
242	0x3e4d403b	0.20044033
243	0xbd4daeca	-0.05021552
244	0xbc924b30	-0.017858118
245	0xbd1a7e2b	-0.03771798
246	0x3b8f1d29	0.00436749
247	0x3cce6da6	0.025198769
248	0xbdc52b9f	-0.09627461
249	0xbdc805f1	-0.09766758
250	0x3d2aa928	0.041665226
251	0x3d2c9822	0.042137273
252	0xbdcfdc61	-0.10149456
253	0x3e6b639c	0.22987217
254	0x3d4078ce	0.04699021
255	0x3de7cc67	0.113182835

stage1.residual.0.bias f4 [32]
0	0xbcf4d457	-0.029886408
1	0xbd91e42f	-0.07123601
2	0xbd8a6433	-0.06757393
3	0x3dd5a480	0.104317665
4	0x3df725e9	0.12067778
5	0xbc66d19c	-0.014088061
6	0x3dc45839	0.0958714
7	0x3d9df4ad	0.07712684
8	0xbde1e2f3	-0.11029615
9	0x3e3d7a76	0.18503746
10	0xbbf608a8	-0.007508356
11	0x3e008214	0.12549621
12	0xbe4cfdb7	-0.2001866
13	0x3d43ed16	0.047833525
14	0xbb06c28e	-0.002056274
15	0xbda23921	-0.07921053
16	0xbd649665	-0.05580749
17	0xbd88d6cd	-0.06681595
18	0x3e0e456b	0.13893668
19	0xbd562cc2	-0.052288778
20	0xbe11a04e	-0.14221308
21	0xbdcd45f0	-0.10023105
22	0x3dc59962	0.09648396
23	0xbc7318be	-0.014837442
24	0xbce6e33c	-0.028184526
25	0xbe0dec3e	-0.1385965
26	0x3d968a0d	0.0735055
27	0xbd5e1647	-0.054220464
28	0x3c8d1fb5	0.017227033
29	0xbd9d49db	-0.076801024
30	0x3cbec795	0.023288528
31	0xbd2f29d8	-0.042764515

stage1.residual.1.weight f4 [32]
0	0x3f72369e	0.9461459
1	0x3f83f717	1.0309781
2	0x3f8a0b49	1.0784694
3	0x3f967156	1.1753337
4	0x3f7276e5	0.9471267
5	0x3f8a6ee0	1.0815086
6	0x3f5dee31	0.86691576
7	0x3f8d3315	1.1031214
8	0x3f89429f	1.0723456
9	0x3f67976b	0.9046542
10	0x3f7980a7	0.9746193
11	0x3f812735	1.009009
12	0x3f842047	1.032235
13	0x3f7b7ff4	0.98242116
14	0x3f8340ef	1.0254191
15	0x3f646e29	0.8923059
16	0x3f80e45c	1.006969
17	0x3f72b9c7	0.94814724
18	0x3f757808	0.9588628
19	0x3f697a36	0.91202104
20	0x3f4de680	0.8042984
21	0x3f592c35	0.8483308
22	0x3f7f69a0	0.99770546
23	0x3f877fa9	1.0585834
24	0x3f6eab18	0.9322982
25	0x3f8e095a	1.1096604
26	0x3f8289e3	1.019833
27	0x3f4414df	0.76594347
28	0x3f872d41	1.0560685
29	0x3f76d91e	0.96425045
30	0x3f636ace	0.88834846
31	0x3f8240ff	1.0176085

stage1.residual.1.bias f4 [32]
0	0x3d98f46d	0.074684955
1	0x3d52743d	0.051380385
2	0x3ce0bed5	0.027434746
3	0xbb91854c	-0.004440939
4	0x3d9ccc53	0.07656159
5	0xbd0e41fb	-0.034730893
6	0x3e0ca3c2	0.13734344
7	0xbd0e71b3	-0.0347764
8	0x3b975266	0.004617977
9	0x3dd94c91	0.10610307
10	0x3d0ef085	0.034897346
11	0x3d7a18c8	0.06105879
12	0x3c58d62d	0.013234657
13	0x3d84257f	0.06452464
14	0xbc2fc92a	-0.010729114
15	0x3dcb97f5	0.09941093
16	0x3d66f395	0.05638464
17	0x3d907eed	0.07055459
18	0x3d118303	0.035525333
19	0x3dd4ea4c	0.10396251
20	0xbe21d161	-0.15802528
21	0x3dbf90bb	0.09353777
22	0x3d76381b	0.0601121
23	0x3c4a7916	0.012357971
24	0x3d90d527	0.070719056
25	0x3b06beb9	0.0020560457
26	0x39844c78	0.00025233976
27	0x3e3b2212	0.18274716
28	0xbcfb7dc7	-0.030699624
29	0xbc83f001	-0.016105654
30	0x3dd1a478	0.10236448
31	0x3b1e7ff8	0.0024185162

stage1.residual.1.running_mean f4 [32]
0	0xbe8ecdd9	-0.27891424
1	0x3d0aafb7	0.03385898
2	0xbde5f730	-0.11228788
3	0x3e89203a	0.267824
4	0x3caeedd3	0.021353638
5	0x3e87c77b	0.2651938
6	0xbe329c10	-0.17442346
7	0x3ef03ae8	0.46919942
8	0x3e4393a7	0.19099294
9	0xbe17a1d6	-0.1480783
10	0xbedfa436	-0.4367997
11	0x3d827033	0.063690566
12	0xbe5518d6	-0.20810255
13	0x3e05dff9	0.1307372
14	0x3efe4fd0	0.49670267
15	0xbe59febe	-0.21288583
16	0xbe48a87f	-0.19595526
17	0xbee7ca44	-0.45271504
18	0x3ed21aba	0.41036016
19	0xbe988882	-0.29791647
20	0x3e982acc	0.2972015
21	0xbe6de415	-0.23231538
22	0xbe9fed9a	-0.31235963
23	0x3d525cd8	0.051358074
24	0xbeb57b5e	-0.35445684
25	0xbd73dde4	-0.059537783
26	0x3e91c04f	0.28467032
27	0xbf0fee8b	-0.5622336
28	0x3edbe261	0.4294615
29	0x3d78ec54	0.060772255
30	0xbe9eccec	-0.31015718
31	0x3e0323fe	0.12806699

stage1.residual.1.running_var f4 [32]
0	0x3e1e037f	0.15431021
1	0x3f912c78	1.1341696
2	0x3e957423	0.29190168
3	0x3f04b2e8	0.5183549
4	0x3eb2e118	0.34937358
5	0x3e7be16f	0.24597715
6	0x3ed159e9	0.40888909
7	0x3f10120f	0.56277555
8	0x3e98681d	0.29766932
9	0x3e84aab6	0.25911492
10	0x3ded55d5	0.11588637
11	0x3ef83cc2	0.48483855
12	0x3ea7a081	0.32739642
13	0x3e0b538d	0.13606091
14	0x3dd1ee11	0.10250486
15	0x3f8e9c33	1.1141418
16	0x3ea584fe	0.32328027
17	0x3e4b50cd	0.19855042
18	0x3de78782	0.11305143
19	0x3ea01e92	0.31273323
20	0x3c916caf	0.01775202
21	0x3e9f25ff	0.31083676
22	0x3edb6027	0.42846796
23	0x3dc4ce71	0.09609688
24	0x3e0c66b1	0.13711049
25	0x3f47ef8f	0.7809991
26	0x3e009b5f	0.1255927
27	0x3e285c71	0.16441514
28	0x3ed45d1b	0.41477284
29	0x3e6fe090	0.23425508
30	0x3e185abb	0.14878361
31	0x3ee4a942	0.44660383

stage1.residual.3.weight f4 [32, 1, 3, 3]
0	0xbe9bbf46	-0.30419368
1	0x3e9f3722	0.3109675
2	0x3dd258f3	0.10270872
3	0xbd291978	-0.041284055
4	0x3dc09711	0.09403814
5	0x3d5a2e89	0.053267036
6	0x3e8591f0	0.26087904
7	0x3d006f57	0.031356182
8	0x3e7d3147	0.24725829
9	0x3e7f5df4	0.24938184
10	0xbe464d63	-0.19365458
11	0x3df058bf	0.11735677
12	0xbe7e5eac	-0.24840802
13	0xbea634bc	-0.32462108
14	0xbeabf9bd	-0.33588973
15	0x3c883b5e	0.016629871
16	0x3e6e64f3	0.23280697
17	0x3dfb624d	0.12274609
18	0xbe32344d	-0.17402764
19	0xbe979b0d	-0.29610482
20	0xbc6ebcee	-0.014571412
21	0xbddf80e1	-0.109132536
22	0x3c2359b3	0.009970116
23	0xbec7ac14	-0.38998473
24	0x3d77cf14	0.06050022
25	0xbe96d8eb	-0.2946237
26	0x3dcb967f	0.09940814
27	0xbe9df7e2	-0.30853182
28	0xbd815cab	-0.06316503
29	0xbe14d7a1	-0.14535381
30	0x3d76b35e	0.06022965
31	0x3e041a79	0.12900724
32	0xbe0da8f7	-0.13833986
33	0x3e85a179	0.26099756
34	0x3e4ff6f4	0.20309049
35	0x3e92983b	0.28631768
36	0xbc9102fb	-0.017701617
37	0x3dd27397	0.10275953
38	0x3d752f4b	0.059859555
39	0x3e30d97c	0.17270464
40	0xbeba7d12	-0.36423546
41	0xbd213f4e	-0.039367013
42	0x3e982975	0.2971913
43	0x3d9cda04	0.07658771
44	0x3dc67d85	0.0969191
45	0x3cc387e4	0.023868509
46	0x3dfb6294	0.12274662
47	0x3e9f7b2b	0.31148657
48	0x3e938aa0	0.288167
49	0x3d308532	0.043095775
50	0xbe063e4c	-0.13109702
51	0xbe7e8727	-0.24856244
52	0x3dd4ea10	0.103962064
53	0xbea9f5e8	-0.33195424
54	0x3dba1ff5	0.090881266
55	0x3ce1bd50	0.027556092
56	0xbe3ddb2f	-0.18540643
57	0xbd8d1fed	-0.06890855
58	0x3ea50557	0.32230636
59	0xbe6c68d0	-0.23086858
60	0xbe3d1977	-0.18466745
61	0x3e672070	0.22570968
62	0x3ddd7280	0.10812855
63	0xbe92bc90	-0.28659487
64	0xbdfdb818	-0.12388629
65	0xbe1d93f7	-0.15388475
66	0xbd95b398	-0.073096454
67	0xbd837f09	-0.064207144
68	0x3e9f1afe	0.3107528
69	0x3a7591d1	0.00093677366
70	0xba90cfb6	-0.0011048231
71	0x3e93b320	0.288476
72	0x3ccc777b	0.024959316
73	0xbe2f4270	-0.17115188
74	0xbe3d48bb	-0.18484776
75	0x3cf5ffd4	0.030029215
76	0xbdc347f8	-0.09535211
77	0xbdeae2be	-0.11469029
78	0xbe341fb2	-0.17590216
79	0x3e2905fd	0.1650619
80	0xbe3d70f1	-0.18500115
81	0x3cbe1c2b	0.02320679
82	0x3e95c76e	0.29253715
83	0xbe13516d	-0.1438653
84	0xbdbccc97	-0.0921871
85	0x3a92c9fe	0.0011199114
86	0xbe1377ff	-0.14401244
87	0x3e1e5be7	0.15464745
88	0x3dcae763	0.09907415
89	0x3dc5f123	0.09665134
90	0xbe3a15c6	-0.18172368
91	0xbe9a8166	-0.30176848
92	0xbe018adc	-0.12650627
93	0x3d0fffb9	0.035155986
94	0xbe1b5478	-0.15168941
95	0xbdc7e291	-0.09760011
96	0x3d2def5a	0.04246459
97	0x3e948b21	0.29012397
98	0x392c1e16	0.00016414406
99	0x3e883bd5	0.26608148
100	0xbe177428	-0.14790404
101	0xbd023063	-0.031784426
102	0xbe7988da	-0.24368611
103	0x3e312832	0.1730049
104	0xbe25daa3	-0.16196685
105	0xbe5499f1	-0.20761849
106	0xbe955c56	-0.2917201
107	0xbe4fffb5	-0.20312388
108	0x3e94f2d9	0.29091528
109	0x3e96119c	0.2931031
110	0xbba8b843	-0.005148919
111	0x3e8ed4eb	0.2789682
112	0x3de38cf2	0.111108676
113	0xbebcf8aa	-0.36908466
114	0xbd3e5f83	-0.046477806
115	0x3da96cf1	0.08272732
116	0x3e47e506	0.1952096
117	0x3e781c85	0.2422963
118	0xbe0d46ab	-0.13796489
119	0xbda1de67	-0.07903748
120	0xbc83da78	-0.016095385
121	0x3ea86e10	0.3289647
122	0x3d6407a7	0.05567136
123	0x3ca3f64c	0.020014904
124	0x3ecab473	0.39590797
125	0xbdd9029f	-0.10596203
126	0x3e265b85	0.1624585
127	0xbbbc6c95	-0.0057502487
128	0x3e800565	0.25004116
129	0x3d1b057f	0.03784704
130	0x3e5fc6cd	0.2185318
131	0x3e886bfb	0.26644883
132	0xbe2ea356	-0.17054495
133	0x3e6f54d1	0.23372199
134	0x3e901e8d	0.28148308
135	0xbe08abc6	-0.13346776
136	0xbe536b7c	-0.20646471
137	0xbe904e3b	-0.28184685
138	0xbe7ddfb0	-0.24792361
139	0xbe9104e9	-0.2832406
140	0x3dee694d	0.11641178
141	0x3df4d9f6	0.11955635
142	0x3eba89be	0.36433214
143	0x3e2abcbc	0.16673559
144	0x3ea345f5	0.3188931
145	0xbec54d6b	-0.38535628
146	0xbdefc7a3	-0.117079996
147	0xbe330ae8	-0.17484629
148	0x3e44aab1	0.19205739
149	0xbd24062d	-0.040044952
150	0x3d757536	0.059926234
151	0xbe7d23c9	-0.24720682
152	0xbd89e30b	-0.06732758
153	0x3d2e0f8a	0.042495288
154	0x3dbfa94e	0.09358464
155	0x3df9e7e7	0.12202435
156	0x3e6a62e5	0.22889288
157	0xbcb55930	-0.022137254
158	0xbe88b7e4	-0.26702797
159	0x3c1acaf2	0.0094478
160	0x3e509ab1	0.2037151
161	0xbebd52a7	-0.3697712
162	0xbd7a1922	-0.061059125
163	0xbd7852f9	-0.060626004
164	0xbd8855c4	-0.066569835
165	0x3e26a1b1	0.16272618
166	0xbebf0957	-0.37311813
167	0xbe2f1953	-0.17099504
168	0xbe852991	-0.26008275
169	0x3e5fa402	0.21839908
170	0xbdda1096	-0.10647695
171	0x3dbc7ce5	0.09203509
172	0xbe6080d7	-0.21924148
173	0xbea8a94b	-0.3294166
174	0x3e952933	0.29132995
175	0x3e1ab34b	0.15107457
176	0xbea1770e	-0.31536144
177	0x3e290eec	0.16509598
178	0x3e5f83a0	0.21827555
179	0xbd2e3254	-0.042528465
180	0x3dfa3878	0.12217802
181	0x3e54978e	0.20760939
182	0x3df84750	0.12122977
183	0x3d8bb02a	0.0682071
184	0x3e47c681	0.19509317
185	0x3eb4f871	0.35345796
186	0x3e8d944a	0.27652198
187	0x3df0fef7	0.11767381
188	0xbe00d34a	-0.125806
189	0x3e0b9a1f	0.13633011
190	0x3ea15334	0.3150879
191	0x3e5ea314	0.21741897
192	0xbd9a8978	-0.07545751
193	0x3e548e93	0.20757513
194	0x3e01fbd5	0.12693723
195	0x3e0a98b0	0.13534808
196	0x3e3ecee3	0.18633609
197	0xbdb940f4	-0.09045592
198	0x3e4da9eb	0.2008435
199	0x3dde42a0	0.108525515
200	0x3e80ef65	0.25182644
201	0xbe9261a7	-0.28590128
202	0x3e32b96d	0.17453547
203	0xbe974464	-0.29544365
204	0xbcb15b9b	-0.021650126
205	0x3d5aa250	0.05337745
206	0xbbe3086d	-0.0069284947
207	0xbe51d5bd	-0.20491691
208	0x3d550b29	0.052012596
209	0xbe9d58e0	-0.3073187
210	0x3e78a567	0.24281846
211	0xbe1bff94	-0.15234214
212	0x3e5ca2b0	0.21546435
213	0x3dc90328	0.09815055
214	0xbe6e4e39	-0.23272027
215	0x3e9fd6a3	0.31218442
216	0x3eac4e12	0.33653313
217	0xbe490085	-0.19629104
218	0xbd299bfb	-0.04140852
219	0xbe822b63	-0.25423726
220	0x3eb0c48e	0.3452496
221	0x3e4a9eec	0.19787186
222	0x3d275231	0.04084987
223	0xbdd27592	-0.10276331
224	0x3d56daf6	0.05245491
225	0xbe699176	-0.22809395
226	0x3e073fa2	0.13207868
227	0x3e65c415	0.2243808
228	0xbe420f23	-0.18951087
229	0xbe4d34f4	-0.20039731
230	0x3e0b3481	0.13594247
231	0xbe1c4387	-0.15260135
232	0xbe8908a3	-0.26764402
233	0x3e8697b7	0.26287624
234	0x3e6a19ae	0.22861359
235	0xbc0f9430	-0.008763358
236	0x3d490bda	0.04908357
237	0x3e5c7ed4	0.21532756
238	0x3e40dbe7	0.18833886
239	0xbe4925fe	-0.19643399
240	0xbea405bf	-0.32035634
241	0xbe974cf9	-0.29550913
242	0x3d77de0b	0.06051449
243	0xbe921d15	-0.28537813
244	0xbd701480	-0.0586133
245	0xbec86128	-0.39136624
246	0x3df3352a	0.118753746
247	0xbe4e9d34	-0.20177156
248	0x3e2a77e4	0.16647297
249	0x3e08a4ea	0.1334416
250	0xbc5007fd	-0.012697217
251	0x3e401fe9	0.18762173
252	0xbe237443	-0.15962319
253	0x3ebf8dd1	0.37412885
254	0x3ccae9a4	0.024769612
255	0xbcab0fb9	-0.02088152

stage1.residual.3.bias f4 [32]
0	0x3dae7c9d	0.08519862
1	0xbdd50291	-0.1040088
2	0x3ea5786c	0.32318437
3	0xbcd080fd	-0.025452131
4	0x3e701ccc	0.23448485
5	0x3e8d9722	0.27654368
6	0x3e093341	0.13398458
7	0x3e02d145	0.12775142
8	0x3d8604ab	0.06543859
9	0xbdb421f9	-0.08795542
10	0xbdcf0543	-0.101084255
11	0xbe83431a	-0.25637132
12	0xbda198fb	-0.07890507
13	0x3d94e70d	0.07270632
14	0x3eafec92	0.34360176
15	0xbd4e21c2	-0.050325163
16	0x3e227c7d	0.15867801
17	0xbea1bb9b	-0.31588444
18	0x3e99c996	0.3003661
19	0xbc4a8dc1	-0.012362898
20	0xbea5dee2	-0.3239661
21	0xbe474079	-0.19458188
22	0x3d909ff0	0.07061756
23	0x3d8151f8	0.063144624
24	0xbe8bd69c	-0.2731217
25	0x3e620a57	0.22074257
26	0xbd72b2a6	-0.059252404
27	0xbc85d10f	-0.016335038
28	0x3e49451c	0.1965527
29	0x3eac00aa	0.33594257
30	0x3b52895f	0.0032125337
31	0xbe921d9f	-0.28538224

stage1.residual.4.weight f4 [32]
0	0x3f856750	1.0422153
1	0x3f82172c	1.0163321
2	0x3f84ebf4	1.0384507
3	0x3f8b6db8	1.0892859
4	0x3f880a9d	1.0628239
5	0x3f8596c5	1.0436636
6	0x3f7daf12	0.9909526
7	0x3f82dc91	1.0223562
8	0x3f8484a4	1.0352979
9	0x3f816fa4	1.0112195
10	0x3f7d3f94	0.9892514
11	0x3f7e4348	0.99321413
12	0x3f842f49	1.032693
13	0x3f7b9e5b	0.98288506
14	0x3f7030f9	0.93824726
15	0x3f6f6a1d	0.9352129
16	0x3f81a387	1.012803
17	0x3f6ed169	0.93288285
18	0x3f72151b	0.94563454
19	0x3f824dc7	1.0179986
20	0x3f811e9c	1.0087466
21	0x3f816714	1.0109582
22	0x3f74ead4	0.9567082
23	0x3f6edb18	0.9330306
24	0x3f6b02c3	0.9180109
25	0x3f823b53	1.0174354
26	0x3f80d407	1.0064706
27	0x3f87dd89	1.0614482
28	0x3f81833d	1.0118176
29	0x3f69f67b	0.91391724
30	0x3f6d62ed	0.92729074
31	0x3f822233	1.0166687

stage1.residual.4.bias f4 [32]
0	0x3c02bef4	0.007980097
1	0x3df25fe0	0.11834693
2	0x3d706b79	0.058696244
3	0x3d8a1cf5	0.06743804
4	0x3b118e83	0.0022210188
5	0x3e5d43c6	0.21607885
6	0xbcfe8f4d	-0.03107419
7	0x3b9de9b8	0.004819121
8	0xbd1f9f01	-0.038969997
9	0xbd88ac4e	-0.066734895
10	0x3c87e49c	0.016588502
11	0x3c7a29fd	0.0152688
12	0x3d48008d	0.04882865
13	0x3d649ca4	0.055813447
14	0xbd9083f2	-0.070564166
15	0x3e00300d	0.1251833
16	0xbd2fa2f3	-0.04288001
17	0x3d1f3bcd	0.03887539
18	0x3d6c85eb	0.0577449
19	0x3d10837c	0.035281643
20	0x3d08d81c	0.033409223
21	0x3dd494ff	0.10379981
22	0x3db3fc6e	0.087883815
23	0x3c0c20b4	0.008552719
24	0xbd11a67b	-0.03555916
25	0xbc67a9e6	-0.014139628
26	0x3c89e8ec	0.016834699
27	0x3d93beaf	0.072141044
28	0x3d61e473	0.055149507
29	0xbcbc0584	-0.022951849
30	0x3cc39994	0.023876943
31	0xbcd7c8f1	-0.026340934

stage1.residual.4.running_mean f4 [32]
0	0x3eadeaad	0.33968106
1	0xbe6b91ad	-0.2300479
2	0xbd9e52a9	-0.0773061
3	0x3da74246	0.081669375
4	0x3eb8e449	0.36111668
5	0x3ead18fc	0.33808124
6	0x3e2cd5be	0.16878411
7	0x3dbb8a90	0.09157288
8	0xbe36f928	-0.17868483
9	0x3bd06d4a	0.0063606845
10	0xbe8ccaca	-0.27498466
11	0xbf104963	-0.5636198
12	0x3e469eca	0.1939651
13	0x3eab1ea7	0.33421823
14	0x3f475b53	0.77873725
15	0xbe453735	-0.19259341
16	0xbb75ffb9	-0.0037536456
17	0xbe995b1f	-0.29952332
18	0x3d52a0da	0.05142293
19	0xbc0606fc	-0.008180376
20	0xbd7ed304	-0.06221296
21	0x3e4c4ed9	0.19951953
22	0x3e09f205	0.1347123
23	0x3d94b9d8	0.072620094
24	0xbe13bf44	-0.14428431
25	0x3df0a8c5	0.1175094
26	0xbda52e5c	-0.08065483
27	0xbdf4f985	-0.119616546
28	0x3ee38813	0.44439754
29	0x3ed50c82	0.41611105
30	0x3df1e847	0.118118815
31	0xbcdc4778	-0.026889548

stage1.residual.4.running_var f4 [32]
0	0x3eaeb7c1	0.34124568
1	0x3e484c3f	0.19560336
2	0x3f4f8fab	0.81078595
3	0x3eb5c627	0.3550274
4	0x3dcbc13e	0.099489674
5	0x3e45fb4a	0.1933414
6	0x3d52842a	0.051395573
7	0x3e7ab53d	0.244832
8	0x3ea00efe	0.31261438
9	0x3d75ea05	0.06003763
10	0x3e7170fc	0.23578256
11	0x3c95436a	0.018220622
12	0x3c8314f0	0.016001195
13	0x3c57c4ec	0.013169508
14	0x3d084f03	0.033278476
15	0x3c78ace3	0.015177938
16	0x3e2acbab	0.16679256
17	0x3de73125	0.112886705
18	0x3c2a860e	0.010407938
19	0x3e8a89dd	0.27058306
20	0x3ed1eda1	0.4100161
21	0x3cb59d86	0.02216984
22	0x3d8ca84e	0.06868039
23	0x3db6a731	0.08918608
24	0x3dc0aee8	0.09408361
25	0x3eaeed98	0.34165645
26	0x3bbad27f	0.0057013626
27	0x3e029173	0.12750797
28	0x3ed1fa73	0.4101139
29	0x3b28bd8a	0.002574774
30	0x3e3ef102	0.18646625
31	0x3c8a3319	0.016870068

stage1.residual.6.weight f4 [16, 32, 1, 1]
0	0xbdfb307a	-0.122651055
1	0x3e1fb338	0.1559571
2	0x3d787017	0.060653772
3	0xbdbd2077	-0.09234708
4	0x3c1e4467	0.009659863
5	0x3d07e79f	0.033179875
6	0xbd76e4ea	-0.060276903
7	0xbd879b53	-0.066214226
8	0xbc32788d	-0.010892999
9	0xbdabc812	-0.0838777
10	0x3e1d9845	0.15390117
11	0x3de54638	0.11195034
12	0xbdeab6c0	-0.11460638
13	0x3e286913	0.16446333
14	0x3d4eb22b	0.050462883
15	0x3db70d89	0.089381285
16	0x3db184e3	0.08667924
17	0xbdbd6142	-0.09247066
18	0xbd25e233	-0.040498924
19	0xbe0b5156	-0.13605246
20	0x3e45660a	0.19277206
21	0x3e1c8a99	0.15287246
22	0xbe0b7a37	-0.1362084
23	0xbe33c035	-0.1755379
24	0xbdc23cd5	-0.09484259
25	0xbe7536a0	-0.23946619
26	0x3dc105ff	0.09424972
27	0x3e48a90d	0.19595738
28	0x3c4103cd	0.011780691
29	0xbdf9afd1	-0.121917374
30	0xbb84afce	-0.004049278
31	0x3e6a1db1	0.22862889
32	0x3d98bec4	0.07458261
33	0xbd928409	-0.0715409
34	0xbeb08410	-0.34475756
35	0xbd57c27c	-0.05267571
36	0xbdb56d7d	-0.08858774
37	0x3e70d532	0.23518828
38	0xbe77c7f2	-0.24197367
39	0x3d8133b8	0.06308693
40	0xbe01efa3	-0.1268907
41	0xbdd25089	-0.10269267
42	0xbd4927c7	-0.0491102
43	0x3e1165c0	0.14198971
44	0x3da5c19b	0.08093568
45	0x3e0da418	0.13832128
46	0x3deb20c9	0.11480863
47	0x3dc23479	0.094826646
48	0x3c43d97c	0.011953708
49	0xbca2076a	-0.019778926
50	0x3cc9e205	0.024643907
51	0xbda87462	-0.08225323
52	0xbd38d131	-0.045121375
53	0x3da2c928	0.07948524
54	0x3dab0b7b	0.08351799
55	0xbc34d9e7	-0.01103828
56	0xbdb541c8	-0.088504374
57	0xbd89611f	-0.067079775
58	0xbdcf5278	-0.101231515
59	0xbd357fe9	-0.044311438
60	0x3df9b333	0.12192383
61	0x3d2ddc0c	0.04244618
62	0xbde74b10	-0.11293614
63	0xbdba14cd	-0.09085999
64	0x3e3863f7	0.18006884
65	0x3ddc33ca	0.107520655
66	0xbc416658	-0.011804186
67	0x3dabc9d8	0.08388108
68	0x3de9d4ee	0.11417566
69	0xbe523e5e	-0.20531604
70	0x3bcb592c	0.0062056985
71	0x3db5a252	0.08868851
72	0x3d191a8c	0.037378833
73	0x3e4d93e3	0.20075946
74	0xbd9d998d	-0.07695303
75	0x3d602f09	0.054732356
76	0x3dbb10e0	0.09134078
77	0xbdf4ed3e	-0.11959313
78	0x3e38ab1b	0.18034022
79	0xbdeced23	-0.11568668
80	0xbd951979	-0.07280249
81	0xbe19334e	-0.14960977
82	0xbc4d6f42	-0.012538733
83	0xbcec175b	-0.02881973
84	0xbdc736a2	-0.09727217
85	0x3c894ab4	0.016759254
86	0xbe17d370	-0.14826751
87	0xbd59314d	-0.053025533
88	0xbdd6177f	-0.104537
89	0xbdb85616	-0.090007946
90	0x3d4d2859	0.050087307
91	0xbcdff6bc	-0.027339332
92	0xbd855237	-0.06509822
93	0x3d91006c	0.070801586
94	0xbe4bdfb9	-0.19909562
95	0xbdb01e02	-0.085994735
96	0xbd3eb4a2	-0.046558984
97	0x3db43ca6	0.0880063
98	0xbe26a892	-0.16275242
99	0xbe1dda22	-0.15415242
100	0xbe02abff	-0.12760924
101	0x3d8c134f	0.0683962
102	0xbcae217f	-0.021256207
103	0x3dd7db2b	0.1053985
104	0x3df1a7ab	0.11799558
105	0x3e0b2a8c	0.13590449
106	0xbc07d9f8	-0.008291714
107	0xbe1a7c5a	-0.15086499
108	0x3e2c6d2b	0.1683852
109	0x3cea6fab	0.0286177
110	0x3cbd7436	0.023126703
111	0x3d895f86	0.06707673
112	0x3dfcda18	0.123462856
113	0x3e389ebc	0.18029302
114	0xbdeea930	-0.11653364
115	0xbddb956b	-0.107218586
116	0x3dd29844	0.102829486
117	0x3d7dfcd1	0.062008683
118	0xbe05bf2a	-0.13061205
119	0xbdab16ee	-0.08353983
120	0xbdd10d1b	-0.10207578
121	0xbd710d16	-0.05885037
122	0xbe08d6ff	-0.13363265
123	0x3d5be8f2	0.05368895
124	0x3e0886c7	0.13332663
125	0x3dcc91ba	0.09988733
126	0x3d8bf973	0.06834688
127	0x3e72cf12	0.23711804
128	0x3e2be8b5	0.1678799
129	0xbde4e648	-0.11176735
130	0x3cee76e9	0.029109435
131	0xbd1cdbaf	-0.038295444
132	0x3e17837b	0.1479625
133	0x3c835430	0.016031355
134	0x3d08f0fb	0.033432942
135	0x3ceeec7f	0.029165505
136	0x3d728a1d	0.059213746
137	0xbdef7242	-0.11691715
138	0x3e0a7fd7	0.1352533
139	0x3e743f2e	0.23852226
140	0xbe3d9499	-0.18513717
141	0xbd32027b	-0.043459397
142	0xbd776cc3	-0.060406458
143	0x3c369a2c	0.011145156
144	0x3e30959f	0.17244576
145	0xb83e156b	-4.5319477e-05
146	0xbd117b13	-0.035517763
147	0x3c2080ab	0.009796302
148	0x3e6b4913	0.22977094
149	0xbd543a3b	-0.051813345
150	0xbe040e17	-0.12896
151	0x3d0e75d5	0.034780342
152	0x3e633a5b	0.2219023
153	0x3dad6a2b	0.084675156
154	0x3e452cfc	0.19255441
155	0x3e05d185	0.13068207
156	0xbe03a044	-0.12854105
157	0x3d4e6120	0.050385594
158	0xbdbf18f9	-0.09330935
159	0xbe194318	-0.14967
160	0xbd145914	-0.036217764
161	0x3e832b64	0.25619042
162	0x3e1c9578	0.15291393
163	0x3db70105	0.08935741
164	0xbe300ebf	-0.17193125
165	0xbda3e6b5	-0.08002988
166	0xbe63e570	-0.22255492
167	0x3db282a6	0.087163255
168	0xbd380d9c	-0.044934854
169	0x3db57d8a	0.08861835
170	0x3da8bda3	0.08239295
171	0xbdd77ef8	-0.10522264
172	0xbe0336a3	-0.12813811
173	0xbdd3faf6	-0.103506014
174	0xbe280b1c	-0.16410488
175	0x3dba3ceb	0.090936504
176	0xbe092f78	-0.13397014
177	0xbb033839	-0.0020022525
178	0xbde9c4a2	-0.11414458
179	0xbe410ff6	-0.18853745
180	0xbdbf4ba1	-0.09340597
181	0x3cbdf913	0.023190057
182	0x3d16db3d	0.036830176
183	0xbd55f1fb	-0.052232724
184	0x3dde2625	0.10847119
185	0xbd9355d3	-0.07194104
186	0xbdba45cf	-0.09095346
187	0x3dcbe95d	0.0995662
188	0xbdc933be	-0.09824322
189	0xbd40959f	-0.04701769
190	0xbdeb21fb	-0.11481091
191	0x3e5ddc62	0.216661
192	0x3e152b52	0.14567307
193	0xbcd1591e	-0.02555519
194	0xbc3ba043	-0.011451784
195	0xbb08e6ed	-0.0020889596
196	0xbe3db230	-0.18525004
197	0xbd7cd6f5	-0.061728436
198	0x3d6d9d88	0.05801156
199	0xbd512310	-0.05105883
200	0xbdffee9e	-0.124966845
201	0xbd9fb63a	-0.07798429
202	0xbe737f8c	-0.23779124
203	0xbe2e772e	-0.17037651
204	0x3e574065	0.21020658
205	0x3e09c7fb	0.13455193
206	0xbd918a72	-0.071064845
207	0x3d937563	0.07200124
208	0xbc8a79f3	-0.016903853
209	0xbe022a9a	-0.12711564
210	0x3c39cf96	0.011340996
211	0x3d59dbb5	0.053188045
212	0x3e483295	0.19550546
213	0x3c1cc077	0.009567372
214	0x3dbad9d3	0.09123578
215	0x3d099a63	0.0335945
216	0xbd2a9991	-0.04165036
217	0x3dc3b62b	0.0955623
218	0xbe083bab	-0.13304012
219	0xbe07a89f	-0.13247918
220	0x3e0bd7ab	0.1365649
221	0xbc2b4fef	-0.010456069
222	0xbc545abd	-0.012961087
223	0xbddb2bcb	-0.10701712
224	0x3d323709	0.043509517
225	0x3e4a8d8f	0.19780563
226	0xbd8c4280	-0.06848621
227	0x3e8984c8	0.26859117
228	0xbc9aa6ea	-0.018878419
229	0x3e1f0de7	0.15532647
230	0xbdfe5715	-0.12418953
231	0x3e52777e	0.20553395
232	0xbdfb5c3f	-0.12273454
233	0xbdde2386	-0.10846619
234	0x3d9aa12e	0.07550274
235	0x3d599f46	0.05313041
236	0x3c2e435b	0.010636176
237	0xbde05cd1	-0.10955203
238	0xbd9ca9c7	-0.0764957
239	0xbe2375ec	-0.15962952
240	0xbd0c6203	-0.03427316
241	0xbd1243d3	-0.035709213
242	0xbd3d0832	-0.046150394
243	0x3d42c2fa	0.047549225
244	0x3d4dcc98	0.050243944
245	0x3e41fda5	0.18944414
246	0x3e1459e6	0.14487419
247	0xbd577858	-0.052605003
248	0xbdfa529c	-0.12222788
249	0x3dda5b50	0.10661948
250	0x3dc3415b	0.0953395
251	0x3e52eb2f	0.20597528
252	0xbda6de6d	-0.08147893
253	0xbc768cfe	-0.015048264
254	0x3cc23727	0.02370794
255	0xbd52a7ef	-0.051429685

stage1.residual.6.bias f4 [16]
0	0xbe191b07	-0.14951716
1	0x3e3af3ea	0.18257108
2	0x3e2da925	0.16959055
3	0xbe4be825	-0.19912775
4	0x3e32e738	0.17471015
5	0xbde9a6e0	-0.11408782
6	0xbd459429	-0.048237
7	0x3d657ed0	0.05602914
8	0x3d98e1bb	0.0746493
9	0x3dbadca4	0.09124115
10	0xbdd8d2b7	-0.10587066
11	0x3d9ede95	0.07757298
12	0xbd989161	-0.07449604
13	0xbda6817e	-0.081301674
14	0x3d77d928	0.06050983
15	0xbd42ee17	-0.04759034

stage1.residual.7.weight f4 [16]
0	0x3f6e6531	0.93123156
1	0x3f931966	1.1492126
2	0x3f8b0a56	1.0862529
3	0x3f7227c9	0.9459196
4	0x3f69d75c	0.9134424
5	0x3f6d129e	0.9260653
6	0x3f7b683c	0.98205924
7	0x3f7f73fd	0.9978636
8	0x3f7bcf37	0.9836306
9	0x3f816baf	1.0110987
10	0x3f78ed2f	0.97236913
11	0x3f8325a9	1.0245868
12	0x3f7e373a	0.9930302
13	0x3f87aa08	1.0598764
14	0x3f7f4157	0.99709076
15	0x3f82f54c	1.0231109

stage1.residual.7.bias f4 [16]
0	0xbcb1f31e	-0.021722373
1	0x3ccfc7c6	0.025363814
2	0x3cf19b45	0.029492984
3	0xbcf9ccce	-0.030493166
4	0x3c1822d8	0.009285651
5	0x3ced7a91	0.028989108
6	0x3d00a2a1	0.031405095
7	0x3bc4cb46	0.0060056774
8	0xbc9fb0f0	-0.01949355
9	0xbd0426ff	-0.032263752
10	0x3badab4e	0.005299962
11	0x3c14c26d	0.009079558
12	0xbbb34944	-0.0054713804
13	0x3c5f7e03	0.013640883
14	0x3cc8e439	0.024522888
15	0x3c25639a	0.010094548

stage1.residual.7.running_mean f4 [16]
0	0x3d8827de	0.06648229
1	0x3db84c32	0.08998908
2	0x3db95fe2	0.09051491
3	0xbc905e02	-0.017622951
4	0x3ed8bd3f	0.42331883
5	0xbe9bed5e	-0.30454534
6	0xbe1bb4fe	-0.15205762
7	0x3e92d0db	0.2867497
8	0x3d554fb1	0.052077953
9	0xbe95aa15	-0.29231325
10	0x3ebcc124	0.36866105
11	0x3c5bd2e9	0.013416984
12	0xbe0034e1	-0.12520172
13	0x3e9ff623	0.31242475
14	0xbe285c14	-0.16441375
15	0x3cdd973c	0.027049653

stage1.residual.7.running_var f4 [16]
0	0x3e75bb3d	0.23997207
1	0x3e5a492f	0.2131698
2	0x3e8607e5	0.26177898
3	0x3e3d4326	0.18482646
4	0x3ecd3bd2	0.40084702
5	0x3eb39b5f	0.35079476
6	0x3e39cf63	0.18145518
7	0x3e390871	0.18069626
8	0x3dcefd95	0.10106961
9	0x3e1a550e	0.15071508
10	0x3e74c76d	0.239042
11	0x3dde1420	0.10843682
12	0x3ebe6061	0.37182906
13	0x3e489655	0.19588597
14	0x3d84d151	0.064852364
15	0x3e083f90	0.13305497

stage2.0.residual.0.weight f4 [96, 16, 1, 1]
0	0x3d68f6ee	0.056876116
1	0xbe86f5e8	-0.26359487
2	0x3d8d3f0f	0.06896793
3	0x3dcb34b4	0.09922162
4	0x3d5dc59c	0.054143533
5	0x3d40e48c	0.04709296
6	0x3da274e6	0.07932453
7	0x3def4b5e	0.11684297
8	0xbd81892b	-0.06324991
9	0x3d8420e0	0.06451583
10	0x3e2d8fc0	0.16949368
11	0x3a208931	0.0006123959
12	0xbd0f649a	-0.03500805
13	0x3e14a073	0.14514332
14	0xbe6d5f5f	-0.23180912
15	0x3dcc3d9c	0.099726886
16	0xbd1d00b1	-0.038330738
17	0xbe9328a9	-0.2874196
18	0x3ea7ee22	0.32798868
19	0xbdec02c4	-0.11523965
20	0x3df8b7f8	0.12144464
21	0xbe804138	-0.25049758
22	0xbdff3b87	-0.12462526
23	0x3cd9c18c	0.026581548
24	0x3be5c54b	0.0070120445
25	0xbdae5316	-0.08511941
26	0xbdbd8c58	-0.09255284
27	0xbe1f3651	-0.15548064
28	0xbe3e15f6	-0.18563065
29	0x3d16a939	0.036782477
30	0xbe3534ce	-0.17695925
31	0xbd5b4042	-0.053528078
32	0xbdadd408	-0.084877074
33	0xbe689152	-0.22711685
34	0xbcc10952	-0.023564015
35	0xbda0db13	-0.07854285
36	0xbe50084d	-0.20315666
37	0xbe36bbc8	-0.1784507
38	0xbe2eef8a	-0.17083564
39	0xbe9e5d65	-0.3093063
40	0xbe618fad	-0.22027464
41	0xbe529535	-0.2056473
42	0x3ccf5cbd	0.025312776
43	0x3e5aeeeb	0.21380202
44	0x3e404501	0.18776323
45	0x3d2f63ed	0.042819906
46	0xbe268ced	-0.16264696
47	0x3ddc4f77	0.10757344
48	0xbe046960	-0.12930822
49	0x3e848782	0.25884634
50	0x3dfd196d	0.12358365
51	0xb9e49120	-0.00043595675
52	0x3e651bc1	0.22373869
53	0x3e16a2ab	0.1471049
54	0xbe662609	-0.22475447
55	0xbe240a91	-0.16019656
56	0x3d4e7674	0.050405934
57	0xbe01470e	-0.12624761
58	0xbe32f566	-0.17476425
59	0xbe068686	-0.13137254
60	0xbe77ef87	-0.24212466
61	0x3e9097bc	0.28240764
62	0x3e5b7e49	0.21434893
63	0x3e51460c	0.20436877
64	0xbd7a26e4	-0.061072245
65	0xbe7f137a	-0.24909773
66	0x3d88fb35	0.06688539
67	0xbe319ec0	-0.17345715
68	0x3e7ac499	0.24489059
69	0x3d49be29	0.049253616
70	0xbe659f1d	-0.22423978
71	0xbd6da3fd	-0.05801772
72	0xbe246725	-0.16054972
73	0x3e87319f	0.26405045
74	0x3d8fc136	0.07019274
75	0x3de61441	0.11234332
76	0x3dab7aca	0.083730295
77	0x3dce8b03	0.10085108
78	0x3cecb30d	0.028893972
79	0xbe370450	-0.17872739
80	0xbd611d36	-0.0549595
81	0xbe2bb906	-0.167698
82	0xbe5c5a76	-0.21518883
83	0xbe358d50	-0.17729688
84	0x3de5e066	0.11224441
85	0x3c8beebe	0.017081615
86	0xbe2836a5	-0.16427095
87	0x3e516a0c	0.2045061
88	0x3eb6b5e6	0.35685652
89	0xbe8026b8	-0.2502954
90	0x3d351729	0.04421154
91	0xbdb9b0d6	-0.09066932
92	0xbd16a61e	-0.036779515
93	0x3d6e78e0	0.058220744
94	0xbe274cd9	-0.16337909
95	0xbe6451ed	-0.22296877
96	0xbe62902e	-0.22125313
97	0xbe45eedf	-0.19329403
98	0xbca84e09	-0.020545023
99	0x3dcaa2df	0.098943464
100	0x3e8c5e79	0.27415827
101	0xbe594986	-0.21219453
102	0x3c947618	0.018122718
103	0x3e53e4ca	0.20692745
104	0x3e760609	0.2402574
105	0xbe6bd959	-0.2303213
106	0x3e83c6ad	0.25737515
107	0x3e7d6850	0.24746823
108	0x3ddadbe1	0.1068647
109	0xbe5ffb1d	-0.21873136
110	0x3d1e4708	0.03864196
111	0xbe137b26	-0.14402446
112	0x3c98402d	0.018585289
113	0x3df05a5a	0.11735983
114	0xbe623a0c	-0.22092456
115	0x3e88d694	0.2672621
116	0x3dc4930b	0.09598359
117	0x3e0dea68	0.1385895
118	0xbb835201	-0.0040075784
119	0x3dae5006	0.08511357
120	0x3e295495	0.16536172
121	0x3d4d5d23	0.05013765
122	0x3e366da9	0.1781527
123	0xbdeaa17b	-0.11456581
124	0x3dbade7e	0.09124468
125	0xbe48ab82	-0.19596675
126	0x3e918784	0.28423703
127	0x3ddcbc00	0.10778046
128	0x3e345d3b	0.1761369
129	0xbe128677	-0.14309107
130	0xbe78ba66	-0.24289855
131	0x3e369fe2	0.17834428
132	0x3e53cf6d	0.20684595
133	0xbde560b9	-0.11200089
134	0x3e71ca96	0.23612437
135	0xbe9309e3	-0.2871848
136	0xbe1c5935	-0.15268405
137	0x3d818e40	0.0632596
138	0xbd2519b0	-0.0403077
139	0x3e4fe360	0.2030158
140	0xbe0fc590	-0.14040208
141	0xbe6ed627	-0.2332388
142	0x3d045268	0.03230515
143	0x3e305b8e	0.17222425
144	0x3db0e965	0.086382665
145	0xbe461977	-0.19345652
146	0x3d7f0be0	0.062267184
147	0xbb8f667d	-0.004376231
148	0xbe2f7b11	-0.1713679
149	0x3dbf8cb4	0.09353009
150	0x3e0c7c08	0.13719189
151	0xbe83dc19	-0.2575386
152	0xbe120f30	-0.14263606
153	0x3e55d6de	0.20882747
154	0xbd4f4f36	-0.05061265
155	0xbe10d5d8	-0.14144075
156	0x3e850b00	0.25984955
157	0x3e4f5ea5	0.20250948
158	0xbe1692c0	-0.14704418
159	0x3ea1013b	0.3144625
160	0xbd74a8fb	-0.059731465
161	0xbd000c87	-0.031261947
162	0xbe3c3c87	-0.18382464
163	0x3c8e3f78	0.017364249
164	0xbe0e8e39	-0.13921441
165	0xbe90225d	-0.28151217
166	0x3e8ca055	0.27466074
167	0xbc71e2e8	-0.014763571
168	0x3e04d438	0.1297158
169	0x3e0aa6f9	0.13540258
170	0xbe20c215	-0.15699036
171	0xbdfba144	-0.12286618
172	0x3e82b6b4	0.25530016
173	0xbe9af4fd	-0.30265036
174	0xbe1fc9f7	-0.15604387
175	0x3e8cbd65	0.27488247
176	0xbe2b0497	-0.1670097
177	0xbdb248f4	-0.08705321
178	0x3e98e5fc	0.29862964
179	0xbde0bac0	-0.1097312
180	0xbc0ffe07	-0.008788592
181	0xbdee2b0d	-0.11629305
182	0xbe283826	-0.16427669
183	0xbde1e217	-0.11029451
184	0xbeae892b	-0.34089026
185	0x3e3c7007	0.1840211
186	0xbe908146	-0.28223628
187	0xbe7250a5	-0.23663576
188	0x3e273635	0.16329272
189	0xbca491cc	-0.020089053
190	0x3e184979	0.14871778
191	0xbdee7136	-0.11642687
192	0xbdac5f28	-0.08416587
193	0x3e4a5538	0.19759071
194	0xbb15e885	-0.0022874188
195	0xbe4a5814	-0.19760162
196	0x3e6d04a6	0.23146304
197	0x3d551b0d	0.05202775
198	0xbde43add	-0.1114404
199	0x3e7160c4	0.2357207
200	0x3e0cd7bc	0.13754171
201	0xbd97f8c1	-0.07420493
202	0x3dc3ed09	0.09566695
203	0x3d9b65ff	0.075878136
204	0x3e3686c2	0.17824844
205	0xbcdf7f41	-0.02728236
206	0x3e2c19c1	0.168067
207	0x3e5741a7	0.21021138
208	0x3e257c7e	0.16160771
209	0x3db6de44	0.089291126
210	0x3e915804	0.28387463
211	0x3e11e1a5	0.14246233
212	0xbe83b82b	-0.25726447
213	0xbd6a68b1	-0.057228748
214	0x3e1b7e9e	0.1518502
215	0x3d0cfdd5	0.03442176
216	0x3ba48589	0.0050208014
217	0xbd4e5f4d	-0.050383855
218	0x3e38a55a	0.18031827
219	0x3c18b170	0.009319648
220	0xbd0376fe	-0.0320959
221	0xbdc1d66e	-0.09464727
222	0x3dbb0184	0.091311485
223	0x3c58cb0c	0.013232004
224	0xbd801ab7	-0.062550955
225	0x3e547b24	0.207501
226	0x3cd417e8	0.025890306
227	0x3d888ebf	0.06667852
228	0xbe345de3	-0.1761394
229	0xbc5cc7af	-0.013475343
230	0x3d0ad3f5	0.033893544
231	0xbdbb1784	-0.091353446
232	0xbda7ec6e	-0.08199392
233	0xbcff3654	-0.031153835
234	0x3e65d908	0.22446072
235	0xbe492582	-0.19643214
236	0xbc9dc432	-0.019258592
237	0x3e4e71b9	0.20160569
238	0x3de6289e	0.11238216
239	0x3e3113e3	0.17292742
240	0xbe67d992	-0.2264159
241	0xbdbaffba	-0.09130807
242	0x3d9e7c7e	0.07738589
243	0xbe82d581	-0.25553516
244	0x3e22fb12	0.15916088
245	0xbd374693	-0.04474504
246	0xbde8c206	-0.11365132
247	0xbcaaddf2	-0.020857785
248	0x3df4a23c	0.11945006
249	0xbd896258	-0.06708211
250	0xbbdec05b	-0.006797833
251	0xbb96edb3	-0.0046059727
252	0x3d88a3c9	0.066718645
253	0xbdffe2df	-0.12494444
254	0xbdd5bfeb	-0.10436996
255	0xbe551efc	-0.20812601

stage2.0.residual.0.bias f4 [96]
0	0xbc83b6d5	-0.016078392
1	0xbdbe0d65	-0.092798986
2	0xbe3ee705	-0.18642814
3	0xbe5709a8	-0.20999777
4	0x3c44dd97	0.012015722
5	0x3e4ff2a0	0.20307398
6	0x3e487804	0.19577032
7	0xbda1c07d	-0.07898042
8	0xbe0c172b	-0.13680713
9	0xbe0559cd	-0.13022538
10	0xbe3d97ac	-0.1851489
11	0xbdd4d377	-0.10391896
12	0xbd85d3c1	-0.065345295
13	0xbe49f0bb	-0.19720738
14	0x3ceac61d	0.02865892
15	0xbcd48ede	-0.02594703
16	0xbde7c898	-0.11317557
17	0x3c817538	0.015802965
18	0xbe4dc313	-0.20093946
19	0xbe0495d1	-0.12947775
20	0xbd6d6c15	-0.057964403
21	0xba7633bf	-0.0009391866
22	0xbe4772fd	-0.19477458
23	0x3e492f8a	0.19647041
24	0xbde4098b	-0.11134633
25	0xbb804d16	-0.0039154394
26	0xbc381522	-0.011235507
27	0x3e12a76d	0.1432168
28	0xbe772e80	-0.24138832
29	0x3e46d592	0.19417408
30	0xbd0d767f	-0.034536835
31	0xbdf48197	-0.1193878
32	0xbdecfcf5	-0.11571685
33	0x3dd8ca7a	0.10585494
34	0xbe23fb14	-0.16013747
35	0xbe5fc9e1	-0.21854354
36	0x3e03840a	0.12843338
37	0xbe36be6e	-0.1784608
38	0x3d30d29b	0.0431696
39	0xbd06223e	-0.0327475
40	0xbcc65301	-0.024209501
41	0xbe1fe20e	-0.15613577
42	0xbdca9065	-0.09890822
43	0xbe5b1464	-0.21394497
44	0x3e1ac7a9	0.15115227
45	0x3e4189b9	0.18900193
46	0x3c996d87	0.018728985
47	0xbe455c66	-0.19273528
48	0x3dac7593	0.08420863
49	0xbe13da50	-0.14438748
50	0xbe51e5ad	-0.2049777
51	0xbd4d4767	-0.050116923
52	0x3b638930	0.0034719221
53	0x3e42b042	0.1901255
54	0xbe5c2bf1	-0.21501137
55	0x3b4a85f0	0.0030902587
56	0x3e817227	0.25282404
57	0xbe2db348	-0.16962922
58	0x3d229cf4	0.039700463
59	0xbe2046ea	-0.15652052
60	0x3e4c36c7	0.19942771
61	0xbd84ddae	-0.064875945
62	0xbde4b108	-0.111665785
63	0xbcdfcdab	-0.02731975
64	0x3c0c6eeb	0.008571367
65	0xbe6d461b	-0.23171274
66	0xbba60b0e	-0.005067236
67	0xbe40ac78	-0.18815792
68	0xbe5a7905	-0.21335228
69	0x3d5fc47c	0.05463074
70	0xbe35260f	-0.176903
71	0x3e81d587	0.2535822
72	0x3e349f7f	0.17638968
73	0x3e55cd59	0.20879115
74	0x3dfa2e76	0.12215893
75	0x3e71e55e	0.23622653
76	0xbd76247c	-0.060093388
77	0xbd70d3d6	-0.058795772
78	0x3e25989e	0.161715
79	0xbe14f2f5	-0.14545806
80	0x3e47edfe	0.1952438
81	0xbcd8e152	-0.026474629
82	0x3e3bb6cd	0.18331452
83	0xbe1c9937	-0.15292822
84	0x3db7e6a9	0.08979542
85	0xbe419ebc	-0.18908209
86	0xbbd3206e	-0.006443075
87	0x3e45d3a8	0.19319022
88	0x3d77462d	0.06036966
89	0x3e32b0d7	0.17450272
90	0xbe47a3f7	-0.19496141
91	0x3e48c312	0.19605663
92	0xbdef2836	-0.116775915
93	0x3e6abdeb	0.2292401
94	0x3e81abb8	0.25326324
95	0xbd2d60e9	-0.04232875

stage2.0.residual.1.weight f4 [96]
0	0x3f7f9814	0.9984143
1	0x3f831045	1.023934
2	0x3f7e19a5	0.9925788
3	0x3f82283b	1.0168527
4	0x3f787bb7	0.97063774
5	0x3f8274e4	1.0191922
6	0x3f7aa333	0.9790527
7	0x3f61685c	0.88049865
8	0x3f7b3b0c	0.98136973
9	0x3f91d8be	1.139427
10	0x3f85f520	1.0465431
11	0x3f749160	0.95534325
12	0x3f7ce20c	0.9878242
13	0x3f8a2955	1.0793864
14	0x3f73d6df	0.9524974
15	0x3f819780	1.0124359
16	0x3f8799b7	1.0593785
17	0x3f79fbe0	0.97649956
18	0x3f7482f6	0.9551233
19	0x3f81803b	1.0117258
20	0x3f6fa1e3	0.93606395
21	0x3f7faec8	0.9987607
22	0x3f6d78df	0.9276256
23	0x3f9956fb	1.1979669
24	0x3f847148	1.0347071
25	0x3f85ff23	1.0468487
26	0x3f8aaf02	1.0834658
27	0x3f68f297	0.9099516
28	0x3f66b685	0.9012225
29	0x3f85b43f	1.0445632
30	0x3f642cb8	0.89130735
31	0x3f978c04	1.1839604
32	0x3f6af613	0.9178173
33	0x3f5f0303	0.8711397
34	0x3f65cd78	0.89766645
35	0x3f6f0462	0.9336606
36	0x3f6101ff	0.8789367
37	0x3f8328bc	1.0246806
38	0x3f97a655	1.1847636
39	0x3f84b8c9	1.0368892
40	0x3f735d40	0.95064163
41	0x3f80cff9	1.0063468
42	0x3f3178aa	0.69324744
43	0x3f5d1af7	0.8636927
44	0x3f79b3d8	0.97540045
45	0x3f7fd384	0.9993212
46	0x3f608fed	0.87719613
47	0x3f6c7e0b	0.92379826
48	0x3f836cae	1.0267541
49	0x3f7be7d5	0.9840062
50	0x3f6f32c7	0.93436855
51	0x3f88430a	1.0645459
52	0x3f7b5192	0.9817134
53	0x3f7d6ac0	0.9899101
54	0x3f7c4fd6	0.9855932
55	0x3f80d332	1.0064452
56	0x3f79a294	0.975137
57	0x3f71172b	0.94175977
58	0x3f818961	1.012005
59	0x3f9354c3	1.1510242
60	0x3f6d24d3	0.92634314
61	0x3f74bd68	0.9560151
62	0x3f923a0e	1.1423967
63	0x3f5eeff9	0.8708492
64	0x3f51ba10	0.81924534
65	0x3f938c57	1.1527203
66	0x3f80ba11	1.0056783
67	0x3f9893e4	1.1920133
68	0x3f6e3760	0.93053246
69	0x3f917838	1.1364813
70	0x3f787392	0.97051346
71	0x3f7ad709	0.9798437
72	0x3f8324fa	1.0245659
73	0x3f918cc9	1.1371089
74	0x3f77a05f	0.9672908
75	0x3f853db8	1.040946
76	0x3f6cfa4a	0.9256941
77	0x3f76ac48	0.9635663
78	0x3f77e3b0	0.968318
79	0x3f80b241	1.0054399
80	0x3f8762cc	1.0577025
81	0x3f8896e9	1.0671054
82	0x3f7a76c1	0.97837454
83	0x3f6599da	0.89687884
84	0x3f6d4746	0.9268688
85	0x3f7b325a	0.98123705
86	0x3f81bcec	1.0135779
87	0x3f602ff7	0.8757319
88	0x3f92cfec	1.1469703
89	0x3f79b5bd	0.97542936
90	0x3f7ff803	0.9998781
91	0x3f7f7bf3	0.99798506
92	0x3f6d125f	0.9260616
93	0x3f8157fc	1.0104976
94	0x3f963912	1.1736166
95	0x3f8574f8	1.0426321

stage2.0.residual.1.bias f4 [96]
0	0xbd055fb0	-0.032561958
1	0xbbbbe031	-0.005733513
2	0xbc961837	-0.018322093
3	0xbd2aaa19	-0.041666124
4	0x3db956dc	0.0904977
5	0x3d40a437	0.047031607
6	0x3d969251	0.073521264
7	0x3e0c6b96	0.13712916
8	0xbdfafa36	-0.12254755
9	0x3d9118b4	0.0708479
10	0x3c05a68b	0.008157383
11	0xbe50fad5	-0.20408185
12	0x3d1836b4	0.037161544
13	0x3ca49f9d	0.02009564
14	0x3c302485	0.010750894
15	0x3d29fe09	0.041502032
16	0x3d2b699a	0.041848756
17	0x3b66508d	0.0035143227
18	0x3d914386	0.07092957
19	0xbd0cc017	-0.03436288
20	0x3d21f1b5	0.03953715
21	0x3d644974	0.055734113
22	0x3da34cb5	0.07973615
23	0xbbe14ca3	-0.006875591
24	0x3cd36771	0.02580616
25	0xbbc19b27	-0.005908388
26	0xbcc8c268	-0.024506763
27	0x3db391a9	0.08768017
28	0xbdb19f89	-0.08673007
29	0xbd48211c	-0.0488597
30	0x3dd5bf14	0.10436836
31	0x3ccfe72e	0.02537879
32	0x3dac3644	0.08408788
33	0x3e053067	0.13006745
34	0xbde89a06	-0.11357503
35	0x3da0b8ba	0.07847734
36	0xbdd0e392	-0.101996556
37	0xbc076db3	-0.0082659
38	0xbc89fb51	-0.01684347
39	0x3ceb2721	0.028705182
40	0x3d6527bc	0.055946097
41	0xbd6b1a07	-0.05739787
42	0x3e7195e0	0.23592329
43	0x3e1ad91c	0.15121883
44	0xbb3cb429	-0.0028793907
45	0x3be9a37f	0.007130086
46	0x3df9e112	0.12201132
47	0x3baf6a2a	0.005353232
48	0x3c22beed	0.009933216
49	0x3d3a7e70	0.045530736
50	0x3db677c3	0.089095615
51	0xbd577e50	-0.052610695
52	0x3c831237	0.015999896
53	0x3dce2af2	0.10066785
54	0xbc3466e4	-0.011010859
55	0x3dbea80c	0.09309396
56	0xba57b892	-0.0008229102
57	0xbd9252ed	-0.07144723
58	0xbcd55cf8	-0.026045308
59	0x3da2074c	0.07911548
60	0xbd59daae	-0.053187065
61	0x3d9b9c6e	0.07598196
62	0xbb45894b	-0.0030141647
63	0x3e0b1502	0.13582233
64	0x3e0391c3	0.12848572
65	0xbb030c76	-0.001999644
66	0x3d56aa18	0.052408308
67	0x3c87215b	0.016495397
68	0x3db9bfd3	0.09069791
69	0x3d1457b5	0.036216456
70	0x3d85e6ba	0.06538148
71	0x3d61fb9a	0.055171587
72	0xbbfee3dd	-0.0077786283
73	0xbc1b8610	-0.009492412
74	0xbd817ff5	-0.06323234
75	0x3d79e2ec	0.061007425
76	0x3d8af8c8	0.067857325
77	0x3d1779eb	0.036981504
78	0x3d91f0a8	0.0712598
79	0x3d222cb1	0.039593402
80	0x3c65dca8	0.014029659
81	0x3d1a371a	0.037650205
82	0x3db18a6f	0.08668982
83	0x3ddd7198	0.10812682
84	0x3d9466f5	0.072462
85	0xbc9da7c7	-0.019245042
86	0x3d04bcee	0.03240674
87	0x3e15d7b4	0.14633065
88	0x3defe4e7	0.117135815
89	0xbd16e1d5	-0.036836464
90	0x3ccdc586	0.0251186
91	0x3d39e470	0.04538387
92	0xbdd5b758	-0.10435361
93	0xbcb0b36d	-0.021569932
94	0xbc5bbe24	-0.013412032
95	0xbd52672d	-0.051367927
