mnist/model.onnx (onnx, 144596 bytes, 54 tensors)

conv2.weight f4 [10, 64, 1, 1]
0.5314037 -0.20179835 0.4288455 -0.32780442 -0.25671756 -0.5390798 -0.35475492 -0.0061554797
-0.3939563 -0.39674166 0.17829818 -0.06994752 0.19419736 -0.08440811 0.26457497 -0.024209427
-0.22080705 -0.13230315 -0.4107746 -0.51450175 -0.42915294 -0.36135525 -0.33421773 0.49544948
0.19324067 0.5217081 -0.20278062 -0.27552766 -0.38432845 0.17666197 -0.19933671 0.19550079
-0.34951606 0.3740004 0.46098992 0.29699066 -0.42868763 -0.13822497 -0.70863295 -0.44114175
-0.14673929 -0.6829699 -0.41043335 0.47351503 -0.2298481 -0.39206314 -0.29379922 -0.27661017
-0.3384728 -0.032827094 0.07609762 -0.5037241 0.07484195 -0.13507478 -0.01576121 -0.50535965
0.5656336 0.44961035 0.3454055 -0.07193048 -0.51193935 -0.32647696 -0.6031607 -0.34477308
-0.18477562 0.45250687 -0.37735283 -0.2701863 -0.5620369 -0.16880552 -0.086704396 -0.4165494
-0.120603 -0.27291423 -0.48428416 -0.43146294 -0.08634833 0.0392779 -0.53365266 -0.5134833
-0.20325045 -0.53549874 0.46708184 -0.020797698 -0.35546404 -0.43306533 -0.4593378 -0.20648742
0.1417144 0.27998033 -0.44451866 -0.07254889 -0.005414634 -0.4731073 0.2776375 -0.27132463
-0.3471512 0.031260617 0.55337495 -0.2628467 -0.49595115 -0.17207251 0.45969886 -0.3465112
0.12721609 0.25985706 -0.23127589 -0.4662445 0.08597006 -0.38053828 -0.07005697 -0.25899988
-0.15917729 -0.06329693 0.27936682 0.5746636 0.053268336 0.45473263 0.36225423 -0.09605195
-0.6650117 0.37643275 -0.594511 0.06876541 0.01528985 -0.29584754 0.15804541 0.66565216
0.14318633 -0.42464134 -0.44618115 0.3114934 -0.19378652 -0.16460434 -0.118667185 -0.35877842
0.225994 -0.55330306 -0.28457966 0.08462107 -0.12235323 -0.4186497 0.23627853 -0.0960709
-0.2944432 -0.10881322 -0.19945098 -0.3498573 0.41934183 0.30881345 -0.1565544 -0.3016117
0.27598917 -0.54364794 -0.27087903 0.38284588 0.33515814 0.051512513 -0.36090174 0.44730547
-0.1391547 -0.047262818 -0.13985957 0.09142121 0.15961571 0.4792261 -0.21832223 -0.45655107
-0.5106534 0.33987686 -0.070158176 0.11460553 -0.35607103 -0.030877845 -0.19903862 -0.36517262
0.4335483 0.12594746 -0.29070666 0.039827526 0.44154957 -0.3311041 0.0117673185 0.47659075
-0.31568497 -0.47373387 -0.14501666 0.30033672 -0.02599854 -0.34549603 -0.28997925 0.09055626
-0.25738436 -0.17225717 0.16686235 -0.19796413 -0.16299206 -0.39700696 0.30876294 0.29265228
-0.43061277 0.08877979 -0.2332253 0.34586427 -0.11454056 -0.34135294 0.2235055 -0.37422097
-0.3950589 -0.23410012 -0.1070305 -0.09611225 -0.43795732 -0.54267174 -0.099399 -0.0842459
-0.19212787 -0.12210609 -0.30983466 0.40194476 -0.18478106 -0.2803168 -0.42488772 -0.46144116
0.5237771 0.27498645 -0.43799654 -0.18954845 -0.23879957 0.25566667 0.3625083 0.3392284
-0.18682888 -0.37165082 0.50270325 -0.20536044 -0.099589825 -0.4273381 0.096758485 0.4319085
-0.09636715 0.2983373 -0.3447674 0.18933983 -0.009954662 -0.3191085 -0.39737356 -0.22446793
-0.05481752 -0.07568376 -0.56826615 0.5073768 -0.08186597 0.36825913 0.38578683 -0.0073134075
00000000: 130a 083f 3aa4 4ebe a391 db3e fbd5 a7be
00000010: 7c70 83be 2201 0abf 70a2 b5be e8b3 c9bb
00000020: a4b4 c9be b921 cbbe cc93 363e a540 8fbd
00000030: acdb 463e 29de acbd 5f76 873e d952 c6bc
00000040: 3e1b 62be 7a7a 07be 0c51 d2be 63b6 03bf
00000050: efb9 dbbe 8e03 b9be 961e abbe 8eab fd3e
00000060: e2e0 453e a98e 053f b9a5 4fbe f611 8dbe
00000070: b3c6 c4be e0e6 343e ec1e 4cbe 5c31 483e
00000080: c5f3 b2be fb7c bf3e df06 ec3e 290f 983e
00000090: f27c dbbe d98a 0dbe f868 35bf 55dd e1be
000000a0: d342 16be 1ed7 2ebf 5224 d2be 9070 f23e
000000b0: 4d5d 6bbe 80bc c8be da6c 96be d99f 8dbe
000000c0: 4f4c adbe b475 06bd 12d9 9b3d 10f4 00bf
000000d0: bc46 993d 0b51 0abe a71d 81bc 405f 01bf
000000e0: 5dcd 103f 5433 e63e fdd8 b03e 4a50 93bd
000000f0: 750e 03bf fd27 a7be bd68 1abf 1986 b0be
00000100: d235 3dbe fbae e73e 6434 c1be dc55 8abe
00000110: a6e1 0fbf 5bdb 2cbe 1392 b1bd f745 d5be
00000120: b5fe f6bd 6abb 8bbe 18f4 f7be b6e8 dcbe
00000130: 65d7 b0bd dde1 203d 769d 08bf a473 03bf
00000140: e320 50be 7216 09bf 5a25 ef3e ef5f aabc
00000150: 62ff b5be bdba ddbe 532e ebbe 7071 53be
00000160: 941d 113e 9559 8f3e f397 e3be 8394 94bd
00000170: 3e6d b1bb 1f3b f2be 8126 8e3e 10eb 8abe
00000180: cdbd b1be 220b 003d fba9 0d3f d893 86be
00000190: 4fed fdbe c733 30be a65d eb3e ea69 b1be
000001a0: ef44 023e fc0b 853e 96d3 6cbe 99b7 eebe
000001b0: 1211 b03d ead5 c2be 077a 8fbd a29b 84be
000001c0: 5fff 22be d2a1 81bd 2b09 8f3e 271d 133f
000001d0: e62f 5a3d b7d2 e83e 6379 b93e e2b6 c4bd
000001e0: 353e 2abf cbbb c03e df31 18bf e1d4 8c3d
000001f0: 4782 7a3c 5479 97be a8d6 213e 2e68 2a3f
00000200: 709f 123e 976a d9be db71 e4be 107c 9f3e
00000210: f96f 46be 0a8e 28be c807 f3bd ceb1 b7be
00000220: f96a 673e 45a5 0dbf 6db4 91be d04d ad3d
00000230: 5594 fabd 4159 d6be 00f3 713e d2c0 c4bd
00000240: 42c1 96be 77d9 debd e13c 4cbe 7f20 b3be
00000250: f9b3 d63e cc1c 9e3e cc4f 20be d96c 9abe
00000260: 744e 8d3e 832c 0bbf a8b0 8abe 6004 c43e
00000270: d999 ab3e c9fe 523d 1dc8 b8be 3905 e53e
00000280: 927e 0ebe a896 41bd 5937 0fbe 0b3b bb3d
00000290: 4d72 233e 205d f53e dd8f 5fbe 10c1 e9be
000002a0: 2eba 02bf 5704 ae3e 17af 8fbd 4eb6 ea3d
000002b0: f14e b6be 89f3 fcbc c8d0 4bbe e8f7 babe
000002c0: 0bfa dd3e 5ff8 003e 81d7 94be 3022 233d
000002d0: c912 e23e 7a86 a9be b6cb 403c b403 f43e
000002e0: 76a1 a1be 3f8d f2be 3f7f 14be bcc5 993e
000002f0: e4fa d4bc dbe4 b0be 2978 94be 8f75 b93d
00000300: e2c7 83be 2f64 30be f7dd 2a3e 1cb7 4abe
00000310: 64e7 26be 7f44 cbbe 2d16 9e3e 85d6 953e
00000320: 4779 dcbe 2ed2 b53d 9dd2 6ebe 1f15 b13e
00000330: 3e94 eabd d0c5 aebe a0de 643e e499 bfbe
00000340: 2945 cabe f1b7 6fbe cf32 dbbd 80d6 c4bd
00000350: f13b e0be 89ec 0abf b491 cbbd 1d89 acbd
00000360: 2bbd 44be c212 fabd a6a2 9ebe b4cb cd3e
00000370: 3f37 3dbe af85 8fbe e28a d9be 0442 ecbe
00000380: 4216 063f 06cb 8c3e 1541 e0be fd18 42be
00000390: e087 74be bee6 823e b09a b93e 58af ad3e
000003a0: 1250 3fbe 0449 bebe 29b1 003f 024a 52be
000003b0: c0f5 cbbd 0fcc dabe 5029 c63d 1c23 dd3e
000003c0: 245c c5bd abbf 983e 5a85 b0be 4de2 413e
000003d0: e118 23bc 3062 a3be 8c74 cbbe ecda 65be
000003e0: 5688 60bd 1600 9bbd e479 11bf 72e3 013f
000003f0: 58a9 a7bd 768c bc3e da85 c53e 4fa5 efbb

conv2.bias f4 [10]
-0.06518386 0.11472919 0.10904297 0.0734847 0.06584357 -0.018420316 0.027493943 -0.10808439
-0.029752027 -0.041780543
00000000: 1e7f 85bd 23f7 ea3d ec51 df3d 257f 963d
00000010: fed8 863d 34e6 96bc fa3a e13c 595b ddbd
00000020: 86ba f3bc 1322 2bbd

267 f4 [16, 1, 1, 1]
-3.3989651 -3.3404863 -3.413857 3.506809 3.5776591 3.5042784 -3.4902754 3.504737
-3.4318411 3.3189251 -3.3527699 3.2324889 -3.1683044 -3.5010955 -3.4173532 -3.3374279
00000000: a588 59c0 87ca 55c0 a27c 5ac0 8f6f 6040
00000010: 5ef8 6440 1946 6040 ac60 5fc0 9c4d 6040
00000020: 49a3 5bc0 4569 5440 c893 56c0 19e1 4e40
00000030: 80c5 4ac0 f311 60c0 eab5 5ac0 6b98 55c0

268 f4 [16]
0.37411124 0.32802805 0.38048023 -0.33404458 -0.41298193 -0.4167507 0.45342815 -0.41668624
0.46812493 -0.3749549 0.3408039 -0.49409318 0.27073446 0.45274955 0.42291605 0.31016797
00000000: 828b bf3e 4bf3 a73e 4ece c23e e407 abbe
00000010: 5e72 d3be 5960 d5be bc27 e83e e657 d5be
00000020: 12ae ef3e 17fa bfbe d97d ae3e c8f9 fcbe
00000030: b59d 8a3e cace e73e 7488 d83e 56ce 9e3e

270 f4 [16, 16, 1, 1]
0.6989046 0.24417932 0.62838733 -0.5792697 -0.1672435 -0.072400786 0.73081785 -0.72230667
0.7220548 0.86855876 -0.63168466 0.050975434 0.10286446 -0.15173085 -0.4971422 -0.33720753
0.39125627 0.090003535 0.025376268 -0.09411939 -0.08685001 -0.41536176 -0.038797334 -0.21898869
0.3275962 -0.09267316 0.40419656 -0.09345999 0.18342401 -0.3469726 -0.34237644 0.385657
0.87526244 -0.86235815 -1.6114948 1.4668499 -1.9606363 -0.93716687 -0.06740691 -2.4427278
0.3954712 1.9394939 -1.7898284 0.4961251 -0.18874937 -3.2321563 -3.878929 -2.698934
-0.08924947 0.17303744 -0.51612204 -0.15817043 -0.61351717 -0.2488422 -0.03883409 -0.5910362
0.6204028 0.12888043 0.14304388 0.49203652 0.16229604 0.68199766 -0.022687346 0.0650927
-0.34129947 -0.3079115 -0.06409002 0.2306841 -0.23927872 0.52316207 0.24448687 -0.003903273
-0.23743525 0.32438624 -0.06485555 0.42000052 -0.34732035 0.41024005 0.36061814 0.32870957
-0.1722455 0.17569114 0.3143951 0.6038375 -0.19990256 0.63175327 -0.8419793 -0.40635782
-0.43649915 0.2480497 0.3997729 -0.22714671 0.20529589 -0.8497969 -0.6390466 0.20227833
0.12991557 -0.37622893 0.34862345 -0.5420169 -0.3641228 0.041681502 0.38784218 -0.036856964
0.43268496 0.21811701 0.48141614 -0.46942297 -0.34485433 -0.2597606 -0.046949062 0.20284192
2.0433412 1.4934833 -0.8357582 0.90333116 -0.37733898 -0.28498065 2.2296455 0.39783603
-0.84733415 -0.98558813 0.7149986 0.7040423 -0.37200806 2.1666925 1.3872619 -0.16081926
-0.30984044 -0.30011722 0.019708406 -0.1777743 -0.040146064 -0.18750381 -0.0017287361 -0.05983168
0.35083628 0.07772977 0.109403625 -0.46331704 0.070984446 -0.2625032 0.07438817 -0.32314038
0.020622548 -0.31031284 -0.07605238 0.03730451 0.39278305 0.12509549 0.2588191 0.3437669
0.16357996 0.36114478 -0.16412072 -0.057942547 -0.15503994 0.21594527 0.30535218 0.18840744
-0.13245654 0.43588346 0.49083912 -0.33779836 -0.054771375 -0.1900332 0.51443356 -0.21484639
-0.23479003 0.25087935 0.6177432 -0.44626617 -0.19005851 0.4098302 -0.18713972 -0.3927299
0.5795869 0.057494413 -0.6390741 0.35921392 0.5663683 0.21227115 -0.35355276 0.021660792
0.11335807 0.36253816 -0.2673022 -0.44496113 -0.5169238 -0.25252357 0.3468573 -0.1971773
0.18406302 0.008992971 0.12778565 -0.15343422 -0.0418247 -0.1643167 0.04646173 0.16453868
-0.23879161 -0.14937346 0.17647812 -0.29583 -0.07605717 -0.041938275 0.084695905 -0.106842875
-0.5406957 -0.24080455 0.106668375 0.789142 1.8165182 -0.5961628 1.0276936 0.022336226
0.9213629 0.93344736 -0.10881687 -1.4912378 1.0325737 1.2930365 -0.36354968 0.6209281
0.09569908 0.33123744 0.34071237 -0.2987285 -0.369901 0.19052058 -0.31225732 -0.4142341
-0.055524487 -0.07600875 0.11561554 -0.023119489 0.07160398 -0.22397035 0.2375803 0.4073622
0.018129662 -0.54046094 -0.626566 -0.2875056 0.07185832 0.61186326 -0.5586889 0.096207805
0.22714804 -0.15193392 0.21566509 0.1921931 -0.5300358 -0.48617178 -0.2417191 0.2469603
00000000: 69eb 323f 250a 7a3e fedd 203f 054b 14bf
00000010: e141 2bbe dd46 94bd e116 3b3f 17e9 38bf
00000020: 95d8 383f de59 5e3f 16b6 21bf 9ecb 503d
00000030: 9aaa d23d 555f 1bbe 6c89 febe 77a6 acbe
00000040: be52 c83e c653 b83d e4e1 cf3c abc1 c0bd
00000050: 6bde b1bd 4caa d4be f4e9 1ebd 923e 60be
00000060: b0ba a73e 6dcb bdbd daf2 ce3e f467 bfbd
00000070: 81d3 3b3e 65a6 b1be f74b afbe d674 c53e
00000080: 3311 603f 81c3 5cbf 7645 cebf bdc1 bb3f
00000090: 21f6 fabf 2bea 6fbf a20c 8abd a755 1cc0
000000a0: 337b ca3e 5641 f83f 1919 e5bf 1c04 fe3e
000000b0: 8447 41be a6db 4ec0 5f40 78c0 56bb 2cc0
000000c0: 6dc8 b6bd ba30 313e 9320 04bf 6ef7 21be
000000d0: 760f 1dbf 7dd0 7ebe 7f10 1fbd 264e 17bf
000000e0: b8d2 1e3f 3bf9 033e 187a 123e 36ec fb3e
000000f0: ef30 263e 6697 2e3f d0da b9bc 524f 853d
00000100: cebe aebe 93a6 9dbe a141 83bd 7438 6c3e
00000110: 7b05 75be f3ed 053f c45a 7a3e 0ece 7fbb
00000120: 3a22 73be f415 a63e fdd2 84bd 4f0a d73e
00000130: f9d3 b1be fc0a d23e f1a2 b83e 9f4c a83e
00000140: 2061 30be 61e8 333e 65f8 a03e 1895 1a3f
00000150: 42b3 4cbe 95ba 213f f58b 57bf 220e d0be
00000160: d17c dfbe be00 7e3e 09af cc3e 2699 68be
00000170: 1639 523e 4a8c 59bf 8f98 23bf 0d22 4f3e
00000180: 9608 053e 14a1 c0be c67e b23e 9fc1 0abf
00000190: 4e6e babe 39ba 2a3d 4093 c63e 54f7 16bd
000001a0: e288 dd3e 115a 5f3e 2d7c f63e 3558 f0be
000001b0: bf90 b0be 57ff 84be a94d 40bd cbb5 4f3e
000001c0: 1ac6 0240 762a bf3f 40f4 55bf b640 673f
000001d0: 9332 c1be fce8 91be 83b2 0e40 2ab1 cb3e
000001e0: e4ea 58bf 814f 7cbf 260a 373f 1e3c 343f
000001f0: d777 bebe 17ab 0a40 cc91 b13f cead 24be
00000200: 68a3 9ebe f7a8 99be 8673 a13c 770a 36be
00000210: 3370 24bd 0001 40be c296 e2ba 1012 75bd
00000220: d0a0 b33e c930 9f3d 020f e03d e437 edbe
00000230: 4b60 913d d266 86be d358 983d a872 a5be
00000240: 9ef0 a83c 53e1 9ebe 5ac1 9bbd 9dcc 183d
00000250: dc1a c93e 0819 003e f083 843e 3702 b03e
00000260: 8181 273e f8e7 b83e 430f 28be 2a55 6dbd
00000270: cac2 1ebe c220 5d3e 1f57 9c3e e1ed 403e
00000280: b0a2 07be 1e2c df3e 444f fb3e e8f3 acbe
00000290: f357 60bd 1098 42be ebb1 033f b100 5cbe
000002a0: cc6c 70be 4273 803e 6b24 1e3f 007d e4be
000002b0: b39e 42be 44d5 d13e 8ea1 3fbe e513 c9be
000002c0: cf5f 143f 437f 6b3d 5c9a 23bf e3ea b73e
000002d0: 83fd 103f 9c5d 593e de04 b5be f971 b13c
000002e0: 4728 e83d 9a9e b93e d5db 88be f2d1 e3be
000002f0: 1e55 04bf c54a 81be 4897 b13e d9e8 49be
00000300: 047b 3c3e 4157 133c 3eda 023e dc1d 1dbe
00000310: 6050 2bbd a342 28be a84e 3e3d d47c 283e
00000320: ca85 74be 5bf5 18be aeb6 343e 0877 97be
00000330: ddc3 9bbd 78c7 2bbd 0c75 ad3d 70d0 dabd
00000340: 096b 0abf 7895 76be f374 da3d 3605 4a3f
00000350: ab83 e83f 209e 18bf 778b 833f 76fa b63c
00000360: 70de 6b3f 68f6 6e3f 61db debd e1e0 bebf
00000370: 602b 843f 3882 a53f 2f23 babe 25f5 1e3f
00000380: e1fd c33d f497 a93e da71 ae3e f1f2 98be
00000390: aa63 bdbe d417 433e 31e0 9fbe 7e16 d4be
000003a0: a56d 63bd 7aaa 9bbd d7c7 ec3d 1565 bdbc
000003b0: 1ca5 923d 7c58 65be 4048 733e c791 d03e
000003c0: a884 943c a65b 0abf a166 20bf ef33 93be
000003d0: 742a 933d 12a3 1c3f 3c06 0fbf 9908 c53d
000003e0: 7f99 683e 9194 1bbe 4fd7 5c3e 45ce 443e
000003f0: 6db0 07bf 82eb f8be 3685 77be 29e3 7c3e

271 f4 [16]
-0.2028785 0.13511187 4.806015 -0.0608881 -0.45142317 0.61341137 0.0631773 -2.9226882
0.6708735 -0.572904 -0.09827641 -0.053903908 0.45754623 -1.891285 0.14302312 0.782159
00000000: 62bf 4fbe c45a 0a3e e0ca 9940 cd65 79bd
00000010: f020 e7be 8708 1d3f 1a63 813d 530d 3bc0
00000020: 5ebe 2b3f d6a9 12bf 2445 c9bd 58ca 5cbd
00000030: 8043 ea3e a015 f2bf a774 123e 923b 483f

273 f4 [16, 1, 3, 3]
-1.15534 -1.3069311 -0.63640463 -2.2170627 0.20381422 0.342821 -1.8131925 -0.13602674
1.6597995 2.246712 -1.2717662 -1.2071781 -2.2766125 -1.6378738 -1.9764292 0.76678926
-1.4632304 -0.0020185374 0.31993145 0.053731676 -0.022113884 0.26377025 -0.32495964 -0.0074028727
-0.25075063 -0.5699583 0.22616826 2.1223805 -0.5633182 -3.4622746 -0.1906662 -3.0564272
0.25352362 1.8450643 -2.088719 5.8632746 -0.6553628 0.028360365 0.37313175 -0.74576724
-0.3795538 0.30448794 0.40486583 0.24331976 0.61887056 0.79235226 -1.2105529 -1.4242105
-1.343056 2.3252265 1.2196435 0.03987606 -0.25662917 -0.3350659 -0.90675414 -0.25402576
-0.13146593 -0.11860993 -1.7903695 -3.9140759 2.0778375 3.3347316 -1.066011 1.9006879
0.34716251 0.12127243 -0.74695385 2.0726366 2.4438984 0.19362976 1.8654959 2.1579716
0.27745044 -3.7465022 1.9395128 -1.2143929 -2.6785614 0.13439064 0.18643057 1.5374572
-1.7662661 -0.83535075 -0.5399897 -0.3557462 0.20905057 0.12238646 0.29735836 0.5826456
-0.30708435 0.48737976 0.947629 0.48575395 -0.29922074 -1.145281 2.9397044 0.0016348492
3.3721097 0.82579154 -0.83743745 0.07859518 -0.73603326 -0.25293484 0.40923554 -0.68045276
0.10164712 0.1984501 0.6803655 0.6600531 1.231166 -1.6390237 -0.9087321 1.4750897
0.1877533 1.4790043 -2.173496 -3.1330104 -1.3014338 0.5259309 -0.2643236 -0.10748464
-0.53717095 0.7386147 0.5976828 -0.5210639 -0.47933775 0.6804418 2.3419178 0.24430399
2.1295483 -3.9147222 2.2960515 1.5730093 -1.8546536 3.00679 -0.56451064 0.07856651
0.27075645 0.43470886 -0.47144607 0.28051725 0.5391377 -0.10445117 0.14626813 0.2008899
00000000: 2ee2 93bf 8549 a7bf 6aeb 22bf 5be4 0dc0
00000010: adb4 503e 3c86 af3e b116 e8bf 984a 0bbe
00000020: 4f74 d43f 21ca 0f40 3cc9 a2bf d084 9abf
00000030: 05b4 11c0 d9a5 d1bf a2fb fcbf 4d4c 443f
00000040: 224b bbbf 7049 04bb 0ece a33e bf15 5c3d
00000050: 2d28 b5bc e50c 873e 1c61 a6be cc93 f2bb
00000060: 6362 80be cae8 11bf a798 673e 15d5 0740
00000070: 9f35 10bf e895 5dc0 003e 43be 819c 43c0
00000080: d9cd 813e 112b ec3f 92ad 05c0 f29f bb40
00000090: dbc5 27bf ff53 e83c 200b bf3e 9aea 3ebf
000000a0: e054 c2be d8e5 9b3e 934a cf3e d128 793e
000000b0: 4d6e 1e3f 99d7 4a3f 66f3 9abf 884c b6bf
000000c0: 42e9 abbf 83d0 1440 471d 9c3f 1455 233d
000000d0: e664 83be c28d abbe 0a21 68bf aa0f 82be
000000e0: 019f 06be c3e9 f2bd d42a e5bf 3880 7ac0
000000f0: 4afb 0440 3e6c 5540 0c73 88bf be49 f33f
00000100: 49bf b13e ae5d f83d 5e38 3fbf 14a6 0440
00000110: d568 1c40 e146 463e 92c8 ee3f 351c 0a40
00000120: fc0d 8e3e b1c6 6fc0 f541 f83f 3a71 9bbf
00000130: 8d6d 2bc0 b39d 093e a8e7 3e3e 66cb c43f
00000140: 0215 e2bf 8cd9 55bf c43c 0abf 5e24 b6be
00000150: 5a11 563e c1a5 fa3d 5b3f 983e 4328 153f
00000160: 293a 9dbe d789 f93e d097 723f beb4 f83e
00000170: 7633 99be 9198 92bf 1e24 3c40 7048 d63a
00000180: a5d0 5740 1367 533f 4d62 56bf 82f6 a03d
00000190: ad6c 3cbf ad80 81be 5287 d13e 2732 2ebf
000001a0: 5e2c d03d 8136 4b3e 6f2c 2e3f 3df9 283f
000001b0: d996 9d3f 87cb d1bf aba2 68bf bdcf bc3f
000001c0: 6742 403e 0350 bd3f 8f1a 0bc0 3e83 48c0
000001d0: 6295 a6bf 68a3 063f 6c55 87be e820 dcbd
000001e0: 0984 09bf da15 3d3f bd01 193f 7264 05bf
000001f0: c26b f5be 6f31 2e3f fbe1 1540 d32a 7a3e
00000200: 854a 0840 cf8a 7ac0 82f2 1240 5e58 c93f
00000210: 4a65 edbf 3f6f 4040 c583 10bf 7ae7 a03d
00000220: 97a0 8a3e 2992 de3e 6161 f1be f59f 8f3e
00000230: ee04 0a3f 7fea d5bd 50c7 153e 15b6 4d3e

274 f4 [16]
1.943734 2.673787 -0.033329308 -0.3230972 0.06329959 0.12859248 1.1165997 -2.4161854
2.153463 0.035519004 -2.1495261 -0.07912729 1.9768881 -0.2570276 -1.8273671 -0.28349426
00000000: 47cc f83f 541f 2b40 5084 08bd ff6c a5be
00000010: 37a3 813d bfad 033e bdec 8e3f c8a2 1ac0
00000020: 56d2 0940 607c 113d d691 09c0 7d0d a2bd
00000030: ab0a fd3f 1f99 83be 2ae7 e9bf 2926 91be

276 f4 [8, 16, 1, 1]
-0.40154877 0.020226615 -0.0025950493 -0.2532153 0.603298 0.170444 -0.21156229 0.0032446894
0.15952206 0.5312086 -0.07831191 0.2438127 -0.23992564 -0.0972187 0.21475264 0.3480332
0.34181556 -0.27047163 -0.36018434 0.05454333 -0.44017544 -0.13589443 0.36247844 0.12978518
-0.001793394 -0.5237842 0.040790293 -0.34282905 -0.02513122 0.40940708 0.20817074 -0.19744864
0.37792787 -0.09529419 -0.28187415 0.070463866 -0.46606523 0.5091952 0.83055663 -0.26957747
0.13804981 -0.15037936 -0.034950446 0.23038234 -0.4414948 0.3625724 -0.40024465 -0.1329252
0.27120042 0.29733256 -0.0029270959 0.088189475 -0.072485365 0.3166855 0.3332061 -0.30791754
0.23682329 -0.2110023 -0.14894803 -0.4758478 0.024664693 0.15382826 0.12042432 0.1944178
-0.28108025 -0.6109311 -0.21523432 0.057596933 0.4668441 -0.14626867 0.08043805 -0.2206906
-0.22970651 -0.08056905 0.27150828 0.23891391 -0.29832587 0.29804164 0.1541799 -0.3468513
-0.21401724 -0.06482556 -0.010181723 -0.5886725 -0.27169394 0.4951288 0.090700604 -0.07451857
-0.12414507 -0.42846125 -0.28597653 0.6679326 0.7854756 -0.5408033 -0.34978384 0.09046241
-0.68362594 0.068889834 -0.045259647 0.14185393 -0.15786241 0.10886835 0.22340775 -0.34493265
0.05403149 0.23648615 0.46318284 -0.7251059 0.304502 -0.08142482 -0.49856135 0.6713979
0.12327051 -0.14927983 -0.00080502237 0.15720506 -0.46065944 0.31264412 -0.21581224 0.26933444
0.28673217 0.0958525 0.057816327 -0.17336193 -0.22385894 -0.23101835 0.28895888 -0.39680317
00000000: cd97 cdbe 49b2 a53c b411 2abb 70a5 81be
00000010: bd71 1a3f df88 2e3e c9a3 58be dba4 543b
00000020: c059 233e 49fd 073f ff61 a0bd 09aa 793e
00000030: 11af 75be 991a c7bd 1ee8 5b3e 6831 b23e
00000040: 7302 af3e 427b 8abe 156a b8be d468 5f3d
00000050: ad5e e1be e927 0bbe c696 b93e 68e6 043e
00000060: 5110 ebba b916 06bf b913 273d 4a87 afbe
00000070: fddf cdbc ce9d d13e b62a 553e fa2f 4abe
00000080: c37f c13e 9a29 c3bd cf51 90be 5c4f 903d
00000090: 1aa0 eebe 9e5a 023f 5c9f 543f 0f06 8abe
000000a0: ee5c 0d3e 0cfd 19be 3328 0fbd 59e9 6b3e
000000b0: 9b0b e2be 17a3 b93e deec ccbe 8b1d 08be
000000c0: c8da 8a3e f93b 983e 85d4 3fbb af9c b43d
000000d0: 3573 94bd 9a24 a23e fd99 aa3e 5ea7 9dbe
000000e0: ce81 723e fd10 58be d585 18be 53a2 f3be
000000f0: 9c0d ca3c 2885 1d3e 07a1 f63d 7615 473e
00000100: c0e9 8fbe fb65 1cbf 6366 5cbe c3ea 6b3d
00000110: 3106 ef3e 74c7 15be b4bc a43d b7fc 61be
00000120: 2f38 6bbe 6301 a5bd 2203 8b3e d9a5 743e
00000130: 2bbe 98be ea98 983e 56e1 1d3e 7e96 b1be
00000140: 5627 5bbe 43c3 84bd 3ed1 26bc 3eb3 16bf
00000150: 781b 8bbe 8681 fd3e 3dc1 b93d 319d 98bd
00000160: c53f febd 465f dbbe 846b 92be a2fd 2a3f
00000170: ee14 493f 1672 0abf de16 b3be 5b44 b93d
00000180: 1c02 2fbf 1d16 8d3d 2e62 39bd 2842 113e
00000190: afa6 21be 5ff6 de3d 00c5 643e 039b b0be
000001a0: 2050 5d3d 6d29 723e 4d26 ed3e 8aa0 39bf
000001b0: b0e7 9b3e 0ec2 a6bd 6f43 ffbe bce0 2b3f
000001c0: 4075 fc3d d0dc 18be 2308 53ba 5dfa 203e
000001d0: 8edb ebbe e412 a03e e2fd 5cbe 34e6 893e
000001e0: 8fce 923e 514e c43d d0d0 6c3d ca85 31be
000001f0: 473b 65be 1390 6cbe 6bf2 933e c929 cbbe

277 f4 [8]
-0.27519456 0.14897278 -0.00081528723 -0.3184411 0.37287417 0.12699643 0.12415357 0.10842751
00000000: 4de6 8cbe 528c 183e 00b9 55ba b60a a3be
00000010: 5de9 be3e 5a0b 023e 3a44 fe3d 3e0f de3d

279 f4 [16, 8, 1, 1]
-0.27731636 -0.33077297 -0.026187787 -0.43364105 0.21015842 0.5777841 0.24625695 -0.2806649
-0.6454476 -0.36382192 -0.638441 0.597892 -0.48648 -0.10547375 -0.16429451 0.39288652
0.15618473 0.4058922 0.29973537 0.26859543 -0.22929774 -0.07020517 0.16273205 -0.40394226
0.25860995 0.6793453 -0.15235806 -0.48689732 -0.019155765 0.29014465 0.23781042 0.46481165
0.053155195 0.085635185 0.19710033 0.4905049 -0.20070057 -0.08889032 -0.19534263 -0.41330847
0.09561004 0.24814308 -0.2591557 0.30972853 -0.37267503 -0.2989923 0.48452735 0.0333802
-0.23960647 0.17937261 -0.09028612 0.40447748 -0.39674187 0.122413434 0.276981 0.26261532
0.24109189 0.4063821 0.54573756 0.38655227 -0.22385563 -0.28857958 -0.19057657 -0.0094347345
0.08068956 -0.1091647 0.16145337 -0.020811081 -0.31829837 0.05999948 0.23976617 -0.40231454
0.43521494 0.46725228 0.7769072 0.13006067 0.32941392 0.29348496 -0.79252225 -0.25950432
0.47244117 -0.5228697 0.2996126 0.6178057 0.6561232 -0.47514248 0.40741652 0.316872
-0.1877127 0.075231306 0.45197415 0.08747301 -0.05723041 0.24665867 -0.5368659 0.1318602
-0.26621374 0.13562371 -0.20222154 -0.04643399 0.10142252 0.35348392 0.4089758 0.47870627
-0.27810878 -0.15552372 0.23601113 0.3881461 0.14378382 -0.077261046 0.47073892 0.23679362
0.05088153 0.41894943 -0.28209513 0.05222376 -0.43857324 0.4390803 -0.42410114 0.4466278
0.16941032 -0.2739206 0.28332478 -0.09608368 -0.32902247 0.4758492 -0.15828773 -0.051437173
00000000: 69fc 8dbe 135b a9be c587 d6bc 3306 debe
00000010: c533 573e a9e9 133f c82a 7c3e 4fb3 8fbe
00000020: 0e3c 25bf de46 babe df70 23bf 730f 193f
00000030: e813 f9be 9f02 d8bd d23c 28be 6c28 c93e
00000040: e4ee 1f3e 1ad1 cf3e ea76 993e 5785 893e
00000050: 07cd 6abe bac7 8fbd 3ba3 263e 85d1 cebe
00000060: 8668 843e 93e9 2d3f c003 1cbe 9b4a f9be
00000070: 8dec 9cbc d78d 943e 9384 733e cbfb ed3e
00000080: 43b9 593d 8061 af3d abd4 493e 7523 fb3e
00000090: 7384 4dbe 210c b6bd e607 48be 2b9d d3be
000000a0: 32cf c33d 3819 7e3e 0eb0 84be bd94 9e3e
000000b0: 43cf bebe 8515 99be f813 f83e adb9 083d
000000c0: 665b 75be 74ad 373e eee7 b8bd ac17 cf3e
000000d0: c021 cbbe e5b3 fa3d 74d0 8d3e 8475 863e
000000e0: cbe0 763e 5111 d03e 75b5 0b3f 2eea c53e
000000f0: 693a 65be b4c0 93be 8126 43be 2594 1abc
00000100: 9140 a53d be91 dfbd 0854 253e 007c aabc
00000110: 01f8 a2be 04c2 753d 4385 753e 2cfc cdbe
00000120: 7ed4 de3e b13b ef3e 64e3 463f a02e 053e
00000130: f1a8 a83e a943 963e bde2 4abf c0dd 84be
00000140: cfe3 f13e cada 05bf d366 993e 8428 1e3f
00000150: b1f7 273f e045 f3be e698 d03e 0c3d a23e
00000160: c237 40be df12 9a3d 2869 e73e 0d25 b33d
00000170: 6f6a 6abd 1794 7c3e 0b70 09bf 5c06 073e
00000180: 2b4d 88be f1e0 0a3e 2a13 4fbe 9131 3ebd
00000190: 9cb6 cf3d d8fb b43e 4765 d13e fd18 f53e
000001a0: 4664 8ebe 9c41 1fbe e7ac 713e 16bb c63e
000001b0: 113c 133e 0a3b 9ebd b104 f13e 077a 723e
000001c0: 2769 503d 8a80 d63e c66e 90be 95e8 553d
000001d0: ac8c e0be 22cf e03e c923 d9be 66ac e43e
000001e0: e679 2d3e 523f 8cbe f20f 913e 85c7 c4bd
000001f0: a275 a8be 82a2 f33e 2e16 22be c9af 52bd

280 f4 [16]
-0.07258496 -0.06589549 -0.06916513 -0.09361686 -0.060213268 0.1344725 0.19849582 -0.013380172
0.12268306 -0.0519676 -0.01238079 -0.28354755 -0.15512903 0.20673099 -0.15057729 0.095938146
00000000: 6ca7 94bd 37f4 86bd 73a6 8dbd 32ba bfbd
00000010: 30a2 76bd 29b3 093e 7d42 4b3e 8238 5bbc
00000020: 4241 fb3d fadb 54bd ccd8 4abc 252d 91be
00000030: 25da 1ebe 4ab1 533e ef30 1abe 387b c43d

282 f4 [16, 1, 3, 3]
0.17950895 0.34254184 -0.19397104 0.7566642 0.312956 0.31834903 0.56756043 -0.4144615
-0.15581948 0.5941581 0.74188924 -0.3247508 0.6674264 -0.15387225 -0.45979393 -0.05340692
-0.6599089 -0.5028143 0.26601684 0.05047592 -0.12997438 0.1484082 -0.023896277 0.35691172
0.08405609 0.61617535 0.13591704 -0.9919283 -1.6196195 -1.9484143 -0.8605451 0.15487261
0.41328347 -0.20221944 0.060540035 -0.25100368 0.12842746 0.505527 -0.15064944 -0.65177935
-0.7368623 -0.69145066 0.57334065 -0.30717784 0.2866682 -0.2133949 0.2858165 -0.079045005
0.024679795 0.8663307 0.5891977 0.077776894 0.11290436 -0.02417052 -0.027997546 0.0031016807
-0.07016085 0.22751673 0.39129195 0.107245535 0.33774355 0.55928564 0.3952138 0.1555641
0.6927316 -0.08296272 -0.56218433 -0.04717925 -0.28225538 -0.4615145 0.2583483 -0.41854542
-0.784576 -0.42122987 0.9814605 -0.782816 0.5743075 0.14917436 0.0923868 -0.021165423
0.048198614 -0.43878925 -0.11546757 0.05957991 0.35721332 -0.40508142 0.40158534 0.38158926
-0.8168035 0.3653224 0.2078542 -0.6184912 -0.26045385 -0.3801357 -0.12630066 -0.00350479
-0.48246452 0.2570955 -0.50970006 0.19384392 0.4489124 0.17091605 0.47761956 0.31126288
0.3115848 0.45821992 0.5321992 0.21530505 -1.0302877 1.0075972 -0.11864727 0.024074875
-1.8605356 0.9424993 1.0472252 0.4576949 2.4049578 0.29709235 0.19527592 0.33742076
0.2609534 0.55136615 0.5815771 0.3440462 -0.14803484 0.06262527 -0.25710225 0.080071434
0.4284157 0.6207544 0.9168073 0.08737028 0.31793708 0.6826741 0.6252404 0.23840483
0.04280553 0.07259026 0.24574772 0.39952177 0.20997119 0.16163443 0.20564982 -0.01218971
00000000: 32d1 373e a561 af3e 58a0 46be bfb4 413f
00000010: c53b a03e a5fe a23e a44b 113f 4c34 d4be
00000020: 248f 1fbe bf1a 183f 74ec 3d3f bd45 a6be
00000030: 75dc 2a3f b090 1dbe 1c6a ebbe 37c1 5abd
00000040: caef 28bf 70b8 00bf 5c33 883e d7bf 4e3d
00000050: 0118 05be 52f8 173e 20c2 c3bc 22bd b63e
00000060: 9925 ac3d abbd 1d3f d62d 0b3e 03ef 7dbf
00000070: b14f cfbf a465 f9bf af4c 5cbf ed96 1e3e
00000080: e499 d33e 9d12 4fbe d4f8 773d 8e83 80be
00000090: 7d82 033e 386a 013f d943 1abe 03db 26bf
000000a0: 02a3 3cbf e902 31bf 74c6 123f 6a46 9dbe
000000b0: 2dc6 923e 3184 5abe 8a56 923e 59e2 a1bd
000000c0: 482d ca3c d9c7 5d3f a9d5 163f 7e49 9f3d
000000d0: 673a e73d 4101 c6bc 1c5b e5bc 9145 4b3b
000000e0: 7eb0 8fbd 25fa 683e 6b57 c83e 8ca3 db3d
000000f0: b9ec ac3e 582d 0f3f 7759 ca3e 324c 1f3e
00000100: dc56 313f 5ce8 a9bd 50eb 0fbf 073f 41bd
00000110: c783 90be a14b ecbe 3a46 843e 964b d6be
00000120: f9d9 48bf 71ab d7be ff40 7b3f a166 48bf
00000130: d105 133f 2ac1 183e 4a35 bd3d 1c63 adbc
00000140: e96b 453d fca8 e0be 437a ecbd 100a 743d
00000150: aae4 b63e d566 cfbe 989c cd3e ab5f c33e
00000160: 091a 51bf 8a0b bb3e bbd7 543e 7055 1ebf
00000170: 355a 85be 25a1 c2be f654 01be 9eb0 65bb
00000180: 9705 f7be 05a2 833e b47b 02bf 057f 463e
00000190: d9d7 e53e 9e04 2f3e 8d8a f43e d95d 9f3e
000001a0: 0b88 9f3e cd9b ea3e 353e 083f ed78 5c3e
000001b0: 78e0 83bf f2f8 803f 57fd f2bd ac38 c53c
000001c0: 0826 eebf a247 713f 7a0b 863f fc56 ea3e
000001d0: d4ea 1940 7d1c 983e 69f6 473e 6ac2 ac3e
000001e0: af9b 853e 5526 0d3f 3de2 143f d326 b03e
000001f0: 7296 17be ad41 803d e8a2 83be 7efc a33d
00000200: 4d59 db3e c3e9 1e3f e2b3 6a3f 30ef b23d
00000210: a6c8 a23e bbc3 2e3f c10f 203f 6520 743e
00000220: da54 2f3d 34aa 943d 4aa5 7b3e 1e8e cc3e
00000230: b002 573e 7f83 253e de95 523e 59b7 47bc

283 f4 [16]
-0.020756215 0.14139932 -0.5457172 1.7872083 0.37990433 -0.32292557 -0.395373 0.1942337
-0.05018802 -0.031773373 0.5041191 -0.3728956 -0.7395601 -0.68909836 -0.47431886 -0.1684744
00000000: f008 aabc fcca 103e 1fb4 0bbf 3ec3 e43f
00000010: d282 c23e 8056 a5be 546e cabe 33e5 463e
00000020: f491 4dbd cc24 02bd f30d 013f 2cec bebe
00000030: d053 3dbf c068 30bf ecd9 f2be 8e84 2cbe

285 f4 [12, 16, 1, 1]
-0.25560504 -0.3474595 -0.025096798 -0.34033433 -0.3039102 0.20203222 0.14352524 -0.27642903
-0.008481209 -0.16699246 -0.1878223 -0.18545699 0.20627406 -0.43791062 0.1236149 -0.24592544
0.3485507 0.30316508 -0.4360346 0.43471166 -0.361536 0.6031976 0.07751087 0.43403593
0.26928523 0.16950487 -0.27821416 -0.25837454 0.4854665 0.2905606 0.029464375 -0.4289841
-0.18305875 -0.08150844 -0.09921682 0.37378785 -0.17662403 0.005354832 0.21678731 0.48446798
-0.12337632 0.27623996 -0.06325191 0.48166227 0.38051724 0.29726347 -0.0023826037 0.17792481
-0.2914405 0.38374436 -0.028617425 0.013647575 0.053099655 0.33076993 0.5865339 -0.12799025
0.13270696 0.049443852 0.71598643 0.055771213 0.2857543 0.24069867 0.12595406 -0.16159114
-0.04753474 -0.014144306 -0.25858518 0.53400886 0.2763157 -0.3554088 -0.2531423 -0.08376104
-0.80673116 -0.1842345 -0.061097197 -0.3970794 0.42130134 -0.24332367 -0.28671268 0.43286163
0.15150459 -0.23378722 0.10391372 0.4850856 -0.14893317 -0.13184673 -0.54963833 -0.3055945
0.439736 -0.05877202 -0.35642797 -0.687114 0.20726888 0.14412665 -0.023385338 -0.4058243
0.16903743 -0.009403902 0.23718375 -0.033855632 0.2202085 -0.21809886 0.3992167 -0.012753196
-0.00404107 0.12267005 0.11492462 0.03788806 -0.008896832 0.16170686 0.16029367 0.48083368
-0.2904309 0.020543717 -0.07571823 -0.22568977 0.08150747 -0.08353647 -0.16944695 -0.058671586
-0.33604208 -0.109772585 0.39221376 0.17654447 0.27525675 -0.20669243 0.43387088 -0.3441522
-0.07965409 -0.18245512 0.482252 0.05512656 0.38806507 0.13222817 -0.18310112 0.123042345
0.03739022 -0.16144824 -0.20701373 -0.19126366 -0.27210242 0.29859945 0.15406078 0.44693136
-0.07323588 -0.1859436 0.4231956 0.22051655 -0.09055921 0.18845508 0.27517694 -0.24258646
-0.24738228 -0.0025799542 0.34114566 0.2090643 -0.16621354 0.3307784 -0.52314764 -0.08275693
0.0061001885 0.070806086 0.0012097183 -0.23278433 0.1618417 -0.14914525 0.27582243 -0.5119917
0.010843166 0.16768508 0.12921394 0.47527355 0.58290136 0.21073964 0.2396005 -0.27459314
-0.23536573 0.42782062 0.15115672 -0.22545597 0.07191429 -0.20642367 0.44636366 -0.3138488
-0.12567785 -0.07976876 0.37649074 0.35153162 0.37738767 0.19830482 -0.069611974 -0.2376952
00000000: aade 82be 36e6 b1be cd97 cdbc 4d40 aebe
00000010: 1e9a 9bbe 89e1 4e3e 48f8 123e 1b88 8dbe
00000020: c5f4 0abc 1200 2bbe 7d54 40be 70e8 3dbe
00000030: 8239 533e d235 e0be cf29 fd3d e1d3 7bbe
00000040: 3d75 b23e 7438 9b3e ed3f dfbe 8792 de3e
00000050: 3f1b b9be 286b 1a3f 05be 9e3d f539 de3e
00000060: c1df 893e af92 2d3e 1672 8ebe ab49 84be
00000070: 118f f83e 5cc4 943e 465f f13c cea3 dbbe
00000080: c173 3bbe e6ed a6bd 3032 cbbd 1f61 bf3e
00000090: eedc 34be 9677 af3b 7efd 5d3e 300c f83e
000000a0: b9ac fcbd 536f 8d3e 388a 81bd 709c f63e
000000b0: 28d3 c23e eb32 983e 7525 1cbb ec31 363e
000000c0: b037 95be 247a c43e 176f eabc 149a 5f3c
000000d0: 067f 593d ad5a a93e 1627 163f e00f 03be
000000e0: 55e4 073e a385 4a3d e34a 373f 5b70 643d
000000f0: 634e 923e b679 763e 1afa 003e 2678 25be
00000100: cab3 42bd 85bd 67bc 4765 84be ceb4 083f
00000110: 4079 8d3e 24f8 b5be de9b 81be e88a abbd
00000120: ef85 4ebf f8a7 3cbe 0e41 7abd fe4d cbbe
00000130: cfb4 d73e d729 79be 01cc 92be 0aa0 dd3e
00000140: 0524 1b3e eb65 6fbe b7d0 d43d 245d f83e
00000150: f081 18be d402 07be 19b5 0cbf e276 9cbe
00000160: 1425 e13e eeba 70bd ba7d b6be b4e6 2fbf
00000170: 4b3e 543e f095 133e 9c92 bfbc 34c8 cfbe
00000180: 2618 2d3e d312 1abc 4ce0 723e 34ac 0abd
00000190: 567e 613e 4f55 5fbe 2266 cc3e c8f2 50bc
000001a0: f46a 84bb 6f3a fb3d 995d eb3d 8330 1b3d
000001b0: 05c4 11bc 7c96 253e 0624 243e d52f f63e
000001c0: 5cb3 94be 4c4b a83c 2912 9bbd 381b 67be
000001d0: 63ed a63d 2b15 abbd 8083 2dbe 9e51 70bd
000001e0: b50d acbe 73d0 e0bd 3ed0 c83e 13c8 343e
000001f0: 74ee 8c3e 2ea7 53be 5324 de3e b834 b0be
00000200: af21 a3bd 84d5 3abe bce9 f63e 63cc 613d
00000210: 77b0 c63e d266 073e dc7e 3bbe a0fd fb3d
00000220: 7d26 193d b052 25be 68fb 53be 9fda 43be
00000230: 0251 8bbe 07e2 983e 1cc2 1d3e 30d4 e43e
00000240: b1fc 95bd 0068 3ebe 18ad d83e 17cf 613e
00000250: 1b77 b9bd 5efa 403e fee3 8c3e 9668 78be
00000260: c851 7dbe 7314 29bb a5aa ae3e f414 563e
00000270: e233 2abe c95b a93e 01ed 05bf 777c a9bd
00000280: 17e4 c73b c802 913d 698f 9e3a 045f 6ebe
00000290: d5b9 253e 88b9 18be 9938 8d3e e311 03bf
000002a0: 89a7 313c a3b5 2b3e a950 043e 0e57 f33e
000002b0: 0639 153f 22cc 573e d559 753e 7997 8cbe
000002c0: b703 71be 4e0b db3e d4c8 1a3e eedd 66be
000002d0: cd47 933d ba60 53be c789 e43e cab0 a0be
000002e0: b2b1 00be ce5d a3bd 65c3 c03e f4fb b33e
000002f0: f538 c13e 6b10 4b3e b990 8ebd 5f66 73be

286 f4 [12]
0.76483184 -0.41316402 -0.7169518 -0.8313425 0.22481814 0.4688006 -0.6943084 0.17992441
-0.3806271 -0.29295093 -0.32495403 -0.31960317
00000000: 05cc 433f 3c8a d3be 278a 37bf ddd2 54bf
00000010: ba36 663e a206 f03e 32be 31bf 1b3e 383e
00000020: 8ee1 c2be aafd 95be 6060 a6be 07a3 a3be

288 f4 [24, 12, 1, 1]
-0.14826077 0.34560776 -0.1525509 -0.10027585 -0.06669764 0.3521248 -0.24336034 -0.15499647
-0.23183855 0.12623636 -0.1878556 0.08781574 0.16277057 -0.15932386 -0.06598322 -0.27370474
-0.00698598 -0.008230337 0.10489804 -0.28820202 0.35552955 0.39167863 -0.28965017 0.056568995
-0.16408752 0.12668036 -0.06438345 0.13431023 0.03448508 -0.4067689 0.13630992 -0.035073157
0.09996998 0.31903124 0.34670398 0.0033759763 -0.12962781 -0.42145222 -0.08421467 -0.1462195
-0.15144138 -0.3461921 0.28275457 0.6012231 -0.08642399 -0.005750753 -0.029557526 -0.25194457
-0.15226124 0.11809831 -0.036305856 0.2017821 0.038238112 -0.020428335 0.10885654 -0.21496676
0.09337393 0.26451787 0.13987014 -0.1296622 0.27651092 0.20845197 0.06568024 0.12323057
-0.21241443 -0.7404661 0.32122353 -0.06520322 -0.31974843 -0.15634812 -0.13900067 0.23838548
0.2397281 -0.0048393016 0.48469257 0.38508213 0.029364605 0.12585138 0.24696662 -0.03291061
0.06794871 0.21232559 0.20374726 -0.07464283 -0.41060582 -0.12520549 0.15200493 -0.20190161
0.4102892 0.15346777 0.14461079 -0.20858774 -0.2903338 -0.27498963 -0.04887187 -0.33431846
0.15777974 -0.30476978 0.42715412 -0.24190104 0.27303648 -0.34651163 0.40819228 -0.16873373
-0.30347553 0.8171434 -0.306284 0.29989597 -0.091991186 -0.8082027 0.38697252 -0.13583907
-0.06674359 0.4830519 0.16299845 0.3774074 0.68468255 0.1572162 0.5124103 0.40176535
-0.005181139 0.060714025 0.20336282 -0.26062182 -0.089060925 0.16094472 -0.12693243 -0.54172534
0.07295809 0.35317197 0.10144199 -0.3270193 0.37633315 -0.09743398 0.006397427 -0.059011668
-0.48348626 0.19628233 -0.32743803 -0.35498908 -0.29807302 -0.22403622 -0.06304546 -0.3595225
0.006812683 -0.35664612 -0.16162142 -0.281066 0.24407406 0.39002296 0.07836489 0.2806123
-0.2649533 0.1954413 -0.13305224 -0.0016737687 -0.11223691 -0.306251 -0.29818228 0.19589058
0.031867575 -0.14729238 0.09435194 -0.22348075 0.16700765 0.20618428 -0.08677898 -0.10450947
0.15666309 0.32781824 0.30381784 0.31319806 0.0026629805 0.17740448 -0.32536456 -0.023243217
0.23468801 -0.09615203 0.1997361 0.28577435 -0.20721754 0.16661733 0.021173676 -0.20947137
0.2895776 0.12409843 0.26837933 -0.22333385 0.25233218 -0.16001102 0.07916838 -0.41991454
-0.04737413 0.42074645 0.34673244 -0.12771824 0.055270467 0.14537133 -0.26776698 -0.21280774
-0.00963506 0.46771923 0.04039997 0.1244019 0.29315895 0.19444384 0.21266557 0.19360688
0.75903213 -0.46729523 0.109011516 0.37642074 -0.029912876 0.08731379 -0.12408628 -0.3642445
-0.38697177 -0.13578764 -0.07450617 0.016032355 0.37483802 -0.35095042 0.38967267 -0.49906206
-0.22862993 0.27299896 -0.1114761 0.29539824 -0.06998599 -0.45342043 0.009100957 -0.0038523914
0.042511158 -0.26898468 0.1332129 -0.50389475 -0.14285137 -0.28596008 0.01395882 -0.06757715
0.39078718 0.09349997 -0.34899414 0.37372646 -0.1427756 0.13672115 0.12108957 0.00018635267
0.122566976 0.5092665 -0.3188291 0.2774585 -0.05586809 -0.27975067 0.22603047 -0.43855402
00000000: acd1 17be 80f3 b03e 4e36 1cbe 6d5d cdbd
00000010: c698 88bd b449 b43e 7433 79be 65b7 1ebe
00000020: 1667 6dbe 1b44 013e 385d 40be bdd8 b33d
00000030: 54ad 263e cb25 23be 3622 87bd 0723 8cbe
00000040: a6ea e4bb 89d8 06bc c9d4 d63d 378f 93be
00000050: f807 b63e 1a8a c83e 074d 94be e4b4 673d
00000060: 8f06 28be 7fb8 013e 78db 83bd 9f88 093e
00000070: 3a40 0d3d 0344 d0be d494 0b3e dfa8 0fbd
00000080: 10bd cc3d 1058 a33e 2f83 b13e 7c3f 5d3b
00000090: 27bd 04be 96c8 d7be be78 acbd 91ba 15be
000000a0: 7313 1bbe 1740 b1be 35c5 903e c2e9 193f
000000b0: 10ff b0bd d070 bcbb a022 f2bc e1fe 80be
000000c0: 5fea 1bbe 87dd f13d 73b5 14bd f89f 4e3e
000000d0: 919f 1c3d 5359 a7bc 2df0 de3d 3f20 5cbe
000000e0: d53a bf3d e36e 873e 1e3a 0f3e 2bc6 04be
000000f0: d792 8d3e 6f74 553e 5d83 863d 4f60 fc3d
00000100: 2b83 59be 308f 3dbf 6977 a43e 4489 85bd
00000110: 11b6 a3be b919 20be 3156 0ebe 531b 743e
00000120: 487b 753e 0193 9ebb a029 f83e 7c29 c53e
00000130: 0a8e f03c 2fdf 003e d1e4 7c3e 47cd 06bd
00000140: b128 8b3d e16b 593e 1fa3 503e 57de 98bd
00000150: ed3a d2be de35 00be 2ea7 1b3e 4cbf 4ebe
00000160: 6d11 d23e a826 1d3e da14 143e 0698 55be
00000170: a2a6 94be 71cb 8cbe df2d 48bd ca2b abbe
00000180: 0391 213e c90a 9cbe f2b3 da3e e8b4 77be
00000190: 70cb 8b3e f969 b1be 94fe d03e 89c8 2cbe
000001a0: 2561 9bbe 4f30 513f 42d1 9cbe f78b 993e
000001b0: e065 bcbd 5fe6 4ebf 4321 c63e 6619 0bbe
000001c0: ddb0 88bd 9452 f73e 11e9 263e 8b3b c13e
000001d0: 5b47 2f3f 49fd 203e 522d 033f 30b4 cd3e
000001e0: 8bc6 a9bb 45af 783d 583e 503e 3970 85be
000001f0: 9365 b6bd b1ce 243e 93fa 01be 83ae 0abf
00000200: 0d6b 953d f5d2 b43e d1c0 cf3d 136f a7be
00000210: bdae c03e 778b c7bd 82a1 d13b 38b6 71bd
00000220: 838b f7be 3cfe 483e f5a5 a7be 21c1 b5be
00000230: 079d 98be c069 65be fa1d 81bd 5513 b8be
00000240: ed3c df3b 529a b6be 1680 25be e2e7 8fbe
00000250: 8dee 793e 17b1 c73e c57d a03d 6aac 8f3e
00000260: f5a7 87be c421 483e d93e 08be 5c62 dbba
00000270: 77dc e5bd eecc 9cbe 59ab 98be 8a97 483e
00000280: 9387 023d d0d3 16be 973b c13d 23d8 64be
00000290: 0e04 2b3e f921 533e 2eb9 b1bd 1009 d6bd
000002a0: 4a6c 203e cbd7 a73e 038e 9b3e 7f5b a03e
000002b0: 6685 2e3b 85a9 353e 2f96 a6be 8f68 bebc
000002c0: 0e52 703e 5beb c4bd 9f87 4c3e 0451 923e
000002d0: d630 54be bc9d 2a3e 6b74 ad3c aa7f 56be
000002e0: 8443 943e 5127 fe3d 0469 893e a1b1 64be
000002f0: af31 813e eed9 23be 0823 a23d 0aff d6be
00000300: 600b 42bd 146c d73e ea86 b13e 92c8 02be
00000310: 4963 623d 39dc 143e c118 89be 46ea 59be
00000320: 5fdc 1dbc e578 ef3e 707a 253d 6cc6 fe3d
00000330: ee18 963e 491c 473e 01c5 593e e240 463e
00000340: ee4f 423f 5241 efbe 6e41 df3d 38ba c03e
00000350: d90b f5bc 93d1 b23d f320 febd 417e babe
00000360: 2a21 c6be ea0b 0bbe b196 98bd 4956 833c
00000370: c5ea bf3e c6af b3be 2d83 c73e 1085 ffbe
00000380: f71d 6abe 85c6 8b3e 954d e4bd 703e 973e
00000390: d154 8fbd b926 e8be 2e1c 153c 6778 7cbb
000003a0: 2e20 2e3d 5cb8 89be f668 083e 3fff 00bf
000003b0: a147 12be 5c69 92be 89b3 643c e465 8abd
000003c0: 4215 c83e ea7c bf3d 5caf b2be 1359 bf3e
000003d0: c433 12be a100 0c3e cffd f73d aa67 4339
000003e0: 6504 fb3d 4a5f 023f 913d a3be 0a0f 8e3e
000003f0: f0d5 64bd 7b3b 8fbe 8874 673e 278a e0be

289 f4 [24]
0.12500298 0.06917763 0.057038587 0.100436985 0.22496827 0.034043584 0.046700593 0.13820106
0.15992819 0.022765433 -0.053138286 0.03484781 -0.00090808794 0.26284727 -0.051179033 0.09953358
0.060067922 -0.143372 0.060894866 0.21482709 -0.06288896 0.18213728 0.06357887 -0.106237516
00000000: c800 003e 00ad 8d3d 4ba1 693d e8b1 cd3d
00000010: 155e 663e 4971 0b3d 1f49 3f3d 9484 0d3e
00000020: 37c4 233e 937e ba3c 88a7 59bd 94bc 0e3d
00000030: c00c 6eba eb93 863e 1ba1 51bd 43d8 cb3d
00000040: c809 763d 1cd0 12be e56c 793d a2fb 5b3e
00000050: edcb 80bd 3282 3a3e a335 823d 0e93 d9bd

291 f4 [24, 1, 3, 3]
-1.261476 -0.2105438 -0.2929472 -0.66244394 -0.4172338 1.1081837 0.9412908 -0.10631647
0.013730315 -0.19594087 -0.7122063 0.7810834 0.6514018 -0.44165635 0.41297013 0.94288707
-0.7107465 0.1761761 -0.3540156 0.37780482 -0.5817343 0.64393866 -0.22161983 -0.41837168
0.41773555 -0.2550646 -0.5449838 0.6281717 0.9097321 0.15970422 -0.28388974 0.44443434
0.03908979 0.5380022 0.35478878 0.16296217 0.3797066 0.36558577 0.66122574 -0.76299787
-0.84088945 -0.8603847 0.64660305 0.652987 0.7260381 -0.71185493 -0.9219986 -0.33287808
0.6341135 0.040706947 -0.2740102 -0.18579307 0.2578989 0.1859291 -0.6902653 -0.3390448
-0.21334484 -0.16379234 0.75845516 -0.28698647 0.25358438 0.05607315 -0.85119146 -0.009933104
-1.2331125 0.5178498 0.050745443 -0.8631477 -0.11568609 -0.6920449 -0.47539386 0.025024125
-0.49902633 -0.3102631 -0.24391879 -0.11821803 0.17279103 -0.03695651 0.5322694 -0.31751648
0.36199975 -0.47193408 -0.27372023 -0.20310596 -0.29775497 -0.26379696 0.069123745 0.8494387
-0.1315125 -0.30665845 0.56931955 -0.55050975 0.38473868 0.1801504 0.3476328 0.68448037
0.5205727 -0.1611901 -0.57050544 -0.14371493 0.3307123 0.60719794 -0.9210101 -0.30823424
0.3112626 -0.9270765 -0.41843197 -1.3826461 -1.3837296 0.74397546 0.053795636 -1.2324029
-0.12984632 0.53305197 -0.23704362 0.12248314 1.6640912 0.0119870175 -0.87420887 0.024738984
-1.0388719 -0.22318643 1.1576537 0.6937891 -0.715262 -1.0685328 0.019614339 -0.10069314
0.41599405 -0.572843 -0.52259344 0.39180735 -0.7541668 -0.672508 0.02955799 0.5958829
0.28413358 0.3555365 -0.4398669 -0.19807354 0.17191191 -0.16137354 -0.5181566 -0.39484006
-0.5751702 -0.42712292 0.06455727 -0.20553759 -0.28447717 -0.14018829 0.27002907 -0.32544333
-0.35271916 0.6588162 -0.21593826 0.6665031 -0.10791784 -0.03549081 -0.65060973 -0.9042537
-0.48946515 -0.7295541 0.19265802 0.32365733 0.4839814 -0.075960524 0.20625845 0.050491072
0.2577519 -0.2609685 -0.04338311 0.36924082 -0.93060774 0.43172643 0.65509874 0.29084617
-0.25864065 -0.9957763 0.27539542 -0.6719838 -0.052049227 0.49707392 0.67577386 0.8148902
0.12029402 0.30142626 0.114037275 -0.015228349 -0.30633056 0.1473885 -0.34538403 -0.4129888
-0.62579864 -0.089508764 0.5647721 0.4532216 0.4611229 -0.029374795 0.18740638 0.3076958
0.28781575 -0.06294138 0.016231881 0.38578412 0.20838839 0.22491997 0.27740496 0.097915575
0.22803998 -0.099389136 -0.32578066 -0.23871027 -0.10317459 -0.22796026 0.49471048 0.8220412
00000000: 0c78 a1bf cb98 57be 2dfd 95be ed95 29bf
00000010: ab9f d5be f7d8 8d3f 6ff8 703f 73bc d9bd
00000020: 1df5 603c b9a4 48be 2753 36bf 15f5 473f
00000030: 45c2 263f c820 e2be d270 d33e 0c61 713f
00000040: 7cf3 35bf 8267 343e 8841 b5be a26f c13e
00000050: 8aec 14bf 2ad9 243f 4ff0 62be d034 d6be
00000060: 6fe1 d53e d497 82be 0f84 0bbf dccf 203f
00000070: 34e4 683f 8189 233e ff59 91be e68c e33e
00000080: 9e1c 203d 83ba 093f e0a6 b53e 8edf 263e
00000090: e768 c23e 0f2e bb3e 1746 293f d453 43bf
000000a0: 8844 57bf 2c42 5cbf c787 253f 282a 273f
000000b0: a2dd 393f 203c 36bf 1a08 6cbf ff6e aabe
000000c0: 4355 223f 54bc 263d 114b 8cbe 8a40 3ebe
000000d0: 530b 843e 3364 3e3e 3ab5 30bf 4897 adbe
000000e0: 1277 5abe 2eb9 27be 1e2a 423f e4ef 92be
000000f0: d0d5 813e f6ac 653d afe7 59bf 75be 22bc
00000100: a1d6 9dbf ce91 043f 74da 4f3d 3ff7 5cbf
00000110: d4ec ecbd db29 31bf d366 f3be 65ff cc3c
00000120: 6180 ffbe ceda 9ebe d9c5 79be 4b1c f2bd
00000130: 22f0 303e b65f 17bd cf42 083f 8591 a2be
00000140: 0858 b93e 58a1 f1be 0f25 8cbe 02fb 4fbe
00000150: 5773 98be 6510 87be c090 8d3d d174 593f
00000160: 36ab 06be 5602 9dbe edbe 113f 35ee 0cbf
00000170: 78fc c43e 5979 383e edfc b13e 1b3a 2f3f
00000180: 4144 053f 040f 25be a50c 12bf 022a 13be
00000190: 1f53 a93e 5371 1b3f 51c7 6bbf e1d0 9dbe
000001a0: d05d 9f3e e354 6dbf b73c d6be 8cfa b0bf
000001b0: 0d1e b1bf 2d75 3e3f d058 5c3d 61bf 9dbf
000001c0: 6ff6 04be 1876 083f 90bb 72be 71d8 fa3d
000001d0: f100 d53f 3265 443c 27cc 5fbf 69a9 ca3c
000001e0: c1f9 84bf fc8a 64be ff2d 943f 2a9c 313f
000001f0: 691b 37bf afc5 88bf 40ae a03c 3438 cebd
00000200: 2cfd d43e d7a5 12bf afc8 05bf f99a c83e
00000210: 1311 41bf 7c29 2cbf 9923 f23c c88b 183f
00000220: f579 913e e108 b63e 3c36 e1be cad3 4abe
00000230: ad09 303e 1b3f 25be e9a5 04bf 7a28 cabe
00000240: 5b3e 13bf dbaf dabe 9a36 843d 7278 52be
00000250: fea6 91be 858d 0fbe 4041 8a3e 82a0 a6be
00000260: 9b97 b4be 2ea8 283f eb1e 5dbe f29f 2a3f
00000270: 0704 ddbd d05e 11bd 5c8e 26bf 2c7d 67bf
00000280: 2d9b fabe 0fc4 3abf 2548 453e 6ab6 a53e
00000290: 69cc f73e 3191 9bbd 6a35 533e bacf 4e3d
000002a0: 0ff8 833e aa9d 85be 7db2 31bd 220d bd3e
000002b0: 4f3c 6ebf 3f0b dd3e 8db4 273f cae9 943e
000002c0: 8c6c 84be 32eb 7ebf a100 8d3e 2107 2cbf
000002d0: 9231 55bd 7980 fe3e 84ff 2c3f a59c 503f
000002e0: b65c f63d 8b54 9a3e 608c e93d 5380 79bc
000002f0: 5cd7 9cbe 03ed 163e 2dd6 b0be 4573 d3be
00000300: 5734 20bf 5f50 b7bd e894 103f a90c e83e
00000310: 4d18 ec3e 69a3 f0bc 75e7 3f3e 4e8a 9d3e
00000320: 965c 933e 69e7 80bd b9f8 843c 7f85 c53e
00000330: c463 553e 6c51 663e 0608 8e3e f687 c83d
00000340: 5083 693e 888c cbbd b9cc a6be 7770 74be
00000350: 334d d3bd 6a6e 69be b14a fd3e 4b71 523f

292 f4 [24]
0.3219129 -0.5291464 0.33795112 -1.1062678 -0.26660067 0.43531388 0.44647622 1.0909076
0.15338124 0.103519246 -0.62958556 0.94803303 0.014246572 0.65121514 0.8509555 -0.029432464
0.79960644 0.5292417 -0.4368574 0.3379216 -0.46074533 0.03095574 -0.6046431 -0.2213186
00000000: c5d1 a43e 2376 07bf ee07 ad3e 2f9a 8dbf
00000010: e27f 88be 76e1 de3e 8898 e43e dca2 8b3f
00000020: f90f 1d3e e601 d43d 852c 21bf 4bb2 723f
00000030: 746a 693c 09b6 263f 38d8 593f 5a1c f1bc
00000040: 02b3 4c3f 627c 073f c6ab dfbe 0f04 ad3e
00000050: d0e6 ebbe e496 fd3c e4c9 1abf 58a1 62be
