mnist/model.pth (torch, 129425 bytes, 158 tensors)

pre.0.weight f4 [16, 1, 1, 1]
00000000: 198c 56bf 980c bebe bf31 c7be 917e 3d3f
00000010: 094d 8a3e aeb3 743e c975 f9be 5978 663f
00000020: df3b 94be 1267 5f3f 5ad5 d3bd 03b2 9f3e
00000030: d45d f7be 09ae 79bf 1339 6dbf d100 16be
-0.8380752 -0.37118983 -0.3890514 0.7402125 0.27011898 0.23896667 -0.48722675 0.90027386
-0.28951928 0.8726665 -0.10343428 0.311905 -0.48313773 -0.9753118 -0.92665213 -0.14648749

pre.0.bias f4 [16]
00000000: cf43 4d3f 8df5 80bf 5857 cdbd b037 6c3f
00000010: 6efd bcbe 0dc8 0c3f 4e57 99be a6be 4ebf
00000020: 6584 03bf 8a2a fd3e 3d26 4f3f 424b 523f
00000030: 176d a13e 3249 0abe 8066 eabe efc4 683f
0.8018159 -1.0074936 -0.10026425 0.9227247 -0.36912102 0.54992753 -0.2994942 -0.80759656
-0.51373893 0.49446517 0.8091772 0.82146084 0.3152854 -0.13504484 -0.45781326 0.90925497

pre.1.weight f4 [16]
00000000: aab7 7d3f 879f 793f d57c 7e3f 1ffe 823f
00000010: 9fcc 853f 9466 833f f72e 823f 05f0 823f
00000020: 0a38 803f 92b6 773f 20d4 7a3f d8df 713f
00000030: 7eed 6c3f 35bd 823f 191e 7f3f 9d47 793f
0.99108374 0.97509044 0.9940923 1.0233802 1.045307 1.0265679 1.0170583 1.0229498
1.0017102 0.96762955 0.9797993 0.94482183 0.92549884 1.0213991 0.996553 0.973749

pre.1.bias f4 [16]
00000000: 653e 7dbc f315 60bd 071d 86bc 329e 8f3d
00000010: 5a46 cbbb 8426 6abc 855a 6c3d 6366 65bc
00000020: a76b 803d 0676 933b e84d 89bd 96e4 fbbd
00000030: fdaf bdbd 6d06 523d f4db 063d eee0 7dbd
-0.015456771 -0.054708432 -0.016371263 0.07012595 -0.006203455 -0.014291409 0.057703514 -0.014001462
0.06270533 0.0045001535 -0.067043126 -0.12299459 -0.09262083 0.05127566 0.032924607 -0.061982088

pre.1.running_mean f4 [16]
00000000: c1ac 343f 2567 86bf 70fb 14be 5707 813f
00000010: e443 adbe adce 133f e79f b5be ab43 34bf
00000020: e045 0cbf f71f 183f a6ed 4b3f f175 5b3f
00000030: 9a0e 853e 5bcf 7cbe b545 10bf 6f96 643f
0.705761 -1.0500227 -0.14549041 1.0080365 -0.3384086 0.5773724 -0.35473558 -0.70415753
-0.5479412 0.59423774 0.796595 0.8572684 0.25987703 -0.24688475 -0.56356364 0.89292043

pre.1.running_var f4 [16]
00000000: a88e 743d 902e 403c 941d 523c 1316 3f3d
00000010: 8ec6 cb3b ab41 a03b 280c a53c 7763 8d3d
00000020: b8ae e93b 0b8d 843d 29e5 6c3a 4b02 083c
00000030: 8b15 a33c 12c9 a53d 6487 953d ea1e ee3a
0.05970636 0.011729851 0.012824435 0.04665191 0.006218738 0.0048906407 0.020147398 0.06903737
0.007131424 0.06472214 0.0009036833 0.008301328 0.019907733 0.08094992 0.07301214 0.0018167172

stage1.residual.0.weight f4 [16, 16, 1, 1]
00000000: b3af 373e bf59 803d 2827 253e 6d3e 18be
00000010: e8d1 2fbd 283a 98bc e312 403e 3dd6 3dbe
00000020: 4ac5 3d3e 5f46 643e 0205 26be ab5b 563c
00000030: 6a47 d83c 0583 1fbd b9a8 02be fe3f b1bd
00000040: ec16 7a3e a41e 663d 69c3 813c 9fa4 70bd
00000050: 8b0e 5ebd b4bf 84be 9464 c6bc 0cfa 0bbe
00000060: f465 513e 02f2 6cbd 332e 813e 05f5 6ebd
00000070: e57c ea3d 9ac8 5dbe 82d8 5abe b182 763e
00000080: e351 8f3d f534 8dbd e8ef 03be 7c30 f03d
00000090: b085 20be d874 99bd ca99 b0bb 05fe 47be
000000a0: 4c83 013d 8fca 1e3e aa89 12be de79 223d
000000b0: 1141 77bc f84f 84be f1c9 9ebe f1f7 5cbe
000000c0: f701 0cbd 51b9 873d c169 4abe 2520 78bd
000000d0: 0e9c 70be a52e c3bd 01ae 73bc 02cb 67be
000000e0: 5d4f 733e 7c2d 4a3d 6c65 603d 9cf7 403e
000000f0: f698 7e3d b0bb 853e 525c 0ebc 8c39 cc3c
00000100: 9d9d 47be 8a16 34be edef 15bd 8ceb 063e
00000110: 64f2 0bbe a4fd 983e 30fe 0e3e 201b 12bb
00000120: 60de 0abe 40b9 3d3e 68ba 17bd 40a5 753e
00000130: 1923 4bbe daef 6f3e 21ea 523e 9140 403e
00000140: 9400 8abd 4dc3 8c3d 4fe4 fb3d 55e5 713e
00000150: 3529 a0bd 2e14 7d3e bfa5 a8be 35c9 22be
00000160: 4adc 2ebe 79bc c63d e725 203e 25fd b5bd
00000170: 697b a43d 9a36 aabe 1100 80be 7e10 a23d
00000180: 3ca9 8c3d 76ac 4bbe b3ba 3c3e 44b6 92be
00000190: b61e 45be 2384 b43c e8f5 513e 309f 9fbc
000001a0: 893c 6a3e 6428 ec3d 064f 823e f31f 7ebe
000001b0: 59b0 3abe 759f 0cbe 4354 cbbc 889e db3d
000001c0: d36c 9a3e 4abd 613e 27a6 fcbd c489 083e
000001d0: 7823 64bd 814c 2cbd 4981 a83e f287 703d
000001e0: 0013 00be a4f8 14be bd24 d83d d9d4 d43d
000001f0: 5dea 60bd 53bf a33e 20af 513e 4f76 c2bc
00000200: 80bf 29be ce6b 24be 0cc2 2c3c 1fca c2bd
00000210: 46f4 afbc 4773 cdbd 1575 72ba dd1d 03bd
00000220: 3735 403e c756 2a3d f8bf 6f3d c7d4 7dbe
00000230: 9f8e 1b3d 65d0 0fbe 2004 233d d508 31be
00000240: cdce 5f3c 1c7b 52be 5357 4ebd d16c ca3c
00000250: ac35 853e 79b3 a93d ac8d 2f3e 1e2c 693e
00000260: 75e8 dd3d a2f5 743e 41a4 debd de34 1dbd
00000270: a852 d2bd 0279 123e bd1d 4f3e 9b96 ff3d
00000280: 4de8 63bd 5b7f 3b3e 0f23 533e 414e 11be
00000290: 427b bcbc cc7c a3bd 4549 5d3e a4d5 b8bd
000002a0: 04fe c9bd 85d5 d73d d9dc 843e b3f6 3fbe
000002b0: 6082 a3bd 614a 303e 8aff a0bd 4def 28be
000002c0: 0bcf 6d3e 18b9 bc3c bf1b 83be 5a63 133e
000002d0: 9262 683e 5c31 ae3d b610 11be 8833 0e3c
000002e0: ed0b 3a3d 87c0 143e 225a dbbd 2092 36be
000002f0: fd18 54be 7b39 cfbd 6e51 0e3e 7cce a1bd
00000300: e973 453e ce5a 1a3c dc14 093e 8b98 24be
00000310: 1278 33bd 1f45 30be d05d 473d 1582 303e
00000320: d114 80be 5d3d 20be ec50 3d3e d7ac 9ebe
00000330: 132e a3bd d6f4 33bd ddb6 b53d fd3a e5bd
00000340: b73d 9abd c262 09bd e36d 733c 261d e13d
00000350: fe8b 813e 5710 aabd 0095 123e 27e5 4b3b
00000360: 766a 033e b623 053e 1555 78bc c3b2 54be
00000370: 3147 133e ad6d 383e 536a 4fbd e420 b13d
00000380: 60fe 713d 4666 513e a963 573e 25d9 3cbe
00000390: 72d7 69be 54e2 f03d 9966 45be 14ef 82be
000003a0: 8867 0cbd ee33 40bd 9b2d 923d 32d9 69bc
000003b0: 8610 353d 8e96 0dbe 2431 163e 04c3 803e
000003c0: 6b7e 083c fd4f 7ebe 1b6a 93be f548 07be
000003d0: 3f40 073d 8ff4 8f3e dd71 83be d014 353d
000003e0: 8fc4 d53d f5fb 8ebd 15f6 ca3d 35df b43d
000003f0: 2c68 79be 4fc4 64be 057b e3bd bb69 e83d
0.17938118 0.06267118 0.16128218 -0.14867564 -0.04292479 -0.018582419 0.18757205 -0.18538757
0.18532291 0.2229247 -0.16212848 0.013083379 0.02640124 -0.03894331 -0.12759675 -0.08654784
0.24422807 0.056181565 0.01584025 -0.058750745 -0.054213088 -0.25927508 -0.024217881 -0.13669604
0.20449048 -0.057847984 0.2523056 -0.058339138 0.11449603 -0.21658555 -0.21371654 0.24073292
0.069980405 -0.068948664 -0.12884486 0.11727998 -0.15675998 -0.07492989 -0.005389427 -0.19530495
0.031619355 0.15506957 -0.14310327 0.039667003 -0.015091197 -0.2584226 -0.31013444 -0.21578957
-0.03418156 0.06627143 -0.19766904 -0.06057753 -0.2349703 -0.09530381 -0.014873029 -0.22636035
0.23760743 0.049359784 0.054784223 0.18844455 0.062157594 0.26119757 -0.008689003 0.024929784
-0.19493718 -0.17586723 -0.036605764 0.13175792 -0.13666683 0.29881012 0.13964152 -0.0022294
-0.13561392 0.18527699 -0.037043005 0.23988819 -0.19837607 0.2343134 0.20597126 0.1877463
-0.067383915 0.06873188 0.12299406 0.2362264 -0.078203596 0.24714729 -0.32938954 -0.15897067
-0.17076221 0.09703917 0.15639459 -0.08886174 0.08031351 -0.33244783 -0.2500005 0.07913302
0.068682164 -0.19890007 0.18430595 -0.28654683 -0.19249997 0.022035664 0.20503962 -0.019485086
0.22874655 0.115311414 0.25450915 -0.24816875 -0.18231334 -0.13732703 -0.024820453 0.10723597
0.3016115 0.22044864 -0.123363785 0.13333803 -0.055697888 -0.042065147 0.32911137 0.058723398
-0.12507248 -0.14547974 0.10553882 0.1039216 -0.054911006 0.31981906 0.20476961 -0.023738055
-0.16576958 -0.16056749 0.010544311 -0.09511208 -0.021478783 -0.10031753 -0.0009249014 -0.0320109
0.187703 0.041586664 0.058532685 -0.247882 0.03797781 -0.1404434 0.039798856 -0.17288525
0.013660145 -0.20554775 -0.050376248 0.02471009 0.2601751 0.08286185 0.17143887 0.22770736
0.10835353 0.23921826 -0.10871173 -0.038380496 -0.10269672 0.14303973 0.20226188 0.124798976
-0.05564146 0.18310301 0.20618843 -0.14190008 -0.023007993 -0.079827875 0.21609981 -0.09025124
-0.09862903 0.105387725 0.25949743 -0.18746452 -0.079838514 0.17215873 -0.0786124 -0.16497536
0.23223512 0.023037478 -0.25607106 0.14393368 0.22693852 0.08505508 -0.14166531 0.008679278
0.04542153 0.14526568 -0.10710551 -0.1782918 -0.20712657 -0.101183854 0.1389825 -0.07900712
0.19282497 0.009421064 0.13386863 -0.16073816 -0.04381568 -0.17213868 0.04867345 0.17237122
-0.25015882 -0.15648408 0.184879 -0.3099124 -0.07967772 -0.043934666 0.08872769 -0.11192892
-0.075313024 -0.03354145 0.014857742 0.10991888 0.25302118 -0.08303898 0.14314651 0.0031111927
0.1283358 0.13001904 -0.015157004 -0.20771317 0.14382626 0.18010588 -0.050638508 0.086488515
0.05908048 0.2044917 0.21034111 -0.18442209 -0.22836092 0.11761919 -0.19277419 -0.25573027
-0.034278423 -0.046924524 0.07137605 -0.014272975 0.04420521 -0.13826963 0.14667183 0.25148785
0.008330922 -0.248352 -0.2879189 -0.13211425 0.033020254 0.2811627 -0.25672808 0.0442093
0.10437881 -0.06981651 0.09910218 0.08831636 -0.24356145 -0.22340511 -0.111074485 0.113482915

stage1.residual.0.bias f4 [16]
00000000: 2629 2c3e 55d2 8abd 9942 403e 5b02 1d3d
00000010: 6226 70be 39b9 19be f29f 683e df24 e73d
00000020: 3066 6ebe aa74 883d 6169 7e3b 2b7c 7cbd
00000030: 6754 153e b10c 09be 7deb a03b 9a66 6a3e
0.16812572 -0.06778399 0.18775405 0.038332324 -0.23452142 -0.15012063 0.22717264 0.112863295
-0.23281169 0.06662877 0.0038820135 -0.061641853 0.14582978 -0.13383748 0.004910885 0.22890702

stage1.residual.1.weight f4 [16]
00000000: 5ea9 583f b703 7c3f 1b1f 623f 19ec 8e3f
00000010: 70e0 843f 948b 673f 25a9 923f 1f8f 683f
00000020: 2a95 293f 74b5 7c3f a350 843f 68f7 903f
00000030: 32b2 0d3f 52c8 7d3f dbe6 7c3f 37b9 3f3f
0.84633434 0.9844317 0.88328713 1.1165801 1.0380993 0.90447354 1.1457869 0.90843385
0.6624323 0.98714375 1.0337108 1.1325502 0.5535003 0.9913379 0.9878976 0.7489199

stage1.residual.1.bias f4 [16]
00000000: b63f 073e 7d4e 843d 736d b23d 4b7f c23b
00000010: 1b2e 663c e917 df3d c8d4 cb3c b462 d2bd
00000020: c93c 7c3e eb60 583d 421e 8d3c 7cfb e03c
00000030: 5df0 963e 9814 27bd cbc0 313d b649 5e3e
0.13207898 0.06460283 0.08712282 0.0059355847 0.014049078 0.108932324 0.024881735 -0.102727324
0.24632563 0.052826803 0.017226342 0.027463667 0.29480258 -0.040791124 0.043396752 0.21707806

stage1.residual.1.running_mean f4 [16]
00000000: e118 823e b8f5 e4bd 6116 42be 24eb 823d
00000010: c45c 003d 87e8 b1be ade4 533e b673 073f
00000020: c67e ebbe 8353 f63e 1aa3 563d 65e2 edbc
00000030: cc05 cabc bdc7 fd3d 41cf 67bd eaf8 fbbc
0.25409606 -0.1117968 -0.1895385 0.06392506 0.03133847 -0.34747717 0.20692702 0.52910936
-0.45995158 0.4811059 0.05240164 -0.029038617 -0.024660967 0.12391613 -0.056594137 -0.03075834

stage1.residual.1.running_var f4 [16]
00000000: 563a 413d 5a54 c13e 081a a33b bb40 3b3e
00000010: fbfd b33e 1f32 003e d3db bb3e c836 933c
00000020: b39c 003e 80e6 da3e 1d13 413e 6ede 523e
00000030: 4924 ac3e fe1c 9c3c 3e70 be3e 6f88 f23d
0.047174774 0.37759668 0.0049774684 0.18286411 0.3515471 0.1251912 0.3669115 0.017970458
0.12559776 0.42753983 0.18854947 0.20592663 0.33621433 0.019056793 0.3719501 0.11842429

stage1.residual.3.weight f4 [16, 1, 3, 3]
00000000: f441 66be 1a3c 82be 4aab fdbd c3ed dcbe
00000010: c47a 223d c2a5 883d f1ae b4be 28e1 d8bc
00000020: da65 a53e 67db a33e 3581 39be 6a15 30be
00000030: a909 a6be 16e8 6ebe 1125 90be 95b1 df3d
00000040: b36e 55be bebf 96b9 6060 463e 6e44 053d
00000050: 0664 5bbc 9f8d 233e 877e 49be 15e3 92bb
00000060: f37a 1bbe 38b4 b0be dc3c 0c3e f0a8 043e
00000070: 64d7 0cbd 0a69 58be a4ae 3ebc f00a 3fbe
00000080: 7d8b 7d3c 03a7 e63d 4e8e 02be 223e b73e
00000090: 6358 3cbe 7c68 023c 2478 d63d a153 56be
000000a0: 1b29 dabd 9c03 af3d 9fb5 e83d 12db 8b3d
000000b0: 94db 313e 8345 eb3d 38b9 33be a871 53be
000000c0: 3b65 47be 2f9b ac3e b812 353e f071 bd3b
000000d0: 9866 18bd 1afb 46bd f7f0 8bbd 3bd1 9cbc
000000e0: b850 22bc 4b71 12bc df27 0abe 5304 97be
000000f0: a956 203e fea9 803e 0c85 a4bd 9cb1 903e
00000100: 7e6d 533d bdb6 933c 1f74 e3bd a3c8 9d3e
00000110: fb0b ba3e f1d8 eb3c c503 8e3e b147 a43e
00000120: 7a5d f93c 1e74 d2be dbe5 593e dc6e 08be
00000130: ba76 96be d392 713c 138f a73c 6fba 2c3e
00000140: 266f 46be e1f3 eabe f5e0 97be b11d 48be
00000150: 3131 eb3d d7b0 893d 7945 273e 51e0 a33e
00000160: 14be 2cbe e014 893e 2d25 f13d c438 773d
00000170: 6649 18bd 98b8 11be ac04 bb3e 0e01 5539
00000180: eb86 d63e 1724 d23d c31a d5bd 0275 f53c
00000190: c2aa 8fbe 7c7b c5bd 15c2 1f3e 76d1 84be
000001a0: 8bb9 1e3d 51f1 9a3d 1acd 843e 1dd6 803e
000001b0: fce1 263e d12a 5ebe c85a f6bd 3df2 473e
000001c0: f598 cb3c 147a 483e 9e4e 93be 6556 d4be
000001d0: 4e68 30be 8697 6d3e aad1 eebd 153a 42bd
000001e0: 6dab 72be 20d6 a63e ca00 873e a964 6bbe
000001f0: 108b 58be 4db2 993e 9618 483e 24fd a63c
00000200: 73f3 353e 363d a7be 5c2d 443e 5066 063e
00000210: b276 1ebe a573 803e feed 40bd fc38 633d
00000220: 97c3 433e 2927 9d3e 176f aabe 44d2 4a3e
00000230: c6e7 c23e b90a 97bd eb82 d33d a93f 113e
-0.22486097 -0.2543648 -0.123861864 -0.43150148 0.03966786 0.06672241 -0.3528972 -0.02647455
0.3230427 0.32003328 -0.18115695 -0.17195669 -0.32429245 -0.23330721 -0.2815328 0.10922543
-0.2084301 -0.0002875309 0.19372702 0.032535963 -0.013390547 0.15971993 -0.19677173 -0.0044826367
-0.1518362 -0.34512496 0.13695091 0.1295507 -0.0343851 -0.21133819 -0.011638317 -0.18656516
0.015475151 0.11262324 -0.12749597 0.3578959 -0.18393092 0.007959481 0.10472134 -0.2093034
-0.106523715 0.0854561 0.113627665 0.06828894 0.17368919 0.11487868 -0.17551124 -0.20648825
-0.1947221 0.33712146 0.17682922 0.0057814047 -0.037207216 -0.048579313 -0.0683307 -0.019142738
-0.00990694 -0.008938144 -0.13491772 -0.29495487 0.15658058 0.25129694 -0.08033189 0.28260505
0.05161809 0.018031472 -0.11106133 0.30817136 0.36337265 0.02878997 0.2773725 0.32085946
0.03044008 -0.41104215 0.21279089 -0.1332354 -0.29387456 0.014744478 0.020453965 0.16867994
-0.19378337 -0.4588919 -0.29663816 -0.19542576 0.11483992 0.06723183 0.16335095 0.32007077
-0.16869384 0.2677374 0.11774669 0.06035687 -0.037179373 -0.14230573 0.36527002 0.00020313656
0.4189981 0.1026079 -0.10405495 0.02996302 -0.28059965 -0.096426934 0.1560138 -0.25941056
0.038751166 0.07565559 0.2593773 0.25163355 0.16297144 -0.2169602 -0.12029034 0.19526
0.024853209 0.19577819 -0.28770918 -0.41472164 -0.17227289 0.23202333 -0.11661084 -0.047418673
-0.23698206 0.3258524 0.2636779 -0.22987618 -0.21146798 0.30018845 0.19540629 0.020384379
0.1776865 -0.32663888 0.19157928 0.13124967 -0.15474966 0.2508823 -0.047101967 0.055474266
0.1911758 0.3069394 -0.3328788 0.19806772 0.38067454 -0.07375092 0.10327705 0.1418444

stage1.residual.3.bias f4 [16]
00000000: cf15 d9bd 9c19 013e df9f 3d3e 172e a23e
00000010: 2b9f aa3e 325c 54be ab9e 773c 0091 72be
00000020: a149 103b aa50 1e3d 0766 da3d 6c3c 103e
00000030: f539 81be d79b 4e3e c88a 3d3e 1d79 62be
-0.10599863 0.12607425 0.18518017 0.3167579 0.3332456 -0.20738295 0.015113513 -0.23688126
0.0022016542 0.038651146 0.106639914 0.14085549 -0.2523953 0.20176636 0.18509972 -0.22116514

stage1.residual.4.weight f4 [16]
00000000: ff57 7b3f 22f6 863f b99a 2f3f ff80 673f
00000010: dff5 923f c9c0 833f 7296 7a3f 4d0c 7d3f
00000020: 251c 643f 84a9 803f 40fb 703f cbd7 953f
00000030: 33fc 793f 6d83 833f 58b0 813f ba14 7e3f
0.98181146 1.0543864 0.68595463 0.9043121 1.1481284 1.0293208 0.9788581 0.98846895
0.89105445 1.0051732 0.9413338 1.170648 0.9765045 1.0274483 1.0131941 0.99250376

stage1.residual.4.bias f4 [16]
00000000: bf03 043d bcb5 0c3e 57eb d6bd 76da 37be
00000010: 5be4 043e 3933 823d 05cb bb3c 6f73 22bc
00000020: 70ae 98bd 834f 96bd 5ab0 ef3a 6bb4 c53d
00000030: c0c2 1e3d ce1d 89bd 52d5 d43c 2cec f83d
0.032230135 0.13741201 -0.10494106 -0.1795443 0.12977736 0.06357426 0.022923956 -0.009915217
-0.07455146 -0.073393844 0.001828681 0.096535526 0.038759947 -0.06695138 0.025980625 0.12154421

stage1.residual.4.running_mean f4 [16]
00000000: 57c0 f4be 8bdd 70be 9138 113e 9caa a63e
00000010: 9f2c b43e 5403 5ebe 39d6 89bd a898 f73d
00000020: 3b0e 78be bf7f adbc f276 bf3e c5cf 543e
00000030: 724a 02bf 023d 923e 75f2 ad3e c0c2 843d
-0.47802994 -0.23522012 0.14181735 0.3255204 0.35190293 -0.21680957 -0.06730313 0.12089664
-0.24224178 -0.021179078 0.37395436 0.20782383 -0.50894845 0.2856217 0.33974043 0.06482458

stage1.residual.4.running_var f4 [16]
00000000: b085 153d fab5 b83c 52a8 303e 1208 473b
00000010: 15a0 d43d 245d b63c f0f7 b13b 9bde b03c
00000020: ba6b 1c3c 3a1b 9c3e 07fb 5f3c 93f1 4b3e
00000030: 5ccb 883c 5061 523e dbdc e93b 8a70 fb3e
0.036504447 0.02254771 0.17251709 0.00303698 0.10382096 0.02226121 0.005431168 0.021590522
0.009547168 0.30489522 0.013670689 0.19916372 0.016698532 0.20544934 0.0071369237 0.49109298

stage1.residual.6.weight f4 [8, 16, 1, 1]
00000000: 1dfe 8bbe 07a7 613c 809b e7ba cb8e 30be
00000010: 2d54 d23e 50b0 ed3d c083 13be 37cb 103b
00000020: 3275 de3d 3732 b93e 876a 5abd 6e00 2a3e
00000030: 974a 27be f792 87bd 3abd 153e baab 723e
00000040: e0fa 473e 743d 1ebe 08ba 52be 1e49 ff3c
00000050: 49c3 80be be02 9fbd a011 543e bcdc 973d
00000060: 254d 86ba 7838 99be 67ea be3c ab92 48be
00000070: cf3f 6bbc 4986 6f3e e094 f33d 1b09 e7bd
00000080: ccf5 173e 3944 19bd 1fad e2bd 46a9 e23c
00000090: 2b66 3bbe babd 4c3e 72fa a63e 9ec9 d8bd
000000a0: 5408 5e3d dedc 71bd aed9 60bc 8f44 b93d
000000b0: 0685 31be 31c9 113e f7ee 20be 54ca 55bd
000000c0: 04c0 393e 00a6 4b3e fc4e 00bb 399c 713d
000000d0: 0d96 46bd 53e7 583e 0738 643e f6e5 52be
000000e0: 5d34 223e f084 10be cd08 ccbd 58f5 a2be
000000f0: 7725 873c 31b8 d23d 2af6 a43d 0729 053e
00000100: 37bd 25be 301e b4be 79d3 fdbd 27d9 073d
00000110: 2fa3 893e ab7e acbd aab8 3d3d 5d21 02be
00000120: 5272 07be c407 3ebd 5218 203e 2fe0 0c3e
00000130: 73e8 2fbe 8cbd 2f3e 14d3 b53d 6385 4cbe
00000140: 9e1c afbd 212a d4bc 0d4b 85bb 73d4 70be
00000150: bc4d debd 7f8f 4a3e c76c 143d 6de3 f3bc
00000160: 8227 4bbd 5049 2fbe 66fd e9bd bca0 883e
00000170: f3ab a03e 0b3f 5dbe 5319 0fbe fe08 143d
00000180: c9c2 89be 0b1e de3c 8fed 91bc 81af 643d
00000190: 3f7e 7ebd 4482 2f3d 7e14 b43d a904 0bbe
000001a0: e335 ae3c 3d9f be3d 34ad 3a3e a51e 92be
000001b0: 6772 f53d 3e44 03bd 68ef 48be f84b 873e
000001c0: a9d9 a83d 027a ccbd b224 0dba 0b55 d73d
000001d0: 5bbf 9dbe 6a1f 563e 07ce 13be fe75 383e
000001e0: 4f60 443e 584b 833d 6463 1e3d 8f76 edbd
000001f0: d850 19be 1838 1ebe b8e6 453e 72e1 87be
-0.2734231 0.013772733 -0.0017670244 -0.17241971 0.41079846 0.116058946 -0.14405727 0.0022093782
0.10862197 0.36171123 -0.05332425 0.16601726 -0.16337048 -0.06619828 0.14622965 0.23698321
0.19529295 -0.1545313 -0.20578778 0.031162795 -0.2514899 -0.07764195 0.20709848 0.074151486
-0.001024638 -0.29925895 0.023305131 -0.195872 -0.014358475 0.2339107 0.1189363 -0.112810336
0.14839858 -0.037418578 -0.110681765 0.027668606 -0.18300693 0.1999425 0.3261295 -0.105853304
0.05420716 -0.059048526 -0.013723774 0.0904628 -0.173359 0.14236905 -0.15716158 -0.05219491
0.18139654 0.19887543 -0.0019578328 0.058986876 -0.048482943 0.21181993 0.22286998 -0.20595536
0.15840288 -0.14113212 -0.09962616 -0.31827807 0.016497357 0.10289038 0.080547646 0.13003932
-0.16185461 -0.3517928 -0.12393851 0.033166077 0.26882312 -0.084225975 0.046318687 -0.1270804
-0.13227203 -0.046394125 0.15634277 0.13757394 -0.17178516 0.1716215 0.088781506 -0.19972758
-0.0855038 -0.025898995 -0.0040677846 -0.23518543 -0.108546704 0.19781302 0.03623655 -0.029771531
-0.049598224 -0.1711781 -0.11425285 0.2668513 0.31381187 -0.2160608 -0.13974504 0.036141388
-0.26906422 0.027113935 -0.017813472 0.055831436 -0.062132116 0.04284884 0.08792971 -0.13575996
0.02126593 0.09307716 0.18230134 -0.28539005 0.11984711 -0.032047503 -0.19622576 0.26425147
0.082446404 -0.09984209 -0.0005384191 0.105142675 -0.30810055 0.20910421 -0.14434062 0.1801376
0.19177364 0.06410855 0.038669005 -0.11594879 -0.14972246 -0.15451086 0.19326293 -0.2653919

stage1.residual.6.bias f4 [8]
00000000: acc0 4ebe bddc bb3d 623e 603d d6ed 1a3d
00000010: afbc 27be 6509 2b3e a950 1b3d ed33 c7bd
-0.20190686 0.09172962 0.054746993 0.037824474 -0.16380571 0.16702802 0.03791872 -0.09726701

stage1.residual.7.weight f4 [8]
00000000: d332 793f 8f2f 813f c485 823f 3eff 843f
00000010: 1e73 733f 9975 7c3f 9996 7a3f a223 883f
0.97343177 1.0092639 1.0197072 1.0390394 0.9509753 0.9861694 0.97886044 1.0635874

stage1.residual.7.bias f4 [8]
00000000: 1171 eabb 1b55 5a3d 163b 1d3d 6fdc 8fbc
00000010: 1255 f43c eda1 89bb a57d 31bd 8538 66bc
-0.007154592 0.05330382 0.038386427 -0.017561166 0.029825721 -0.0042002113 -0.043332715 -0.014051561

stage1.residual.7.running_mean f4 [8]
00000000: 81dd 9ebc d1d6 173d 9ba5 8f3d 73cf 743e
00000010: 0402 b9be ffb9 ea3d c362 e5bc 087c 37be
-0.01939273 0.0370701 0.070140086 0.2390726 -0.3613435 0.11461257 -0.028001195 -0.17918408

stage1.residual.7.running_var f4 [8]
00000000: 68f0 e03e dc3c aa3e c728 243e 9e49 f73e
00000010: cb86 993e 0ef2 1e3e f1fa 173e 288a 013f
0.43933415 0.33249557 0.1603118 0.48298353 0.2998565 0.15522024 0.1484182 0.50601435

stage2.0.residual.0.weight f4 [16, 8, 1, 1]
00000000: ec88 50be 9cbb 78be 578a 9dbc 240b a3be
00000010: a608 1e3e 4f3d d93e d02d 393e 880d 53be
00000020: e0d2 b1be 1b78 48be b5e4 afbe d1b8 a43e
00000030: 0607 86be cb77 68bd 360e b5bd e87b 583e
00000040: c29e d83d e5bc 8c3e d5db 4f3e 9543 3a3e
00000050: 1603 1fbe ebbd 42bd 71b3 e13d cf0f 8cbe
00000060: c6b7 0f3e 5cc4 bc3e 2e57 a9bd d14a 87be
00000070: de53 2abc 233e 213e ae28 043e c827 813e
00000080: fee9 2c3d 2949 8b3d c14a 203e a773 c73e
00000090: 4c38 23be 8c94 90bd d1dc 1ebe ce0f a8be
000000a0: f10f 8f3d 46a6 393e 7fe3 41be 99b9 673e
000000b0: cc68 8bbe 50b1 5fbe 3540 b53e ddc9 c73c
000000c0: 0fc2 70be 153c 343e aa70 b5bd f235 cb3e
000000d0: 0753 c7be e700 f63d f627 8b3e 51f0 833e
000000e0: ac0b 613e d5aa bd3e 1fb5 fe3e 8c69 b43e
000000f0: def4 50be b3af 86be 75e4 31be 9be8 0cbc
00000100: b4bd a53d 0a3b e0bd 39d1 253e 19fd aabc
00000110: 6973 a3be 1d7c 763d 2e3f 763e 2798 cebe
00000120: 33f2 4e3e 112e 5e3e ffb5 b83e 8660 773d
00000130: 2ba3 1c3e 938d 0b3e 666c bcbe 4eca f6bd
00000140: 042d 613e 1036 79be 4dcd 0e3e da3a 933e
00000150: 835c 9c3e 9e76 62be 052f 423e 3507 173e
00000160: 43b5 07be 458e 593d f660 a33e e5f4 7c3d
00000170: 1480 25bd cb52 323e b510 c2be 86a8 be3d
00000180: 8dff 47be a7c7 cb3d 41ec 17be aa89 0bbd
00000190: 2b64 983d e5c7 843e 22a0 993e 96d1 b33e
000001a0: df9f 62be 2977 fdbd f251 403e 4d25 9e3e
000001b0: 1355 ea3d 44d5 7bbd 16cc bf3e 2ef5 403e
000001c0: 07d8 2a3d 54d6 af3e d6cb 6cbe c359 2f3d
000001d0: d312 b8be 4e49 b83e dcff b1be 4074 bb3e
000001e0: ab80 163e 3d59 73be 05b4 7b3e 42b8 aabd
000001f0: 7a26 92be be5e d33e 149f 0cbe 09c9 36bd
-0.20364732 -0.24290317 -0.019231005 -0.31844437 0.15432987 0.42429587 0.18083882 -0.2061063
-0.34731197 -0.19577067 -0.34354177 0.32172254 -0.26177233 -0.05675487 -0.08840601 0.21141016
0.10577156 0.27487865 0.20298703 0.18189843 -0.15528521 -0.0475444 0.11020554 -0.2735581
0.14034948 0.3686856 -0.08268581 -0.26424268 -0.010395972 0.1574636 0.12906143 0.25225663
0.04221534 0.068010636 0.15653516 0.38955423 -0.15939444 -0.07059583 -0.15513922 -0.32824558
0.069854625 0.18129835 -0.18934439 0.22629394 -0.2722839 -0.21844983 0.3540055 0.024388248
-0.23511527 0.17601044 -0.088593796 0.39689595 -0.38930532 0.12011891 0.27178925 0.25769284
0.21977109 0.37044397 0.4974756 0.35236776 -0.2040591 -0.26305923 -0.17372306 -0.008600379
0.080928236 -0.10948761 0.16193093 -0.02087264 -0.31923988 0.060176957 0.24047539 -0.40350458
0.20209579 0.2169726 0.36076352 0.060394786 0.15296619 0.13628225 -0.3680145 -0.12050305
0.21989828 -0.2433703 0.13945504 0.28755838 0.3053933 -0.22115561 0.18963249 0.14748843
-0.1325274 0.053114194 0.31909913 0.061756987 -0.040405348 0.17414396 -0.3790337 0.09309487
-0.19531079 0.0995019 -0.14836217 -0.034066834 0.074409805 0.25933757 0.30004984 0.3512084
-0.22131298 -0.123762436 0.1878126 0.30887833 0.11442008 -0.061482683 0.37460393 0.18843529
0.041709926 0.34343207 -0.23124632 0.042810213 -0.35951862 0.35993427 -0.34765518 0.3661213
0.1469752 -0.2376451 0.24580391 -0.08335926 -0.2854498 0.4128322 -0.13732558 -0.044625316

stage2.0.residual.0.bias f4 [16]
00000000: a675 75bd fb3e 6d3e 7471 99be 9bd5 8d3e
00000010: 15bd fabd 8dce 1c3e 1216 1c3e 6cc0 21be
00000020: 45b0 e5bd 7c3b 08be 2d8b 083d 14aa 44be
00000030: d7be 33be 3ce5 86be da47 55be 0074 a83e
-0.05992665 0.23168556 -0.2996937 0.2770203 -0.12243096 0.15313168 0.15242794 -0.1579606
-0.11215261 -0.13303941 0.033335853 -0.19205505 -0.17553268 -0.26346767 -0.2082819 0.32901

stage2.0.residual.1.weight f4 [16]
00000000: 3271 723f 6a83 693f cb42 873f 5ab9 7d3f
00000010: 23f6 803f 576f 703f abb0 683f b172 923f
00000020: b5bc 663f a848 803f aebf 7b3f 4805 453f
00000030: 4f27 4e3f 5250 4a3f 59b0 693f 6619 783f
0.9470397 0.91216147 1.0567259 0.9911095 1.0075115 0.9391989 0.90894574 1.1441251
0.90131694 1.0022173 0.98339355 0.76961184 0.8052873 0.7902881 0.9128471 0.96913755

stage2.0.residual.1.bias f4 [16]
00000000: 2949 aebd 0825 04be 53fe 49bd 204f 95bd
00000010: 2b8d 47bd bb91 cf3d bbdc 2e3e fdda bf3c
00000020: d3ec dd3d 8a2a 323d fd5d 34bd 8ae3 79be
00000030: 05b3 33be a075 3b3e e884 12be 5144 b63d
-0.08510048 -0.12904751 -0.049314808 -0.072904825 -0.048718613 0.10135218 0.1707639 0.023419851
0.10836186 0.0434976 -0.044034947 -0.24403206 -0.1754876 0.18306589 -0.14308512 0.08899749

stage2.0.residual.1.running_mean f4 [16]
00000000: 708d 8dbd dd72 4a3e 728f 92be ee96 933e
00000010: e30a e8bd 1707 043e 9438 003e 45cd febd
00000020: 758d 01be 3dad b5bd 0a64 983c ae18 28be
00000030: 4d0a 43be 9b89 90be d9fd 4ebe c05e a53e
-0.06911743 0.1977038 -0.28625065 0.28826088 -0.113302015 0.1289333 0.12521583 -0.12441496
-0.12651618 -0.08870933 0.01860239 -0.16415665 -0.19046898 -0.28229985 -0.20214023 0.3229885

stage2.0.residual.1.running_var f4 [16]
00000000: 5aa1 f73e 60af 763e b01a 033f 1620 943e
00000010: b9e6 233f 3514 f13e 47a5 4b3f 8f3a 8b3f
00000020: 6632 513f 25c6 5d3e ee86 563e b327 973e
00000030: f6b5 b23e b87e ca3e ac58 0f3f 04f9 343f
0.4836529 0.24090338 0.51212597 0.2893073 0.6402393 0.4708573 0.7954907 1.0877246
0.81717527 0.21657617 0.20949909 0.29522476 0.3490445 0.39549804 0.5599468 0.7069247

stage2.0.residual.3.weight f4 [16, 1, 3, 3]
00000000: a074 ae3d 0f73 263e b282 bcbd 3fd7 b73e
00000010: ae12 183e 8eb1 1a3e 4fe5 893e 9f65 49be
00000020: d76e 97bd b146 873e 3fe9 a83e 68e0 13be
00000030: 28f5 973e f821 8cbd 775e 51be 6d8d c2bc
00000040: ff3e 96be 61f5 64be a8e5 3e3e 80e3 103d
00000050: e68a babd d0ff d43d ab2f 89bc ed0f 803e
00000060: 6647 713d 7216 dd3e 5512 c33d 59be 40be
00000070: 115b 9dbe d44c bdbe d736 27be b2bf f03c
00000080: a29c a03d b52c 1dbd ed37 3c3c 9217 43bd
00000090: 63f0 8c3d aab1 8a3e 6d53 a5bd b1d1 b2be
000000a0: 7d29 cabe 00b4 bdbe 8d4c 9d3e 3d8d 28be
000000b0: 414c 1d3e e95f dbbd afe9 123e 2085 22bd
000000c0: 92f8 4a3c d9a6 de3e 536d 973e a8e9 1f3d
000000d0: e722 683d 59c8 46bc 3dd9 aebc a4f6 1a3b
000000e0: 0815 5bbd f69b 313e c4ba 983e db70 a73d
000000f0: 17d4 833e 134d da3e a642 9a3e c106 8d3d
00000100: a9ff 9c3e 606b 16bd dbd2 7ebe c214 abbc
00000110: cfe0 ffbd 4f31 51be 8934 ea3d 41b7 3dbe
00000120: cbdb 99be b635 25be eb77 c03e 7083 99be
00000130: 853f 613e 9607 6a3d 7ff0 103d eed1 04bc
00000140: 2c3b 973c cd1e 72be 33db 7ebd b980 033d
00000150: 7e1b 453e 4785 5fbe 6d97 5d3e ce8e 523e
00000160: 4d5a e1be f894 493e 343e c73d 8737 94be
00000170: daa9 f9bd 8931 36be e322 72bd 8303 d7ba
00000180: fc3c 67be ba71 f63d b44a 74be 85bd ce3d
00000190: a463 6f3e 7c49 b63d 9fb2 7e3e 4efc 253e
000001a0: 4028 263e 435a 743e cde6 8d3e 16a1 e53d
000001b0: 1baa 2cbe 9edc 283e 4912 9fbc 0d1c 813b
000001c0: fbe6 9bbe bef3 1d3e c480 2f3e ac68 993d
000001d0: 9085 c93e a31f 573e 0e66 0d3e 4553 743e
000001e0: 9bf4 3c3e 089f c73e 1d8f d23e 6b1f 793e
000001f0: 1162 d6bd 1263 353d e57f 8bbd 2ec8 ad3c
00000200: 9873 e83d de67 283e f7b8 783e 759f bd3c
00000210: f281 ac3d 3d34 393e 6c9f 293e 1493 853e
00000220: bfdd 3f3d 4eaf a23d 4ab0 893e 89d8 df3e
00000230: 8549 6b3e 5d1f 353e df71 663e f18c 5abc
0.08518338 0.16254829 -0.09204616 0.35906407 0.14850876 0.15106794 0.2693276 -0.19667672
-0.07394188 0.2642112 0.32990453 -0.14441073 0.29679227 -0.068424165 -0.20446192 -0.023749078
-0.29344937 -0.2235923 0.18642294 0.03537321 -0.09108524 0.10400355 -0.016746363 0.2501215
0.05890598 0.43181187 0.09524981 -0.18822612 -0.3073354 -0.36972678 -0.16329513 0.029388282
0.07842375 -0.038372714 0.011487943 -0.0476299 0.06881788 0.27088672 -0.08072553 -0.34925607
-0.39484778 -0.37051392 0.30722466 -0.16460128 0.1536112 -0.10711653 0.14346956 -0.03967774
0.012388365 0.4348667 0.29575595 0.03904119 0.05667391 -0.012132728 -0.021343822 0.0023645544
-0.053486854 0.1734465 0.2982999 0.08175822 0.2574775 0.42636928 0.30128974 0.06886054
0.30663803 -0.036723495 -0.24885122 -0.020883922 -0.12494051 -0.20428966 0.114358015 -0.18526937
-0.300505 -0.1613377 0.3759149 -0.2998309 0.21996887 0.05713614 0.035385605 -0.008106692
0.018460833 -0.23644562 -0.062220763 0.03210518 0.19248769 -0.21828185 0.21639796 0.20562288
-0.44014207 0.19685733 0.09728661 -0.28948614 -0.121906 -0.17792334 -0.0591153 -0.0016404245
-0.22581857 0.1203341 -0.23856622 0.10094742 0.23377854 0.08900735 0.24872826 0.16209528
0.16226292 0.23862557 0.2771515 0.11212365 -0.16861765 0.16490409 -0.019417899 0.0039401115
-0.30449662 0.15425012 0.17138964 0.07490668 0.39359713 0.21008162 0.13808462 0.2385989
0.18452685 0.3898852 0.41124812 0.24328391 -0.104679234 0.044283934 -0.06811503 0.021213617
0.11350173 0.16445872 0.24289308 0.023147324 0.084232226 0.18086334 0.16564721 0.26088774
0.046842333 0.07943593 0.2689231 0.4371989 0.22977264 0.17687745 0.22504376 -0.013339267

stage2.0.residual.3.bias f4 [16]
00000000: 5a62 ac3d 9d38 9e3e 65af 5ebc f173 54bd
00000010: 98a4 a3be f5fe 6dbe e640 9b3e 3275 9cbe
00000020: c8bd cfbd a429 83be 8ad1 66bb ea16 dabd
00000030: d536 42bc e38d 493d f3ab e8bd 9027 6fbd
0.084171966 0.30902568 -0.013591622 -0.051868383 -0.31961513 -0.2324179 0.3032295 -0.30558163
-0.1014362 -0.25617707 -0.003522011 -0.10648902 -0.011853893 0.04920758 -0.11360922 -0.05838734

stage2.0.residual.4.weight f4 [16]
00000000: e48b 593f 9b69 783f b5c6 893f 7ae0 873f
00000010: ce80 763f f735 813f fb97 833f a379 753f
00000020: ceb2 783f 4dfb 4c3f 78cb 7c3f 94e4 803f
00000030: ed3a 903f df13 813f 481b 833f 44b6 8c3f
0.8497908 0.9703614 1.0763766 1.061538 0.9629029 1.0094594 1.0280756 0.9588873
0.97147834 0.80070955 0.9874797 1.0069757 1.1267983 1.0084189 1.02427 1.0993123

stage2.0.residual.4.bias f4 [16]
00000000: 73b1 673e 8364 403d d08e 40bd 049c 613e
00000010: 2969 88bc 9fd7 cf3d f836 493e fc2e 69bd
00000020: 4b51 5cbd 21db 34be 0d80 dd3c 8554 183e
00000030: ac9b abbd d152 9c3d 972a b63d abd1 a63e
0.22626285 0.046970855 -0.047011197 0.22032171 -0.016651707 0.10148548 0.19649875 -0.056929573
-0.053788465 -0.17661716 0.027038598 0.14875992 -0.083793014 0.076329835 0.08894842 0.3258184

stage2.0.residual.4.running_mean f4 [16]
00000000: 8539 4e3e d2b8 883e e1fa ab3e fdc9 b2be
00000010: 5838 08bf 6dc0 9ebc 0623 413f 7661 d5be
00000020: ca90 d2bd dd1f abbe a743 68be c322 293e
00000030: 7a85 c33d 7c28 173f 78e5 113d df0c f73e
0.2013913 0.26703507 0.33589843 -0.3491973 -0.53210974 -0.019378865 0.75444067 -0.4167592
-0.102815226 -0.33422747 -0.22682057 0.16517167 0.09546943 0.5904615 0.03561923 0.48252007

stage2.0.residual.4.running_var f4 [16]
00000000: 0582 263e 00a7 3e3e 0ba9 113f a228 263d
00000010: 904d 883e 5d74 833e b33f 1d3f 1b79 383e
00000020: c8c3 0d3e b59f 3e3e f5bc 5a3e c4ca 8c3e
00000030: 8241 0b3d 312b 023f 62ca 963d 863c b93f
0.16260536 0.18618393 0.56898564 0.040566094 0.26621675 0.25674716 0.6142532 0.18014948
0.13844216 0.18615611 0.21361144 0.27498448 0.03399802 0.50847155 0.0736282 1.4471595

stage2.0.residual.6.weight f4 [12, 16, 1, 1]
00000000: 0f49 26be b70a 62be 6f9d 82bc 1268 5dbe
00000010: e9b5 45be eb6e 033e 0ebe ba3d 22d5 33be
00000020: 5f8f b0bb a046 d9bd ba60 f4bd e14c f1bd
00000030: 5d31 063e 5471 8ebe 3ad6 a03d fffc 1fbe
00000040: c16a 2a3e 023a 143e c730 55be 318b 543e
00000050: 13c4 30be f675 933e f496 173d 9c36 543e
00000060: 66a9 033e 8cc0 a53d ff06 08be 80a7 fcbd
00000070: fb5b 6d3e 5b10 0e3e 157f 663c 4bbe 51be
00000080: 376f d9bd 07a1 41bd 4eb2 6bbd 63fd 5d3e
00000090: 97ca d1bd 4e88 4b3b 94bf 003e 67dc 8f3e
000000a0: 678b 92bd 8d0e 243e 6542 16bd 1e07 8f3e
000000b0: 80fc 613e e48a 303e 101f b5ba 2056 d33d
000000c0: 5c21 19be 0fa1 493e ce94 70bc 1477 e53b
000000d0: 0a33 df3c 86cb 2d3e 0917 9a3e ac7f 86bd
000000e0: 8d74 8b3d 22d5 cf3c 4c19 bc3e d46d ea3c
000000f0: 8424 163e 42f0 fc3d e75b 843d ebce a9bd
00000100: 9aef b1bc d5c8 d3bb 44fd f1bd 44de 793e
00000110: 7b4a 013e a64c 26be 50e5 ecbd 45c5 1cbd
00000120: 28bd bcbe 1169 acbd 3cb4 e4bc 2acc 39be
00000130: 9721 453e 10b5 e3bd e227 06be 578a 4a3e
00000140: 2887 993d d3e8 ecbd 5e9a 523d 30c8 753e
00000150: 15ec 96bd 899b 85bd a53e 8bbe 7fd6 1abe
00000160: ebcd 5e3e 4b3a eebc 1498 34be 9712 aebe
00000170: 7709 d23d 2e0d 923d cb94 3dbc 409f 4dbe
00000180: 8b64 043e 64b0 ebbb 19c4 393e 4c21 d4bc
00000190: 8178 2c3e 84d1 2abe 1c56 9c3e e7d0 1fbc
000001a0: d58f 4abb 7827 c03d 8105 b43d 6a65 ed3c
000001b0: fcfa debb 7b4d fd3d c816 fb3d 574c bc3e
000001c0: 22af 41be 7234 5b3c 44fb 49bd 5b82 16be
000001d0: ae6c 593d 45d6 5ebd dc00 e2bd 4682 1cbd
000001e0: fe19 60be 5569 92bd e3c7 823e 4778 eb3d
000001f0: 9090 373e 14d7 09be cbab 903e 9482 65be
00000200: dd1b 56bd d737 f5bd 2009 a23e e32d 143d
00000210: 9863 823e a9b6 b13d 1a16 f6bd 2c5e a53d
00000220: 3002 c93c 2cfc d8bd c21c 0bbe 4387 00be
00000230: 06da 36be 56a8 483e 6f0e cf3d 012b 963e
00000240: 3769 48bd 2a6b febd 94c2 903e 95dc 163e
00000250: 08d1 77bd 6fed 003e a241 3c3e d6f5 25be
00000260: c33d 29be 2dec e1ba 3063 693e df06 0f3e
00000270: 3e6c e3bd 7f4b 623e 39f3 b2be 2a77 62bd
00000280: 8a55 693b af45 293d a416 393a 4c20 0bbe
00000290: f973 c13d d346 b2bd 2ed9 243e b0ff 98be
000002a0: 9560 cf3b 0f70 c83d cb73 9a3d ba06 8e3e
000002b0: 5330 ae3e dde6 fb3d 2e33 0f3e 191d 24be
000002c0: f7da 11be 3a8f 843e b457 bb3d dbb6 0bbe
000002d0: 9942 323d 0ed7 ffbd 154e 8a3e b37d 42be
000002e0: a6c3 9bbd cdba 45bd 5d4f 693e cad7 593e
000002f0: a7dd 693e 12c7 f53d 9e8d 2cbd 844c 13be
-0.16238807 -0.220744 -0.01594421 -0.21621731 -0.19307674 0.1283528 0.09118281 -0.17561772
-0.005388185 -0.10609174 -0.11932512 -0.117822416 0.13104768 -0.27820837 0.078533605 -0.15623854
0.16642286 0.14475253 -0.20819388 0.20756222 -0.17262296 0.28800935 0.037009194 0.20723957
0.12857589 0.08093366 -0.13283919 -0.123366356 0.23179619 0.13873427 0.014068385 -0.20482747
-0.10616916 -0.04727271 -0.05754309 0.2167869 -0.10243719 0.0031056586 0.12573081 0.2809784
-0.07155495 0.16021176 -0.036684413 0.27935117 0.22068977 0.17240483 -0.0013818461 0.103191614
-0.14954132 0.19690345 -0.014683915 0.0070027206 0.027246017 0.1697217 0.300957 -0.0656732
0.0680934 0.025370184 0.3673805 0.028616823 0.14662367 0.12350513 0.064628415 -0.082914196
-0.021720696 -0.00646315 -0.11815885 0.24401194 0.12626068 -0.16240177 -0.115671754 -0.03827407
-0.36863065 -0.08418477 -0.027917974 -0.18144289 0.19251095 -0.11118519 -0.13101152 0.19779335
0.07496482 -0.11567845 0.051416747 0.24002147 -0.07369248 -0.065238066 -0.2719623 -0.15120886
0.21758239 -0.02908053 -0.17636138 -0.33998558 0.102557115 0.0713142 -0.01157112 -0.2008028
0.12928979 -0.0071926583 0.18141212 -0.025894783 0.16842844 -0.16681486 0.30534446 -0.009754396
-0.0030908484 0.09382528 0.08790112 0.028979022 -0.006804822 0.12368294 0.122602046 0.36776993
-0.18914464 0.013379203 -0.04931189 -0.14698164 0.05308216 -0.054403562 -0.1103532 -0.038210176
-0.21884915 -0.07148997 0.25543126 0.114975505 0.1792624 -0.13460952 0.28256068 -0.22413093
-0.052272666 -0.11973541 0.31647587 0.036176573 0.2546661 0.08677418 -0.12015934 0.080746025
0.024537176 -0.10594973 -0.13585189 -0.12551598 -0.17856607 0.19595465 0.10110175 0.29329684
-0.048928466 -0.12422784 0.2827345 0.14732583 -0.060502082 0.12590574 0.18384412 -0.1620706
-0.16527466 -0.0017236524 0.22791743 0.13967465 -0.1110463 0.22099112 -0.3495119 -0.055289425
0.0035603964 0.04132622 0.00070605637 -0.13586539 0.09445948 -0.08704915 0.16098472 -0.29882574
0.006328652 0.097869985 0.07541617 0.27739507 0.34021243 0.12299893 0.13984367 -0.16026725
-0.14243685 0.25890523 0.091475874 -0.13643973 0.043520544 -0.1249219 0.27012697 -0.18993263
-0.07605676 -0.04827385 0.22784181 0.21273723 0.2283846 0.1200086 -0.042127244 -0.14384657

stage2.0.residual.6.bias f4 [12]
00000000: 4d8b 5d3e f9f1 193e ec16 e4bd 380a 473e
00000010: bb09 cb3d 2001 773e b0c9 043e 6e42 48bd
00000020: 054b 15be 864d a03d 6e2c f3bd 98d2 2d3d
0.2163517 0.15033711 -0.111371845 0.19437492 0.09913965 0.24121523 0.12967563 -0.048891477
-0.14579399 0.078272864 -0.11873709 0.042437166

stage2.0.residual.7.weight f4 [12]
00000000: bbc5 573f 6efd 843f 22d9 7f3f 3f53 7b3f
00000010: aa5d 7d3f 3c5a 903f 43da 833f 83ea 8b3f
00000020: 6274 663f 578a 893f 5dbf 683f 8bb9 553f
0.8428609 1.0389841 0.99940693 0.981739 0.98971045 1.1277537 1.0300983 1.0930942
0.90021336 1.0745343 0.90917 0.8348624

stage2.0.residual.7.bias f4 [12]
00000000: 2a98 013d ec93 4a3d 0170 103d beb2 c8bb
00000010: a174 49bc 4e7c 64bc a889 f5bc 3d99 df3b
00000020: bbf3 3d3b 712d 81bc bcc4 723c a4eb 11bc
0.031639256 0.049457476 0.035263065 -0.0061248234 -0.012295873 -0.013945652 -0.029972866 0.0068236873
0.0028984386 -0.015768738 0.014817413 -0.008906279

stage2.0.residual.7.running_mean f4 [12]
00000000: 4a70 7fbe 4411 be3e 5258 a63e 5a28 1e3f
00000010: 75dd 16bc 1318 1a3b c546 233f d280 25be
00000020: 73de d83d cbe3 863e 7ef6 a23d 53fe 6b3e
-0.24945179 0.37122548 0.32489258 0.6178032 -0.009208073 0.0023512885 0.6377986 -0.16162422
0.10589304 0.26345667 0.07957171 0.23046236

stage2.0.residual.7.running_var f4 [12]
00000000: abcd 923e 0dff 7b3e f102 ac3e e0ea 813e
00000010: c76b 513e 026c 9f3e 1fe9 1e3f 89bb 013f
00000020: aaae b23e 63ee 033f d129 903e 89b0 823e
0.28672537 0.24609013 0.33595994 0.25374508 0.2045127 0.3113709 0.62074465 0.5067678
0.34898883 0.51535624 0.28156903 0.2552531

stage2.1.residual.0.weight f4 [24, 12, 1, 1]
00000000: 6011 01be 0c6f 963e 79cd 04be ec96 aebd
00000010: e840 68bd 3e45 993e 40db 53be 7eee 06be
00000020: 82d3 49be 09ca db3d 7989 23be 35e5 983d
00000030: 44b4 053e 79df 02be 37cd 58bd 19d4 60be
00000040: 93a1 b7bb 0457 d8bb 0b55 ac3d a9bc 6cbe
00000050: 5405 923e 23de a03e 2fed 6dbe 86de 393d
00000060: d2b7 04be a6ec cc3d b94c 50bd 5144 d93d
00000070: 9b23 df3c 9b80 a4be 6d80 dc3d bef1 e2bc
00000080: 65b7 a13d 2a05 813e 1d36 8c3e b6c1 2e3b
00000090: 9245 95bd e8a8 72be 0df4 41bd b660 a8bd
000000a0: 1864 aebd c553 47be 40cd 223e 5315 ad3e
000000b0: a40a 47bd 4ce9 53bb 9725 88bc f10f 11be
000000c0: 602d 5dbe 368d 2b3e 39f4 52bd 598e 923e
000000d0: 6b2e 5e3d 7865 edbc 7920 1e3e d621 9cbe
000000e0: f5a2 073e 1f1f c03e 802d 4b3e 7959 3cbe
000000f0: c2a0 0b3e 7685 d23d 1faa 043d 68e8 783d
00000100: ec85 d6bd 49f4 babe ca34 223e 76b3 03bd
00000110: 1a76 21be 76e6 9dbd 6d61 8cbd 84c0 f03d
00000120: 0486 6a3e e27e 97bb b915 ed3e 655c bc3e
00000130: 13d1 e53c fb3c f63d d99a 713e d1c8 00bd
00000140: 70f2 843d 46b7 4f3e e652 473e 6c0b 92bd
00000150: f10f a5be 3154 c9bd 0b6c f43d e153 22be
00000160: 5cef a43e 38c6 f63d 4a88 e83d 09b4 27be
00000170: 356d 69be 0917 5dbe b52b 1dbd 1e65 86be
00000180: ad70 a13d 8eeb 1bbe 2d88 5a3e 5583 f7bd
00000190: 76af 0b3e 7746 31be c1d4 503e f5a5 acbd
000001a0: 0c42 1bbe 7206 d13e e0b1 1cbe 3c6d 193e
000001b0: 41d8 1abd 310d aabe eed7 223e e8a6 64bd
000001c0: 71b1 e0bc 6946 4b3e 202f 893d 7fd1 1e3e
000001d0: e10f 903e 4d51 843d 24a1 573e 8a11 293e
000001e0: fbad 61bb 3949 253d 3e68 0a3e 9260 31be
000001f0: ee74 72bd 5413 db3d 4bc7 acbd da58 b8be
00000200: 709e 463d bd5d 703e d014 8a3d 1e91 5ebe
00000210: 13af 8c3e b8b1 91bd f40e 993b 537b 30bd
00000220: a0bd b4be 6ec0 123e a0cf 74be 73b4 84be
00000230: 2adb 5ebe 8680 27be 988b 3cbd 4c66 86be
00000240: 192c a93b e360 8abe 05d6 fabd 5a1b 5abe
00000250: b266 3d3e 2354 973e 843e 733d 39c1 593e
00000260: 789a 4dbe 86a9 173e 2a7f cebd 7740 a6ba
00000270: a6bd fdbd 0f17 adbe 9b87 a8be 4e6e 5d3e
00000280: 0617 103d 157f 26be a34e d53d 479e 7cbe
00000290: 3dc8 3c3e 1211 693e c12f c4bd 5c45 ecbd
000002a0: f79d 063e e9d7 8c3e 2a88 823e df8f 863e
000002b0: 8172 123b 8d70 183e 09ca 8bbe 6ac7 9fbc
000002c0: 7fa9 493e 163e a5bd f3a0 2b3e 378f 753e
000002d0: 369d 48be c64e 213e d0fd a33c cecb 4abe
000002e0: bf2c 8c3e 9b49 f03d d6e9 813e 8237 58be
000002f0: 834a 743e 74e9 1abe 804a 993d 3b44 cbbe
00000300: 960d 13bd fa40 a33e 2089 863e 4b39 c6bd
00000310: 5e90 2b3d 429f e13d e2ca 4fbe 9f24 25be
00000320: 9343 efbb cf7a b53e 38cf fa3c a313 c13d
00000330: 1c1d fd3d 0ce2 a73d 9c9d b73d 0e29 a73d
00000340: 57d6 a33e 48bb 49be c53d 3c3d 4280 223e
00000350: 4c9d 4ebc 0cc6 163d be45 56bd 993e 1dbe
00000360: fb46 75be 7722 acbd 36e6 3cbd 2f97 223c
00000370: 2196 6d3e 1172 5ebe 3cfd 763e 8329 9ebe
00000380: 0cea 10be 7909 2d3e c450 8dbd 093c 3b3e
00000390: 94a8 41bd 2ad5 9cbe 6277 c93b 398f 2abb
000003a0: fc43 eb3c bf13 3abe 944e b83d 874a aebe
000003b0: 6ca4 c5bd ffd1 45be 8480 1a3c 35fe 3abd
000003c0: 33c6 303e 302e 293d 74de 1dbe 860e 293e
000003d0: 972b 81bd b262 773d fc19 5b3d 1fa4 ac38
000003e0: 55c6 5d3d 6c5e 663e 4339 10be de04 fb3d
000003f0: bdfc dfbc 9832 0cbe 208d e23d 41c8 5bbe
-0.12604284 0.29381597 -0.12969007 -0.0852488 -0.056702524 0.2993564 -0.20689106 -0.13176915
-0.1970959 0.107318945 -0.1597041 0.07465593 0.13057047 -0.1278056 -0.052930083 -0.21955909
-0.005603978 -0.00660217 0.08414658 -0.23118843 0.2851969 0.31419477 -0.2323501 0.04537823
-0.12960747 0.100060746 -0.05085442 0.106087334 0.027238658 -0.32129368 0.10766683 -0.027703162
0.07896308 0.25199252 0.27385035 0.0026665754 -0.0728866 -0.23697245 -0.047351886 -0.08221571
-0.08515185 -0.1946555 0.15898609 0.33805332 -0.048594132 -0.00323351 -0.016619487 -0.14166237
-0.2159934 0.16753086 -0.05150244 0.28624228 0.054243486 -0.028979048 0.15442075 -0.30494565
0.13245757 0.37523744 0.19841576 -0.18393506 0.13635543 0.10279362 0.032388803 0.060768515
-0.10474762 -0.365145 0.1584045 -0.03215357 -0.15767708 -0.077099726 -0.0685452 0.117554694
0.22902685 -0.00462328 0.46305636 0.3678924 0.028053796 0.1202335 0.23594226 -0.031441513
0.06491554 0.20284757 0.19465217 -0.07131085 -0.32238725 -0.09830511 0.1193467 -0.1585231
0.32213867 0.12049526 0.1135412 -0.16377272 -0.22795565 -0.21590818 -0.03837176 -0.2624902
0.07882819 -0.15226576 0.2134101 -0.120855965 0.13641152 -0.17312036 0.20393659 -0.08430091
-0.15161914 0.4082523 -0.15302229 0.14983076 -0.037803892 -0.3321319 0.15902683 -0.055823237
-0.02742836 0.19851078 0.066984415 0.15509604 0.28137115 0.064608194 0.21057564 0.16510597
-0.0034435976 0.040353034 0.13516328 -0.17321995 -0.059193544 0.10697046 -0.084364496 -0.36005288
0.04849094 0.23473258 0.06742251 -0.21735045 0.2747732 -0.07113975 0.004670972 -0.04308636
-0.35300922 0.14331219 -0.23907328 -0.25918922 -0.21763292 -0.16357622 -0.046031564 -0.2624992
0.0051627276 -0.27027044 -0.12247852 -0.21299496 0.18496206 0.2955638 0.05938579 0.21265115
-0.20078456 0.14810762 -0.10082848 -0.0012684007 -0.12389688 -0.33806655 -0.3291596 0.21624109
0.035178207 -0.16259415 0.104153894 -0.24669753 0.1843576 0.22760418 -0.09579421 -0.11536667
0.13146196 0.27508476 0.2549451 0.2628164 0.0022346082 0.14886685 -0.27302578 -0.019504268
0.19693564 -0.080684826 0.16760616 0.23980413 -0.19591221 0.15752706 0.020018488 -0.19804308
0.2737789 0.11732789 0.25373715 -0.21114925 0.23856549 -0.15128118 0.07484913 -0.39700493
-0.03590163 0.3188551 0.26276493 -0.096788965 0.041885726 0.11016704 -0.20292237 -0.16127251
-0.0073017566 0.35445258 0.030616388 0.094275735 0.12359068 0.08197412 0.089656085 0.081621274
0.31999466 -0.19700348 0.045957346 0.15869239 -0.012610745 0.036809966 -0.052312605 -0.1535591
-0.23952858 -0.08405011 -0.046117984 0.00992374 0.23201801 -0.217232 0.24120039 -0.30891046
-0.14151782 0.16898145 -0.069001704 0.1828462 -0.04727991 -0.3063138 0.0061482647 -0.0026025309
0.02871894 -0.18171595 0.089993626 -0.34041235 -0.096505016 -0.19318388 0.009430055 -0.045652587
0.17263107 0.041303813 -0.1541689 0.16509447 -0.06307142 0.060396858 0.053491578 8.232169e-05
0.054144222 0.22496957 -0.14084344 0.12256788 -0.027342195 -0.13691175 0.11062074 -0.2146311

stage2.1.residual.0.bias f4 [24]
00000000: d52d b7bd 28d2 46be a512 5a3e 156c 1a3e
00000010: 9a55 7ebe ddef cd3d 4ca1 393e be0f db3d
00000020: 16d5 5c3e 4818 5d3e e69c 0abe dbc7 55be
00000030: 232f 483e f2b8 813e aea7 cabd 0e94 7f3e
00000040: 75fe edbd 65c5 523e 6490 12be 01aa 09be
00000050: 2dd8 cf3d 8634 93be e833 513e 70c1 e23c
-0.08944289 -0.19416106 0.21296175 0.15080293 -0.24837342 0.10055516 0.18127936 0.10696362
0.21565661 0.21591294 -0.13536415 -0.2087702 0.19549231 0.25336415 -0.098952636 0.24958822
-0.116207995 0.20583113 -0.14312893 -0.13443758 0.10148654 -0.2875101 0.20429957 0.027680129

stage2.1.residual.1.weight f4 [24]
00000000: d9ca 6a3f b139 833f 1c9a 853f 92ad 7b3f
00000010: 23bd 493f 9832 833f 63ea 863f 9582 723f
00000020: ab64 a33f 74ae 7a3f 2627 853f f360 773f
00000030: 1c6d 8e3f e81a 423f 3cf2 7a3f 53c9 5b3f
00000040: 013c 6f3f 1f83 5a3f b5ea 983f 2c71 513f
00000050: ebba 713f d8a0 963f 25df 813f 89d2 763f
0.9171577 1.0251981 1.0437655 0.9831172 0.78804225 1.0249815 1.0540279 0.947305
1.2765096 0.97922444 1.0402572 0.9663231 1.1127048 0.75822306 0.9802587 0.8585407
0.93450934 0.85356325 1.1946627 0.8181331 0.9442584 1.1767836 1.0146223 0.96415

stage2.1.residual.1.bias f4 [24]
00000000: 28bd 033e de6f 503d 93c6 663d b98b 9e3d
00000010: ff2c 5f3e 1cd6 613d 58df 733d 9ff6 f23d
00000020: 0310 093e 36ba 27bc a7ce 31bd 3396 6d3d
00000030: fc64 16bd 051f 683e 28fa 3fbc 06f8 c53d
00000040: 7ea0 b43d 766a f9bd 5f46 7b3c c6cb 433e
00000050: 056d a2bd 2118 283e 75b3 6d3d c654 babd
0.12865126 0.050887935 0.05634172 0.07741494 0.21794508 0.05513583 0.05953917 0.118634455
0.13385014 -0.010237267 -0.04340997 0.05800457 -0.0367174 0.22668083 -0.011717357 0.09666447
0.08819674 -0.12178509 0.015336602 0.19120702 -0.0793095 0.16415454 0.05803247 -0.090982005

stage2.1.residual.1.running_mean f4 [24]
00000000: b8d3 b0bd 36d8 55be 5a82 593e b22a 0d3e
00000010: a844 84be 153d e33d 9e30 463e 4099 bb3d
00000020: a87d 4f3e f434 4f3e ebfd 03be a777 44be
00000030: 6a65 2c3e 2490 5a3e 84d6 86bd f8cc 7c3e
00000040: 4156 c2bd 1417 5c3e c970 2fbe fe00 1abe
00000050: 17fd c03d 12b6 97be b201 4b3e 5c81 203d
-0.08634132 -0.20883259 0.21241131 0.13785818 -0.2583363 0.11095635 0.19354483 0.091600895
0.20262778 0.20235044 -0.12889831 -0.19186269 0.16835561 0.21344048 -0.06583884 0.24687564
-0.09489108 0.21493179 -0.17132868 -0.15039441 0.09423273 -0.29631096 0.19824865 0.039185867

stage2.1.residual.1.running_var f4 [24]
00000000: 51a2 1b3f cf22 2d3f eaff 2d3f 4272 9c3e
00000010: 6cf5 9f3f 9ccc 823e 84ca 813f 1d9e 0d3f
00000020: ef3d d03e 19d0 253e 20bf f43e 61dd fe3e
00000030: c504 363f 0857 333f a936 2d3f 41aa 283f
00000040: d764 003f 6f96 043e eefb 0b3f 3366 9c3e
00000050: 5e29 323e f3d1 a93e 19d5 9c3f a35c 073f
0.6079455 0.6763124 0.6796862 0.30555922 1.2496772 0.2554673 1.0139928 0.55319387
0.40672252 0.16192664 0.47802067 0.49778274 0.7110103 0.70054674 0.6766153 0.65884787
0.5015387 0.12948011 0.5468129 0.30546722 0.17398593 0.3316799 1.2252532 0.5287573
